Simulator/results/test_training/My Behavior/My Behavior-999965.pt (torch, 435001 bytes, 36 tensors)

network_body._body_endoder.seq_layers.0.weight f4 [128, 5]
0.23315692 -0.19576742 -0.683903 0.47465152 -0.37029108 0.5321033 -0.17927293 -0.85570556
0.26267287 0.0032407579 -0.8703964 -0.27156806 0.0099956365 -0.06701263 0.47717085 0.3632527
0.23213623 -0.043057427 0.08584059 -0.87008536 0.60566205 0.6716581 0.0073085637 -0.15729864
-0.5233799 1.1075399 0.0472764 0.27249458 0.0491376 0.21245433 0.64937013 -0.8405008
-0.9426841 0.9264466 -0.6437106 0.5149709 -0.8645835 -0.4511728 -0.5175997 0.6865133
0.75067294 0.24071948 0.38305518 0.04185179 -0.059373137 0.63549465 1.0154666 0.22298867
-0.19694144 0.8483795 -0.40093708 0.30718017 -0.49822888 0.25061426 -0.27287382 -0.34450814
0.022292633 -0.24187455 -0.65973884 0.2656996 -0.061336838 0.37079677 0.57652134 -0.35841212
-0.36191714 0.4603182 0.06209234 0.36875492 -0.08737883 0.6978403 0.060443904 -0.27645534
0.7391903 0.09947637 0.0758411 -0.57520515 -0.198685 -0.3889812 -0.6198001 -0.13321723
0.29055926 0.14160548 -0.33001906 -0.35180625 -0.36021233 0.13873017 -0.597436 -0.60496783
0.01614635 -0.7840812 0.25059432 0.69122887 0.29011962 0.044069763 -0.53083235 0.009167709
0.107985795 0.5300349 0.2491047 -0.39486524 -0.16740903 0.7404589 0.4198571 -0.6937762
0.49493596 0.084547065 -0.19193636 -0.5283411 0.00011062581 -1.4198961 0.45383984 -0.813223
-0.31769168 -0.50175905 0.67379993 -0.041560687 -0.00538755 0.6817969 -0.28463718 -0.01039824
0.19328526 0.07458414 -0.061391897 -0.65040976 -0.10398991 0.4073711 -0.34127352 0.1521995
-0.19029014 0.37881026 -0.14168185 -0.4383389 -0.6013174 -0.3530979 0.20237121 0.2855311
-0.22032179 -0.14467134 0.35048398 -0.07451526 0.6594792 -0.33157966 0.42689392 0.9730213
-0.043840118 0.016276378 1.1005574 0.1517638 0.115698285 -0.6988863 0.55020016 -0.31848097
-0.32194915 0.05717068 -0.41413483 0.10878161 0.74282676 -0.2833809 0.00022241462 0.37915123
0.14569384 -0.47219124 -0.5879839 -0.1707586 -0.20606592 -0.47549146 -0.105016835 -0.32394686
-1.0194558 1.165104 -0.48366535 -0.5672242 0.24989231 -0.33167 0.1545487 -0.20991321
0.20331979 1.2146332 0.3172361 -0.9540876 0.050660573 -0.69231874 -0.85117304 0.10663691
0.043742042 0.2913389 0.49159718 0.40862074 0.3630256 0.10732928 0.23687804 0.29167157
0.24070513 0.020533629 0.4399815 0.796908 -0.32884705 0.021972103 -0.009889889 0.867688
0.47914448 -0.1284799 0.14522922 0.33486658 -1.1694329 0.05495661 0.73651505 -0.15042904
-0.2921498 -0.020474339 0.34639964 0.8176581 -0.2077384 -0.18278486 0.6982023 0.2832779
0.28702486 -0.5102864 -0.5426598 -0.31532866 -0.61567974 0.5305619 1.1281799 0.15114024
0.039544087 0.31016287 0.23397028 0.33329016 -0.8182691 -0.027015835 0.61767536 0.60045683
0.3005129 -0.032264885 0.41531348 -0.09487056 0.6465794 -0.15677759 0.25669047 0.23510851
-0.15960374 0.65392905 -0.40823743 0.24200246 -0.38942885 0.0027098916 0.75696826 -0.94940895
-0.15182705 0.61784095 -0.70567393 0.4952554 -0.0776162 0.7400472 0.19216251 -0.14168978
00000000: b0c0 6e3e 4177 48be 4414 2fbf 8605 f33e
00000010: cb96 bdbe ec37 083f 5393 37be 850f 5bbf
00000020: 0f7d 863e e562 543b 4cd2 5ebf f80a 8bbe
00000030: bdc4 233c eb3d 89bd bd4f f43e 42fc b93e
00000040: 1fb5 6d3e fc5c 30bd 31cd af3d eabd 5ebf
00000050: ab0c 1b3f c9f1 2b3f ad7c ef3b e512 21be
00000060: 3afc 05bf dec3 8d3f e6a4 413d 6984 8b3e
00000070: 8244 493d a18d 593e 1f3d 263f 0f2b 57bf
00000080: bf53 71bf 9b2b 6d3f 38ca 24bf 22d5 033f
00000090: 5855 5dbf 1f00 e7be 6a81 04bf 56bf 2f3f
000000a0: 1a2c 403f 2b7f 763e cf1f c43e c86c 2b3d
000000b0: 3f31 73bd c7af 223f cffa 813f 2457 643e
000000c0: 04ab 49be 662f 593f a047 cdbe b846 9d3e
000000d0: db17 ffbe 8350 803e 1eb6 8bbe 5f63 b0be
000000e0: 0a9f b63c f6ad 77be a5e4 28bf c709 883e
000000f0: 563c 7bbd 13d9 bd3e e796 133f cb81 b7be
00000100: 344d b9be d4ae eb3e 8a54 7e3d 72cd bc3e
00000110: acf3 b2bd a9a5 323f 0794 773d 8e8b 8dbe
00000120: 933b 3d3f 44ba cb3d 9452 9b3d a540 13bf
00000130: 1574 4bbe 8b28 c7be 38ab 1ebf 196a 08be
00000140: 2fc4 943e 0701 113e 42f8 a8be f31f b4be
00000150: c06d b8be 480f 0e3e 91f1 18bf 2cdf 1abf
00000160: 5a45 843c 8cb9 48bf e64d 803e 60f4 303f
00000170: 8f8a 943e 7f82 343d a1e4 07bf 2934 163c
00000180: a827 dd3d 5eb0 073f 4d15 7f3e c72b cabe
00000190: 466d 2bbe b78e 3d3f 83f7 d63e 519b 31bf
000001a0: 3f68 fd3e 0327 ad3d f78a 44be 5d41 07bf
000001b0: c8ff e738 28bf b5bf b25d e83e 622f 50bf
000001c0: 7ca8 a2be 4873 00bf 277e 2c3f 8a3b 2abd
000001d0: 0c8a b0bb 3e8a 2e3f f7bb 91be 615d 2abc
000001e0: 92ec 453e 92bf 983d 1276 7bbd 4181 26bf
000001f0: a9f8 d4bd f292 d03e 67bb aebe 30da 1b3e
00000200: 6bdb 42be 6bf3 c13e 0c15 11be f56d e0be
00000210: f0ef 19bf 3fc9 b4be 663a 4f3e 2231 923e
00000220: 099c 61be b924 14be a372 b33e 759b 98bd
00000230: a1d3 283f cfc4 a9be d791 da3e ed17 793f
00000240: b291 33bd 0a56 853c 11df 8c3f f867 1b3e
00000250: 39f3 ec3d 36ea 32bf ebd9 0c3f f00f a3be
00000260: 85d6 a4be ce2b 6a3d 7b09 d4be e5c8 de3d
00000270: e529 3e3f 4d17 91be f837 6939 1c20 c23e
00000280: c430 153e 0dc3 f1be 1d86 16bf 58db 2ebe
00000290: f202 53be 9e73 f3be 1113 d7bd 5ddc a5be
000002a0: 877d 82bf 2122 953f fca2 f7be 9b35 11bf
000002b0: c5e3 7f3e a6d0 a9be 0442 1e3e 7df3 56be
000002c0: 1033 503e 1a79 9b3f c56c a23e 163f 74bf
000002d0: 7681 4f3d cd3b 31bf 7ae6 59bf 7464 da3d
000002e0: db2a 333d 5f2a 953e a0b2 fb3e bd36 d13e
000002f0: 7ede b93e 74cf db3d 2890 723e fa55 953e
00000300: 687b 763e 2436 a83c 4145 e13e 2a02 4c3f
00000310: a45e a8be d7fe b33c 3309 22bc cd20 5e3f
00000320: 6d52 f53e 3c90 03be f8b6 143e a273 ab3e
00000330: faaf 95bf 2f1a 613d 408c 3c3f 120a 1abe
00000340: a994 95be cdb9 a7bc 4b5b b13e 0b52 513f
00000350: 60b9 54be f42b 3bbe 63bd 323f cd09 913e
00000360: ecf4 923e 21a2 02bf c1eb 0abf c272 a1be
00000370: 309d 1dbf e8d2 073f 3368 903f 82c4 1a3e
00000380: fbf8 213d abcd 9e3e e895 6f3e 02a5 aa3e
00000390: 157a 51bf 5050 ddbc f91f 1e3f 8ab7 193f
000003a0: d4dc 993e 2f28 04bd f8a3 d43e 7f4b c2bd
000003b0: 3a86 253f 4e8a 20be ef6c 833e 49c0 703e
000003c0: 2a6f 23be e567 273f 7f04 d1be 7ecf 773e
000003d0: 3863 c7be 7098 313b acc8 413f 770c 73bf
000003e0: 8d78 1bbe d32a 1e3f 0ca7 34bf 1e92 fd3e
000003f0: 3ef5 9ebd bc73 3d3f 40c6 443e 2017 11be

network_body._body_endoder.seq_layers.0.bias f4 [128]
0.049200438 -0.029856704 -0.026437094 0.023645233 -0.026233206 0.04978771 0.052679222 -0.025793586
0.064400285 0.009758338 -0.03416916 -0.026093803 0.03108182 0.00635179 0.05510027 -0.015265653
-0.040236417 0.01793521 0.045823857 0.02603028 -0.046974998 0.008787679 -0.0078759985 -5.2093983e-05
-0.06627344 -0.019275496 -0.014002298 0.060204476 0.0818039 -0.008473373 0.012208087 0.0063755354
-0.00024897503 0.0023606562 -0.019186348 0.029396165 -0.040372334 0.022456087 0.052473217 0.021342147
0.07317812 -0.007260441 -0.009475772 -0.023042955 0.016359907 -0.035525072 0.04525647 0.042238403
-0.0036454177 -0.10221242 0.04630163 0.018151455 -0.026300313 -0.06663627 -0.029797617 0.028306508
-0.0028897726 0.003267586 -0.003651157 -0.06932687 -0.013729619 0.06632508 0.0005037661 0.053068195
0.039774187 0.05387947 0.009922916 0.06725649 -0.03990105 0.0464695 0.00939628 0.048827726
-0.0350091 0.05253711 -0.0048259874 0.022851432 -0.02200369 -0.05754952 -0.04054528 -0.026390068
-0.0024319033 0.005557511 0.076007076 -0.030875951 -0.021806559 -0.05664763 -0.06112031 -0.0007524843
0.0013106574 0.015412969 -0.011285057 0.014653914 -0.028517576 0.026740026 0.07891254 -0.024491893
-0.04075625 -0.042736392 0.04449898 -0.060511272 -0.06165528 0.032749105 -0.04467412 -0.019685805
0.045655545 0.05493329 0.026505537 0.03001167 -0.019770557 -0.01821733 -0.031150764 -0.019884469
-0.015535431 -0.013908132 -0.008020441 0.017653396 -0.014696798 0.0032251445 -0.027232062 -0.043182533
-0.04418687 -0.022296341 0.013452491 0.074501306 -0.0107409945 0.057920124 -0.041697275 0.06021804
00000000: 6686 493d 0c96 f4bc 9b92 d8bc a6b3 c13c
00000010: 05e7 d6bc 33ee 4b3d 2bc6 573d 124d d3bc
00000020: 4ce4 833d 70e1 1f3c f6f4 0bbd acc2 d5bc
00000030: 4d9f fe3c ad22 d03b d2b0 613d ca1c 7abc
00000040: f1ce 24bd ddec 923c ccb1 3b3d 743d d53c
00000050: db68 40bd 32fa 0f3c 550a 01bc 7d7f 5ab8
00000060: 5fba 87bd a5e7 9dbc e569 65bc f898 763d
00000070: ce88 a73d e7d3 0abc 6e04 483c dee9 d03b
00000080: dd88 82b9 3db5 1a3b b02c 9dbc 3ad0 f03c
00000090: 765d 25bd d4f5 b73c 28ee 563d bad5 ae3c
000000a0: 69de 953d fee8 edbb 4540 1bbc 94c4 bcbc
000000b0: 3605 863c bd82 11bd d95e 393d 2d02 2d3d
000000c0: f6e7 6ebb bf54 d1bd c7a6 3d3d 5cb2 943c
000000d0: c173 d7bc 9978 88bd 221a f4bc 0de3 e73c
000000e0: 5762 3dbb ff24 563b 4048 6fbb 3ffb 8dbd
000000f0: 32f2 60bc 72d5 873d 2c0f 043a 095e 593d
00000100: 42ea 223d b8b0 5c3d ba93 223c c5bd 893d
00000110: 496f 23bd cd56 3e3d dbf2 193c 95ff 473d
00000120: b465 0fbd 2731 573d 5123 9ebb ed32 bb3c
00000130: 1541 b4bc 0cb9 6bbd cf12 26bd fc2f d8bc
00000140: 9160 1fbb c81b b63b 99a9 9b3d 90ef fcbc
00000150: aba3 b2bc 5807 68bd 4a59 7abd 5e42 45ba
00000160: 5dca ab3a ad86 7c3c f6e4 38bc f816 703c
00000170: b19d e9bc e60d db3c e69c a13d 39a3 c8bc
00000180: 07f0 26bd 5b0c 2fbd 9044 363d abda 77bd
00000190: 3f8a 7cbd ed23 063d 36fc 36bd 2044 a1bc
000001a0: 4f01 3b3d bb01 613d 2422 d93c 09db f53c
000001b0: ddf5 a1bc 833c 95bc e32f ffbc c1e4 a2bc
000001c0: 5288 7ebc efde 63bc 2b68 03bc db9d 903c
000001d0: d7ca 70bc f25c 533b c615 dfbc 2be0 30bd
000001e0: 4bfd 34bd d1a6 b6bc d667 5c3c 2494 983d
000001f0: fffa 2fbc a73d 6d3d c3ca 2abd 31a7 763d

network_body._body_endoder.seq_layers.2.weight f4 [128, 128]
-0.12338122 0.154552 -0.030138165 0.031674743 0.08682621 -0.08182841 -0.1214094 0.04059245
0.16342172 0.19003986 0.108611315 -0.037605736 0.10063515 0.06617374 0.2510941 0.06396567
-0.07825403 0.020304747 0.0015682816 0.022682162 -0.17072113 -0.06559566 -0.28276572 0.09620148
0.0780854 -0.09356393 -0.06657594 0.053386897 0.08923019 0.13894673 -0.18470782 0.079923674
0.0067693326 -0.19861683 -0.17364621 -0.047075924 -0.13390401 0.06488354 0.06847891 -0.040451556
0.2083329 -0.025332304 -0.037407145 0.004173788 0.057658214 -0.10201195 0.06080515 0.053167135
0.08589894 -0.0530846 0.0054910434 -0.062133163 -0.07049154 -0.16280648 -0.015463469 0.008403258
0.019954296 -0.17369881 0.14298922 -0.10236178 -0.11283219 0.16695496 -0.108595215 -0.030496353
-0.023072474 0.092700414 -0.011150674 0.0987113 0.0539737 -0.016646028 -0.0713601 0.12721887
-0.032620743 0.098435484 -0.3129146 -0.00803704 -0.034032166 -0.08776387 -0.15343615 -0.10098241
-0.090871796 -0.046817333 0.042443976 0.00014311503 -0.041230697 -0.051190764 -0.072530866 -0.24231195
-0.07875426 -0.04983636 0.08087752 -0.0757768 0.011603571 0.04412213 0.07534681 -0.097287595
0.03179314 -0.018955301 0.06515635 -0.045060284 -0.096446395 -0.06830032 0.058002576 -0.23089029
0.20334601 0.040390648 -0.12961817 0.12956795 -0.003601608 -0.088470764 0.0056664725 0.0989118
-0.047615018 -0.013641769 -0.032724474 0.09664967 -0.15284504 0.23224336 -0.017339766 0.1731866
0.11538586 -0.08520704 -0.09373779 0.2525521 -0.107939675 0.006057234 -0.08249582 0.017294373
0.07955204 0.08582537 -0.014122259 0.1628026 -0.20943864 -0.015767744 0.10326118 -0.048234336
0.04628973 -0.08139398 0.12656055 0.051551413 -0.19206522 0.0714781 0.04160025 -0.027202094
0.013798049 0.13928212 0.14717431 0.2242121 -0.13773951 -0.0685853 -0.13745478 -0.14974953
-0.09932439 0.0936919 -0.21260086 0.17325407 0.06902769 -0.07636916 -0.0020901312 -0.02464824
-0.03351857 0.014819171 0.134002 0.11090534 0.019569391 -0.09288541 0.11966961 0.20620775
-0.05328017 -0.29866025 -0.16051845 -0.029973336 0.067864425 0.03600317 -0.023034738 0.09857547
-0.068371825 -0.14470485 0.12787105 0.11265309 -0.10979869 -0.3916487 -0.023396255 -0.058173478
-0.12838577 0.027607981 -0.011623949 -0.22565265 -0.016853577 0.11401148 -0.18763211 -0.081843525
-0.046797574 0.04343989 -0.019702917 -0.028194178 0.12848338 0.19067176 -0.121643335 0.008468355
-0.061429452 -0.00036797486 -0.0068996986 -0.022055063 0.017558057 -0.024657927 -0.022253346 -0.24184267
0.07172625 -0.022595296 0.05871096 0.007955935 -0.09512345 -0.06902657 0.044088397 -0.003626898
-0.10255189 -0.0316481 0.03201193 -0.02552788 -0.1815478 0.04089971 0.18466385 0.16126806
0.00551082 -0.09135209 0.070496105 0.0051045357 -0.12933996 0.040127635 -0.028934013 -0.03988241
0.082425386 0.02475462 0.0999963 0.045174308 -0.009739001 -0.11329433 -0.19005777 -0.07810071
-0.16351248 -0.083409466 0.024089634 -0.00024623968 0.020645015 0.003354543 -0.13823117 -0.08405541
-0.08107309 0.017260477 0.10428061 0.1632437 -0.093621105 0.11806153 -0.13064246 0.17072229
00000000: 4baf fcbd e142 1e3e 50e4 f6bc 60bd 013d
00000010: f1d1 b13d a795 a7bd 7ea5 f8bd 4544 263d
00000020: 0658 273e cf99 423e 9c6f de3d 7908 1abd
00000030: cd19 ce3d 1986 873d 688f 803e 6f00 833d
00000040: a643 a0bd 2456 a63c cc8e cd3a f1cf b93c
00000050: 85d1 2ebe 0457 86bd abc6 90be 4805 c53d
00000060: 3deb 9f3d 729e bfbd f758 88bd 38ac 5a3d
00000070: 51be b63d 0d48 0e3e 0c24 3dbe 06af a33d
00000080: 47d1 dd3b 3662 4bbe 50d0 31be afd2 40bd
00000090: 221e 09be a9e1 843d ac3e 8c3d 88b0 25bd
000000a0: 3855 553e b185 cfbc 3c38 19bd 45c4 883b
000000b0: 052b 6c3d a4eb d0bd d20e 793d c8c5 593d
000000c0: c9eb af3d 3d6f 59bd 36ee b33b 587f 7ebd
000000d0: de5d 90bd beb6 26be 7d5a 7dbc d2ad 093c
000000e0: 3177 a33c 1ade 31be c46b 123e 0ea3 d1bd
000000f0: 9014 e7bd 3ef6 2a3e 2b67 debd 7dd3 f9bc
00000100: 7c02 bdbc b7d9 bd3d 51b1 36bc 2629 ca3d
00000110: 8713 5d3d 405d 88bc 3e25 92bd aa45 023e
00000120: 549d 05bd 8b98 c93d 5836 a0be caad 03bc
00000130: 5065 0bbd 8bbd b3bd 5e1e 1dbe decf cebd
00000140: fe1a babd 88c3 3fbd bcd9 2d3d 2611 1639
00000150: 85e1 28bd 68ad 51bd 108b 94bd a020 78be
00000160: ea49 a1bd 3621 4cbd 1da3 a53d de30 9bbd
00000170: e71c 3e3c 68b9 343d 6e4f 9a3d b83e c7bd
00000180: 8639 023d 2648 9bbc b170 853d 2291 38bd
00000190: b085 c5bd 0ae1 8bbd 1c94 6d3d 816e 6cbe
000001a0: f039 503e aa70 253d a0ba 04be 76ad 043e
000001b0: f508 6cbb 2930 b5bd d1ad b93b 4592 ca3d
000001c0: f707 43bd ba81 5fbc 190a 06bd 43f0 c53d
000001d0: 6983 1cbe 34d1 6d3e 200c 8ebc d457 313e
000001e0: 6c4f ec3d 0781 aebd 99f9 bfbd 824e 813e
000001f0: 7a0f ddbd c37b c63b 92f3 a8bd eeac 8d3c
00000200: 2eec a23d 36c5 af3d 0c61 67bc bab5 263e
00000210: 1577 56be 5b2b 81bc 997a d33d 5e91 45bd
00000220: 4d9a 3d3d e3b1 a6bd 1799 013e 9327 533d
00000230: bfac 44be 1c63 923d 0665 2a3d edd6 debc
00000240: 3611 623c f99f 0e3e ddb4 163e db97 653e
00000250: 960b 0dbe 7376 8cbd f2c0 0cbe f157 19be
00000260: 966a cbbd 8ae1 bf3d 0ab4 59be 8469 313e
00000270: 645e 8d3d 6f67 9cbd 95fa 08bb 1beb c9bc
00000280: c54a 09bd 1ccc 723c d237 093e 5722 e33d
00000290: fd4f a03c b53a bebd 5715 f53d 2028 533e
000002a0: 4f3c 5abd ffe9 98be f35e 24be a48a f5bc
000002b0: 81fc 8a3d 0f78 133d 59b3 bcbc f0e1 c93d
000002c0: 8706 8cbd 822d 14be a1f0 023e aab6 e63d
000002d0: 23de e0bd 2e86 c8be 81a9 bfbc 5047 6ebd
000002e0: 8f77 03be 222a e23c 6072 3ebc 7d11 67be
000002f0: 8310 8abc da7e e93d a222 40be 949d a7bd
00000300: d0ae 3fbd 07ee 313d 0368 a1bc 7af7 e6bc
00000310: 2691 033e 753f 433e 2420 f9bd dbbe 0a3c
00000320: 739d 7bbd c0ec c0b9 de16 e2bb d2ac b4bc
00000330: ead5 8f3c 6cff c9bc a64c b6bc 9ba5 77be
00000340: 36e5 923d c519 b9bc e77a 703d 9c59 023c
00000350: 15d0 c2bd cd5d 8dbd 0996 343d 40b1 6dbb
00000360: ba06 d2bd 70a1 01bd f11e 033d d81f d1bc
00000370: abe7 39be 7486 273d 8518 3d3e 7423 253e
00000380: 1c94 b43b ce16 bbbd 4360 903d f343 a73b
00000390: b271 04be e05c 243d 0607 edbc bd5b 23bd
000003a0: a4ce a83d 33ca ca3c dcca cc3d b208 393d
000003b0: 5590 1fbc dc06 e8bd 819e 42be 44f3 9fbd
000003c0: d16f 27be 95d2 aabd a057 c53c bb19 81b9
000003d0: bc1f a93c e4d7 5b3b 798c 0dbe 3e25 acbd
000003e0: a609 a6bd d865 8d3c 1391 d53d 5b29 273e
000003f0: 6cbc bfbd 3eca f13d 23c7 05be d3d1 2e3e

network_body._body_endoder.seq_layers.2.bias f4 [128]
0.04646546 0.048989743 -0.035336763 0.056595847 0.017941002 0.010535821 0.007049053 0.056083485
-0.03586907 0.028515493 -0.026738387 0.0681355 0.053237464 0.0032850886 0.06125171 0.02664914
0.07100604 0.009394602 0.049563196 0.047687992 -0.028778609 0.048248507 0.04638729 0.046458945
0.086411215 -0.027594367 0.07216224 -4.87368e-05 0.030598968 -0.025690868 0.04346532 -0.03007966
-0.007471584 0.07470322 -0.011316058 0.0035520256 -0.007313011 -0.019109827 0.037185673 0.07109341
0.05917033 0.050704323 0.021003729 -0.02109349 0.07068757 -0.0060857586 0.047122773 0.02752641
0.042275265 0.041074928 -0.031479064 0.055741057 0.057100758 0.061799955 -0.002825665 -0.02303092
-0.019208023 0.04297423 0.0056705303 -0.040914264 0.020480523 0.051099498 0.027129203 0.043884628
0.056526005 0.074947305 0.038128234 0.03497473 0.021803278 0.0598789 0.016017487 -0.03703107
-0.0039194115 -0.014758403 0.01714108 -0.019141993 -0.020646015 0.02531264 0.044033438 -0.04154706
0.0069380896 -0.026932437 -0.0032125586 0.0401817 0.011592848 0.06196674 0.03360277 -0.026777688
0.030864405 0.05712919 -0.03036926 0.0016274448 -0.03139822 -0.009189276 0.021780765 0.053374574
0.03744507 -0.022592776 0.015386616 -0.03698655 0.009371127 0.069415525 0.044553228 0.024561035
0.037557814 0.024846097 -0.030589743 -0.03599255 0.0012490645 0.0692073 0.062641315 0.059608113
0.040225036 0.068813264 -0.0012041124 -0.001375533 -0.0060206475 0.024333522 0.038556237 0.0596113
-0.01215084 -0.014463697 -0.035551857 0.038143676 0.059165675 -0.017279837 0.012060727 0.034408685
00000000: 9152 3e3d 78a9 483d 48bd 10bd 0cd1 673d
00000010: 02f9 923c 709e 2c3c befb e63b ccb7 653d
00000020: 72eb 12bd 5399 e93c 760a dbbc a08a 8b3d
00000030: 870f 5a3d a44a 573b 13e3 7a3d 4c4f da3c
00000040: 9d6b 913d d1eb 193c c702 4b3d 7c54 433d
00000050: 1ec1 ebbc 3aa0 453d 9900 3e3d bc4b 3e3d
00000060: 5df8 b03d 950d e2bc ccc9 933d be6a 4cb8
00000070: b0aa fa3c a875 d2bc b108 323d 9e69 f6bc
00000080: 30d4 f4bb 00fe 983d fd66 39bc 1ac9 683b
00000090: fca1 efbb 368c 9cbc 0150 183d 6c99 913d
000000a0: 975c 723d 56af 4f3d 0310 ac3c 41cc acbc
000000b0: a5c4 903d 0b6b c7bb cf03 413d 117f e13c
000000c0: d428 2d3d 2f3e 283d 31f0 00bd bc50 643d
000000d0: 7ce2 693d f321 7d3d cb2e 39bb 57ab bcbc
000000e0: 255a 9dbc bf05 303d dbcf b93b b795 27bd
000000f0: c5c6 a73c b54d 513d 103e de3c 5ec0 333d
00000100: d087 673d f97d 993d 5a2c 1c3d aa41 0f3d
00000110: ca9c b23c 9443 753d 1b37 833c e4ad 17bd
00000120: 686e 80bb 3bcd 71bc 736b 8c3c abcf 9cbc
00000130: d521 a9bc 745c cf3c 685c 343d 402d 2abd
00000140: ea58 e33b 6aa1 dcbc ca89 52bb 9195 243d
00000150: eeef 3d3c d6d0 7d3d 0fa3 093d e25c dbbc
00000160: 59d7 fc3c 4c00 6a3d f4c8 f8bc fc4f d53a
00000170: 6c9b 00bd 9e8e 16bc 936d b23c 4c9f 5a3d
00000180: 0060 193d 7c14 b9bc 2518 7c3c 357f 17bd
00000190: 5b89 193c ba29 8e3d 727d 363d 3934 c93c
000001a0: 39d6 193d 0b8a cb3c 5797 fabc ed6c 13bd
000001b0: a6b7 a33a 8fbc 8d3d 174a 803d a327 743d
000001c0: 02c3 243d f8ed 8c3d 4fd3 9dba 3a4b b4ba
000001d0: da48 c5bb 1857 c73c 25ed 1d3d fa2a 743d
000001e0: 5114 47bc 24f9 6cbc d39e 11bd 8b3c 1c3d
000001f0: b557 723d 728e 8dbc 5b9a 453c 1ff0 0c3d

action_model._continuous_distribution.log_sigma f4 [1, 2]
-0.13670358 -0.1767383
00000000: 06fc 0bbe e3fa 34be

action_model._continuous_distribution.mu.weight f4 [2, 128]
-0.0068514985 0.10535186 -0.034998637 0.09450408 0.052958254 0.024641545 -0.15110281 0.04148072
-0.09868501 0.074959956 -0.0722829 0.065455176 0.024748309 0.042634755 0.036302693 -0.015451158
0.020908117 0.041802578 0.065936945 -0.0014466024 -0.065254085 0.089684755 -0.03123433 0.01765981
0.09066668 -0.07628946 0.088530496 -0.026387777 -0.044092733 -0.08200872 -0.0016583458 -0.04411998
0.008655171 0.058808424 -0.06846588 0.012461234 -0.06832444 -0.07835538 -0.05318633 0.14294964
0.0577224 -0.007990687 0.041177426 -0.055969212 0.07543352 0.028215507 -0.008518322 0.05852041
0.039814513 0.017531428 -0.02001137 0.12122041 0.04899969 0.051018022 -0.10349744 -0.07496312
0.007510676 -0.0013664479 -0.111865096 -0.056053024 0.11570319 0.06279945 0.07965308 0.008681205
0.09766501 0.076047994 0.104544185 -0.03033954 0.09521134 0.092007905 0.036319334 -0.05652439
0.015383609 -0.037976347 0.056736514 -0.081122905 -0.110908635 0.02054377 0.11299716 -0.05025313
0.012804411 -0.075884126 -0.101597026 0.09760212 -0.100779384 0.09343083 0.10290321 -0.08127526
0.09276448 0.041852448 -0.06675544 -0.102026254 -0.06257735 -0.06672652 0.084830314 0.025045324
-0.007852408 -0.020284804 0.032768153 -0.07490722 -0.14360031 0.09443162 0.05724253 -0.07033791
0.09428676 0.07912465 -0.08900323 -0.056995753 -0.03474015 0.05414945 0.09261697 0.074615814
0.0007162697 0.07757157 -0.070429355 -0.15389532 -0.16594867 0.08495221 0.096926816 0.032922216
-0.06213116 -0.08712053 -0.0377931 -0.010206985 0.04904433 -0.028616508 -0.14205511 0.0910032
0.08875109 0.020198649 -0.0566123 0.03228031 -0.10290629 -0.15938085 0.05102725 0.09404662
-0.06593927 -0.067073174 -0.07322002 0.04541715 0.05349546 -0.056626912 0.060560573 0.060466543
0.11078848 -0.11378665 0.020258246 0.09131508 -0.008313993 0.010700035 0.11834683 0.06715412
0.05303071 -0.090723164 0.06375025 -0.12193005 0.09600342 -0.058529027 0.08894323 -0.06060264
-0.08846481 0.10481394 -0.107048996 -0.10419106 0.010918981 -0.016397707 0.089755155 0.008944501
0.057575073 0.09597751 -0.092004396 -0.014214584 0.08660001 -0.07364637 0.120274566 -0.024283463
0.06628283 0.054039616 -0.0393784 -0.022049133 0.08065642 0.0826068 -0.033622243 -0.06435759
-0.053924605 0.10684405 0.049475785 -0.03664618 -0.122521274 0.023911888 -0.07610481 0.09795638
0.03659521 0.05108097 -0.08489272 0.10684325 -0.06709272 0.010832297 -0.1301854 -0.05533374
-0.07087166 -0.0943357 -0.053259455 -0.014781837 -0.03037846 -0.1250478 -0.0098021 -0.051666617
-0.10322297 -0.08240173 -0.06017411 -0.039096214 0.058797136 0.042589407 -0.045256004 -0.09245462
-0.026174532 0.09375972 -0.053999186 -0.058364127 -0.026823582 -0.1067305 -0.08022089 0.11647862
0.07185555 -0.030521452 -0.12800334 -0.08276108 0.027587308 0.04279728 -0.00013886612 0.055274196
-0.04171345 -0.04517087 -0.07605802 -0.037164707 0.029287728 0.057297908 0.082787655 0.041676275
0.114001624 0.067500845 0.033932913 0.044896062 -0.06711449 -0.07803891 -0.10161264 0.12446871
0.016406761 -0.13347554 -0.045645464 0.11854262 0.072855964 -0.1121414 0.028831834 -0.0394345
00000000: 8982 e0bb b7c2 d73d bb5a 0fbd 5b8b c13d
00000010: c1ea 583d 11dd c93c b2ba 1abe b0e7 293d
00000020: 5e1b cabd 9b84 993d 0f09 94bd 5d0d 863d
00000030: f7bc ca3c c8a1 2e3d 22b2 143d db26 7dbc
00000040: 8047 ab3c 2e39 2b3d f309 873d ec9b bdba
00000050: efa3 85bd a4ac b73d 23df ffbc 4eab 903c
00000060: 74af b93d a63d 9cbd 7a4f b53d 2e2b d8bc
00000070: 959a 34bd 30f4 a7bd da5c d9ba 27b7 34bd
00000080: 6bce 0d3c 1ae1 703d d737 8cbd 342a 4c3c
00000090: afed 8bbd c978 a0bd e9d9 59bd 6461 123e
000000a0: 536e 6c3d 5feb 02bc a9a9 283d f93f 65bd
000000b0: e47c 9a3d 3524 e73c 6f90 0bbc 19b3 6f3d
000000c0: 8b14 233d 129e 8f3c e2ee a3bc 6842 f83d
000000d0: e6b3 483d 46f8 503d 77f6 d3bd 4486 99bd
000000e0: 1e1c f63b 621a b3ba 8719 e5bd db97 65bd
000000f0: cbf5 ec3d ff9c 803d 2721 a33d 9d3b 0e3c
00000100: 9804 c83d 0dbf 9b3d 431b d63d a18a f8bc
00000110: 2afe c23d a46e bc3d 95c3 143d 1e86 67bd
00000120: 880b 7c3c 168d 1bbd 8c64 683d c423 a6bd
00000130: 1124 e3bd 694b a83c 0e6b e73d 3ad6 4dbd
00000140: 98c9 513c 2369 9bbd 1a12 d0bd 9fe3 c73d
00000150: 6c65 cebd aa58 bf3d ebbe d23d a573 a6bd
00000160: 4efb bd3d 796d 2b3d 13b7 88bd 24f3 d0bd
00000170: 8e28 80bd eaa7 88bd 84bb ad3d da2b cd3c
00000180: 63a7 00bc 512c a6bc e637 063d f568 99bd
00000190: f60b 13be 5d65 c13d 2577 6a3d 520d 90bd
000001a0: 6b19 c13d 1b0c a23d 5347 b6bd 6174 69bd
000001b0: b04b 0ebd d0cb 5d3d f7ad bd3d 2dd0 983d
000001c0: 0cc4 3b3a d8dd 9e3d 443d 90bd bc96 1dbe
000001d0: 73ee 29be 6dfb ad3d 9181 c63d 72d9 063d
000001e0: 3e7d 7ebd 406c b2bd f0cc 1abd 333b 27bc
000001f0: b5e2 483d 2b6d eabc e576 11be e35f ba3d
00000200: 22c3 b53d a377 a53c 4de2 67bd 5c38 043d
00000210: 88c0 d2bd bc34 23be f301 513d 849b c03d
00000220: 2b0b 87bd a95d 89bd 61f4 95bd 5507 3a3d
00000230: 0e1e 5b3d 9ff1 67bd 5d0e 783d c4ab 773d
00000240: 12e5 e23d fa08 e9bd 9ff4 a53c 6703 bb3d
00000250: 6a37 08bc 334f 2f3c d35f f23d 1988 893d
00000260: bb36 593d 11cd b9bd 7e8f 823d 76b6 f9bd
00000270: 719d c43d 22bc 6fbd de27 b63d 793a 78bd
00000280: 0a2d b5bd b1a8 d63d 813c dbbd 1f62 d5bd
00000290: 87e5 323c 7c54 86bc 8dd1 b73d f58b 123c
000002a0: d7d3 6b3d db8f c43d cd6c bcbd 49e4 68bc
000002b0: 595b b13d e8d3 96bd 8352 f63d 1dee c6bc
000002c0: 4bbf 873d a558 5d3d 3f4b 21bd 62a0 b4bc
000002d0: 312f a53d c12d a93d 7ab7 09bd eacd 83bd
000002e0: 0ce0 5cbd 0ed1 da3d 1fa7 4a3d 4e1a 16bd
000002f0: 6fec fabd dde2 c33c d7dc 9bbd 5b9d c83d
00000300: dce4 153d 473a 513d 3cdc adbd a2d0 da3d
00000310: e867 89bd f279 313c 524f 05be a2a5 62bd
00000320: 2925 91bd 1333 c1bd 9626 5abd 852f 72bc
00000330: 40dc f8bc 880c 00be fd98 20bc 60a0 53bd
00000340: 9166 d3bd 3dc2 a8bd 2179 76bd 5a23 20bd
00000350: 44d5 703d 3b72 2e3d 5c5e 39bd d958 bdbd
00000360: f96b d6bc 1905 c03d 402e 5dbd 390f 6fbd
00000370: 21bd dbbc 8595 dabd da4a a4bd 588c ee3d
00000380: 0129 933d 2008 fabc 4f13 03be a47e a9bd
00000390: c7fe e13c 334c 2f3d 979c 11b9 3267 623d
000003a0: b9db 2abd 1705 39bd 4fc4 9bbd 053a 18bd
000003b0: d1ec ef3c 36b1 6a3d 938c a93d beb4 2a3d
000003c0: af79 e93d e23d 8a3d 3dfd 0a3d efe4 373d
000003d0: 5273 89bd ddd2 9fbd 4a1a d0bd 73e9 fe3d
000003e0: 7967 863c d0ad 08be bdf6 3abd 79c6 f23d
000003f0: 8235 953d 64aa e5bd bd30 ec3c 1286 21bd

action_model._continuous_distribution.mu.bias f4 [2]
0.040164214 0.033399433
00000000: 3b83 243d d8cd 083d

exp_avg f4 [128, 5]
6.9724815e-06 0.00014694846 -0.0001102257 -0.00014970198 0.00021151414 -0.0001286872 5.0347393e-05 7.8309924e-05
4.3273667e-05 4.944479e-06 -0.00088186207 -0.000775739 0.0013776915 0.0011088595 0.0014901928 8.809557e-05
9.884744e-06 -3.9856754e-05 4.430957e-06 8.851189e-05 4.1227442e-05 4.2264553e-05 3.3688626e-05 6.376864e-05
-0.00014441142 -6.669613e-05 -1.6633296e-05 -2.5915318e-05 -0.0001044197 0.00024440247 -0.00043606845 0.00029227207
0.0002995911 0.00017356913 0.00064030394 -0.00053177617 -0.0007306384 0.0005652048 0.0002634291 0.0012323416
0.00031609947 5.376101e-05 -0.0003154398 -0.00036311502 0.00017196054 0.00010668164 0.00057506893 -0.0003017276
-0.00016504696 0.00025152165 -3.332512e-05 9.44336e-05 2.868862e-05 7.857212e-05 -0.00018659272 -0.00030484368
-0.00019388452 0.00043236854 0.00038687204 0.00041428703 7.951007e-05 -9.236505e-06 -0.00012379342 -0.00020714606
-0.0001438006 6.71299e-07 0.000100672 -7.96055e-05 -8.859284e-05 9.43808e-05 0.00020624697 -9.483915e-06
-0.000105463616 -0.000152326 0.00034171308 -0.0002914299 -0.0001307993 0.00038142424 0.00037233514 0.0001188219
-0.00010077687 0.0001425296 0.00012810562 0.00022778817 -0.00022248087 -0.00041471678 0.00035620618 0.0002856804
0.0004395295 -0.00020650569 0.00035795264 -0.00017558958 -0.00024833827 -0.00036398525 0.0002826636 0.00026018094
7.323787e-05 -0.00027046943 -0.00028717925 0.00010054928 -0.0005079943 1.2714072e-05 0.0006253516 0.00053475035
0.00053858367 -0.0002692715 0.00048671174 0.0002691245 0.0005659563 -0.00060384173 -0.00078397425 -0.0009833904
0.00084482663 0.00040009743 0.0017443115 -0.0002423894 -0.0001787676 0.0002807578 0.00016312722 0.00030817854
-0.00018037397 6.5318427e-06 0.00020524973 0.00023544386 -2.3290437e-05 -0.0005605492 -0.0004688172 0.00063641014
0.0004115103 0.0009412633 -0.0002999157 -0.00029841514 0.00039669985 0.0003245023 0.00047872332 0.00022579223
7.884554e-06 -0.0001508402 -0.00019839877 0.00023555047 0.00070939376 0.00016923364 -0.0007337738 -0.0007260933
-0.00012790762 8.886964e-05 -0.00015305878 -2.4425174e-06 -0.00014889578 0.00013789939 -0.00041629025 0.00025421317
0.0002899465 0.00030468218 0.00019689494 0.00018485123 0.00019055056 -8.504966e-05 -0.00010042883 0.00018854553
-0.00035163178 -7.5542215e-05 0.00032054423 0.00031283137 0.0001662488 -0.00029841025 -0.00040574517 0.0004781676
0.00033518006 0.0006632541 -0.0006941228 -0.0005844006 0.00092786626 0.00072916335 0.00085517735 0.00017000601
-9.5211064e-05 -0.0001783478 -0.00024378652 0.0001943447 -0.00038852004 -0.00027443015 0.00038845776 0.0003006319
0.0004763336 0.0005638052 5.609193e-05 -0.00057774584 -0.0005776439 -0.00019276723 0.00042868906 0.00025436483
-0.0004643605 -0.00044768184 -0.00010951036 -0.00010330742 -0.00010719332 0.00021636876 0.00014750485 0.0003084243
0.00021520744 2.6598875e-05 -5.5332992e-05 -7.3087205e-05 0.00058385683 -0.0001177624 0.00022143182 0.00022970221
0.00028590893 -5.5628752e-05 7.606293e-05 0.00038490864 -4.1653228e-05 5.065276e-05 0.0003523228 -5.5780518e-05
0.00010662659 7.4931515e-05 0.00014937486 -0.00015263054 6.567639e-05 0.00012131452 -0.00011153651 -0.0002161309
0.00014490965 -0.00026813525 2.8178556e-05 0.00026707363 0.000280288 -6.959315e-06 0.0003990752 0.00027309376
-0.00041742978 -0.00041603952 8.593708e-05 0.00065327017 0.00019919245 -0.00071231497 -0.00080415193 -0.00017792186
0.00012491568 -3.9337765e-06 3.5328147e-05 -2.0459504e-05 7.883012e-05 -6.9018024e-05 3.198765e-05 0.00012433382
0.00018293138 0.00013514761 0.000721542 0.00026259825 -0.0010487027 -0.0010949624 -0.00056372443 -0.00041075097
00000000: 29f5 e936 2d16 1a39 f928 e7b8 52f9 1cb9
00000010: e5c9 5d39 35f0 06b9 1a2c 5338 523a a438
00000020: bf80 3538 c0e8 a536 c32c 67ba f75a 4bba
00000030: a893 b43a 2757 913a 9352 c33a f3bf b838
00000040: a7d6 2537 dd2b 27b8 a1ad 9436 769f b938
00000050: a1eb 2c38 3845 3138 e34c 0d38 87bb 8538
00000060: 256d 17b9 36df 8bb8 bb87 8bb7 b964 d9b7
00000070: e6fb dab8 2523 8039 1ea0 e4b9 183c 9939
00000080: 7012 9d39 1c00 3639 12da 273a e566 0bba
00000090: 5088 3fba 412a 143a db1c 8a39 8686 a13a
000000a0: 27ba a539 727d 6138 9d61 a5b9 7960 beb9
000000b0: 4e50 3439 45ba df38 39c0 163a 3131 9eb9
000000c0: 7510 2db9 aade 8339 93c6 0bb8 a70a c638
000000d0: 58a8 f037 16c7 a438 1aa8 43b9 6dd3 9fb9
000000e0: 7b4d 4bb9 86af e239 16d5 ca39 aa34 d939
000000f0: a5be a638 7df6 1ab7 8bce 01b9 5935 59b9
00000100: 2ec9 16b9 5133 3435 de1f d338 e1f1 a6b8
00000110: ebca b9b8 4eee c538 0044 5839 1b1d 1fb7
00000120: 592c ddb8 b3b9 1fb9 f427 b339 0fcb 98b9
00000130: 2b27 09b9 e5f9 c739 fa35 c339 0630 f938
00000140: 2c58 d3b8 0074 1539 1754 0639 6cda 6e39
00000150: c149 69b9 586e d9b9 2fc1 ba39 60c7 9539
00000160: a770 e639 7389 58b9 97ab bb39 781e 38b9
00000170: 6633 82b9 46d5 beb9 7732 9439 e568 8839
00000180: 4897 9938 cbcd 8db9 8c90 96b9 fcdd d238
00000190: ec2a 05ba 864e 5537 a3ee 233a 7d2e 0c3a
000001a0: bd2f 0d3a 022d 8db9 582d ff39 4719 8d39
000001b0: af5c 143a 224b 1eba 9f83 4dba 1be5 80ba
000001c0: 5b77 5d3a 2bc4 d139 62a1 e43a e929 7eb9
000001d0: 9073 3bb9 ad32 9339 210d 2b39 0693 a139
000001e0: c522 3db9 1a2c db36 4e38 5739 7be1 7639
000001f0: d55f c3b7 d2f1 12ba 94cb f5b9 c3d4 263a
00000200: fabf d739 1cbf 763a 013e 9db9 9a74 9cb9
00000210: 27fc cf39 f621 aa39 28fd fa39 a4c2 6c39
00000220: e747 0437 dc2a 1eb9 4409 50b9 19fe 7639
00000230: 9cf6 393a 4f74 3139 ba5a 40ba 4c57 3eba
00000240: f11e 06b9 865f ba38 677e 20b9 21ea 23b6
00000250: e820 1cb9 1699 1039 8841 dab9 ea47 8539
00000260: f603 9839 c0bd 9f39 9575 4e39 a0d4 4139
00000270: 87ce 4739 b05c b2b8 519d d2b8 4eb4 4539
00000280: 385b b8b9 6b6c 9eb8 b80e a839 8403 a439
00000290: 1353 2e39 f273 9cb9 32ba d4b9 92b2 fa39
000002a0: 1bbb af39 3bde 2d3a cbf5 35ba 7632 19ba
000002b0: 0d3c 733a 5325 3f3a fb2d 603a a443 3239
000002c0: 0dac c7b8 df02 3bb9 f2a0 7fb9 02c9 4b39
000002d0: 47b2 cbb9 64e1 8fb9 eba9 cb39 219e 9d39
000002e0: 6abc f939 54cc 133a 4044 6b38 de73 17ba
000002f0: 076d 17ba 8f21 4ab9 acc1 e039 455c 8539
00000300: 6975 f3b9 d7b6 eab9 eda8 e5b8 c0a6 d8b8
00000310: facc e0b8 0ce1 6239 88ab 1a39 02b4 a139
00000320: 4fa9 6139 a620 df37 5915 68b8 6546 99b8
00000330: f80d 193a 35f7 f6b8 2730 6839 38dc 7039
00000340: 0ce6 9539 eb52 69b8 f983 9f38 90cd c939
00000350: d0b4 2eb8 fd73 5438 f7b7 b839 e0f5 69b8
00000360: b79c df38 8d24 9d38 82a1 1c39 730b 20b9
00000370: bebb 8938 3d6a fe38 b5e8 e9b8 32a1 62b9
00000380: e3f2 1739 8194 8cb9 fd60 ec37 0406 8c39
00000390: 9ef3 9239 1084 e9b6 f73a d139 062e 8f39
000003a0: 7ada dab9 e11f dab9 1e39 b438 3840 2b3a
000003b0: 51de 5039 a6ba 3aba b9cd 52ba 8990 3ab9
000003c0: ccfb 0239 e2fe 83b6 4f2d 1438 73a0 abb7
000003d0: 9951 a538 c5bd 90b8 7a2a 0638 9b5f 0239
000003e0: 45d1 3f39 69b6 0d39 dd25 3d3a 57ad 8939
000003f0: a074 89ba d784 8fba e8c6 13ba 105a d7b9

exp_avg_sq f4 [128, 5]
9.984286e-06 2.5380368e-06 6.7081633e-06 1.6863916e-05 5.2674245e-06 1.9687932e-06 3.3074448e-07 1.1057518e-06
2.996502e-06 5.9976674e-07 2.101939e-06 2.0533619e-06 3.2034982e-06 3.846591e-06 4.3992136e-06 5.746544e-07
2.77667e-07 5.3119436e-07 1.1222592e-06 6.1452573e-07 3.5628088e-06 8.8362617e-07 2.296597e-06 5.56661e-06
1.8657419e-06 2.7670896e-07 8.684313e-08 2.1492609e-07 4.4977497e-07 1.7757627e-07 2.7800279e-05 5.3854938e-06
1.7004957e-05 4.3912773e-05 1.0343191e-05 2.100744e-06 1.304126e-06 2.5407041e-06 4.350622e-06 3.1857637e-06
1.4321446e-06 6.182339e-07 1.3744709e-06 2.8606567e-06 1.1334464e-06 1.9212093e-05 3.931744e-06 1.3628256e-05
3.001356e-05 8.806151e-06 3.505343e-08 5.0461335e-08 4.710442e-08 8.2068446e-08 1.1225194e-07 2.2523346e-07
2.6484338e-07 3.8338248e-07 4.740308e-07 5.733442e-07 2.6145444e-06 1.0776661e-06 2.5084428e-06 4.8635793e-06
2.269384e-06 1.4953135e-06 3.5883542e-07 1.1934069e-06 2.437957e-06 7.9207814e-07 6.332285e-07 3.653276e-07
7.4524036e-07 1.3151652e-06 7.381279e-07 2.65836e-07 2.3697075e-07 2.718268e-07 3.5581047e-07 4.03749e-07
5.4263967e-07 2.7179877e-07 4.4390964e-07 1.0387482e-06 5.526311e-07 4.013559e-06 1.5557393e-06 2.9395965e-06
7.2496746e-06 3.108345e-06 3.0460014e-06 9.041398e-07 2.286757e-06 5.1801744e-06 1.6534747e-06 3.7974985e-07
2.318443e-07 4.2989345e-07 7.805223e-07 4.2048387e-07 1.4093501e-06 1.3339419e-06 2.443248e-06 3.2965133e-06
3.2511334e-06 1.2148568e-06 1.0839765e-06 1.2499852e-06 2.7347044e-06 2.5613344e-06 3.9308065e-06 2.3754785e-06
4.808176e-06 7.977396e-06 5.775197e-06 9.3963007e-07 3.937673e-07 1.0306974e-06 1.7678856e-06 8.3397714e-07
4.6370334e-07 2.6541207e-07 4.9701214e-07 9.676871e-07 5.1078445e-07 3.1724664e-06 1.2141211e-06 3.0736942e-06
5.8688825e-06 2.4561914e-06 3.228262e-07 3.4375137e-07 5.1723936e-07 8.3169505e-07 6.788443e-07 3.9675624e-06
1.1405169e-06 3.161546e-06 7.024278e-06 2.2986353e-06 1.1069639e-05 3.729688e-06 1.02725935e-05 2.1708533e-05
7.506993e-06 3.8863604e-06 1.3602496e-06 2.97121e-06 6.9029484e-06 3.0020653e-06 1.1425071e-05 2.4997942e-06
7.3225556e-06 1.8028682e-05 4.942833e-06 3.5240025e-06 1.1099979e-06 2.7174815e-06 6.2171052e-06 2.4413139e-06
1.3761569e-06 6.078163e-07 1.1680831e-06 2.6398502e-06 1.071207e-06 2.0898743e-07 4.111959e-07 5.9555316e-07
5.6106376e-07 1.4545681e-06 1.178355e-06 1.1791653e-06 1.931648e-06 2.5173686e-06 2.305515e-06 3.0893563e-07
1.5371677e-07 3.0641044e-07 5.9903806e-07 2.6008868e-07 1.1712933e-06 6.4793505e-07 1.177093e-06 2.5211614e-06
1.1291852e-06 3.20977e-06 1.1533643e-06 2.9334226e-06 6.118822e-06 2.226354e-06 3.951421e-06 1.2304131e-06
3.4204538e-06 7.070361e-06 2.551471e-06 7.225371e-07 2.0677182e-07 6.0951703e-07 1.2171807e-06 4.3846333e-07
7.4883333e-06 2.0720872e-06 5.692224e-06 1.2994821e-05 4.453055e-06 1.0501674e-06 7.965323e-07 1.116704e-06
2.1762512e-06 1.567107e-06 7.297715e-06 1.9778797e-06 5.5717255e-06 1.2366913e-05 4.8102293e-06 2.1756966e-07
1.4175188e-07 1.8253327e-07 4.302736e-07 2.8215246e-07 1.4677237e-06 7.492171e-07 1.6873502e-06 2.9633422e-06
1.5702111e-06 1.0095428e-06 5.565748e-07 1.1591039e-06 1.9727754e-06 1.0919337e-06 1.003358e-05 2.3388416e-06
7.373256e-06 1.6315373e-05 4.7172507e-06 1.0183696e-05 3.1713785e-06 8.295901e-06 1.8838577e-05 6.348213e-06
8.149264e-07 4.7329314e-07 6.978209e-07 1.5470002e-06 9.593078e-07 2.3734474e-07 1.5396576e-07 2.554023e-07
5.4748324e-07 4.537619e-07 5.0950557e-06 2.430366e-06 5.601635e-06 1.1534125e-05 4.7412677e-06 7.0429546e-06
00000000: 2f82 2737 2453 2a36 af16 e136 fc76 8d37
00000010: d5be b036 9c1f 0436 2d91 b134 5869 9435
00000020: 8317 4936 a8ff 2035 090f 0d36 7dcc 0936
00000030: aefb 5636 f711 8136 f59c 9336 f341 1a35
00000040: 4312 9534 6697 0e35 88a0 9635 e3f5 2435
00000050: 9718 6f36 5432 6d35 3c1f 1a36 d1c8 ba36
00000060: 676a fa35 978e 9434 847e ba33 6fc6 6634
00000070: 9a78 f134 cbab 3e34 a534 e937 0ab5 b436
00000080: dea5 8e37 fb2e 3838 ab87 2d37 82fa 0c36
00000090: 6e09 af35 f780 2a36 8ffb 9136 01cb 5536
000000a0: 1d38 c035 b6f4 2535 767a b835 b5f9 3f36
000000b0: ec20 9835 a829 a137 6ced 8336 eaa4 6437
000000c0: a1c5 fb37 21be 1337 a78d 1633 d3ba 5833
000000d0: dc4f 4a33 9b3d b033 280f f133 b4d7 7134
000000e0: cc2f 8e34 b0d3 cd34 4c7e fe34 eae7 1935
000000f0: 8875 2f36 53a4 9035 b856 2836 d431 a336
00000100: b84b 1836 95b2 c835 f7a5 c034 262d a035
00000110: c89b 2336 329f 5435 22fb 2935 3e22 c434
00000120: 870c 4835 bb84 b035 c323 4635 39b8 8e34
00000130: 0672 7e34 97ef 9134 3806 bf34 d7c2 d834
00000140: eaa9 1135 bdeb 9134 7a52 ee34 1e6b 8b35
00000150: 8558 1435 36ac 8636 ccce d035 e245 4536
00000160: 3b42 f336 f698 5036 e869 4c36 04b4 7235
00000170: 3076 1936 5cd1 ad36 f5ec dd35 6ce0 cb34
00000180: e0f0 7834 1bcc e634 1685 5135 ddbe e134
00000190: e728 bd35 e509 b335 aef6 2336 ab39 5d36
000001a0: 0c2e 5a36 290e a335 267d 9135 2ac5 a735
000001b0: dd85 3736 64e3 2b36 5fe5 8336 696a 1f36
000001c0: eb55 a136 a8d6 0537 91c8 c136 e33a 7c35
000001d0: f766 d334 7e56 8a35 1648 ed35 79de 5f35
000001e0: e7f2 f834 f57d 8e34 6a6a 0535 7ae1 8135
000001f0: d71c 0935 8fe6 5436 e2f4 a235 aa45 4e36
00000200: 51ed c436 0cd5 2436 e550 ad34 d48c b834
00000210: 6bd8 0a35 a641 5f35 d339 3635 1a21 8536
00000220: dd13 9935 f22a 5436 17b2 eb36 4142 1a36
00000230: bdb7 3937 8d4b 7a36 7458 2c37 b81a b637
00000240: 94e4 fb36 9567 8236 d291 b635 0065 4736
00000250: e09f e736 1777 4936 4eae 3f37 23c2 2736
00000260: 46b4 f536 4d3c 9737 9dda a536 e77d 6c36
00000270: 3dfb 9435 fa5d 3636 879c d036 74d5 2336
00000280: 64b4 b835 d128 2335 08c7 9c35 4828 3136
00000290: 64c6 8f35 0766 6034 56c2 dc34 1ade 1f35
000002a0: 029c 1635 943a c335 f827 9e35 d043 9e35
000002b0: 76a1 0136 10f0 2836 72b8 1a36 cadb a534
000002c0: 580d 2534 bb80 a434 95cd 2035 51a2 8b34
000002d0: 5535 9d35 c2ed 2d35 9cfc 9d35 3931 2936
000002e0: 828e 9735 6e67 5736 4ccd 9a35 d1db 4436
000002f0: 4850 cd36 7868 1536 7396 8436 ac24 a535
00000300: f38a 6536 f03d ed36 f039 2b36 5ff4 4135
00000310: 0105 5e34 b19d 2335 035e a335 f165 eb34
00000320: 4b44 fb36 300e 0b36 d5ff be36 5504 5a37
00000330: 746b 9536 7af3 8c35 48d1 5535 a8e1 9535
00000340: b60b 1236 6355 d235 e5de f436 b7bb 0436
00000350: c2f4 ba36 7d7b 4f37 8e67 a136 189d 6934
00000360: 7634 1834 5dfe 4334 5a00 e734 bd7a 9734
00000370: 9afe c435 cf1d 4935 e978 e235 d5dd 4636
00000380: 0bc0 d235 a07f 8735 8767 1535 8292 9b35
00000390: 0664 0436 8e8e 9235 e655 2837 fef4 1c36
000003a0: c967 f736 ffdc 8837 e048 9e36 a4da 2a37
000003b0: ded3 5436 a02e 0b37 8907 9e37 bc02 d536
000003c0: 51c1 5a35 ea18 fe34 e351 3b35 86a2 cf35
000003d0: 91c1 8035 d3d8 7e34 c951 2534 3a1e 8934
000003e0: c3f6 1235 909c f334 32f6 aa36 5f19 2336
000003f0: aef5 bb36 b182 4137 2e17 9f36 8552 ec36

exp_avg f4 [128]
-0.000443668 6.668039e-05 0.0023132176 -7.8773126e-05 0.0001948609 -5.255147e-05 0.00019269848 0.00090646045
-0.00064285216 -0.00015136988 0.00011091074 0.00079224247 -0.00021639686 -6.534809e-05 -0.00031095583 0.0007339897
0.00038099324 0.00075686025 -0.0005514525 -0.0005363667 0.001114885 0.0008635485 0.0013251083 0.00047824965
0.0004585923 0.0010524442 0.00072882563 -0.00049375306 -0.0015956425 -3.476173e-05 0.0005026403 -0.00011948662
0.00067699596 0.00070578564 0.0015696175 -0.0003965934 0.0007363078 -0.0011023091 -0.0007963104 0.00030710472
-0.0003537688 0.00053026486 0.00014848048 0.00024790835 -0.00023015667 0.0005758489 -0.0006448207 -0.0013516534
1.07125925e-05 0.00032011402 -0.001970747 0.0010397538 0.0010659167 0.0008146442 0.000582402 0.00021819424
0.00095509633 0.0010443933 0.0002637836 0.0012926265 0.0003219322 -0.0006904352 0.00038860607 -0.00044798738
0.00012680062 -0.0012673162 0.00022621248 -0.0016031394 0.0004335171 -0.0009911233 0.001019121 -0.0016460227
0.00048672152 -0.0017434488 0.0011959623 0.00048015895 0.001570809 0.0006954393 0.001052396 0.001304816
0.0020738791 0.0008739763 -0.0003143096 0.0002987616 0.0006719358 0.0007283644 0.0006625256 0.0013290746
0.0014420099 -0.00017731258 0.0012231814 -0.00011238808 0.00060290925 0.00031138153 -0.001085428 0.0014010654
6.6071116e-05 0.0014314353 -0.00064448005 0.0007095975 0.0006881348 -0.0008274729 0.00017192397 0.0014429555
-0.00049984764 -0.0020393913 0.0007926742 -0.0012534028 0.0021555847 0.00025918533 0.0004049836 0.0012730741
0.0013836728 -0.0005209672 0.00025074938 0.00037900047 0.00071042794 -0.00031878156 0.00060750236 0.0008163876
-7.357615e-05 0.00041911274 0.00090042094 -0.0016636056 0.00067754014 -0.000517144 0.0014363738 -0.0006981775
00000000: 1c9c e8b9 c3d6 8b38 5a99 173b 0033 a5b8
00000010: 9353 4c39 b66a 5cb8 1b0f 4a39 889f 6d3a
00000020: 1485 28ba 0bb9 1eb9 c098 e838 7eae 4f3a
00000030: 97e8 62b9 7d0b 89b8 c907 a3b9 3769 403a
00000040: 0cc0 c739 0868 463a 5a8f 10ba f69a 0cba
00000050: 5521 923a c25f 623a 42af ad3a 95bd fa39
00000060: 376f f039 2bf2 893a a90e 3f3a 356f 01ba
00000070: e124 d1ba 20cd 11b8 9fc3 033a e494 fab8
00000080: 6e78 313a 7904 393a a0bb cd3a dded cfb9
00000090: c804 413a 5b7b 90ba 7dbf 50ba e602 a139
000000a0: 0b7a b9b9 7901 0b3a 6db1 1b39 b2f9 8139
000000b0: 3656 71b9 91f4 163a 2f09 29ba f629 b1ba
000000c0: 3cba 3337 fad4 a739 a627 01bb 5948 883a
000000d0: 3bb6 8b3a d98d 553a 56ac 183a 12cb 6439
000000e0: 6e5f 7a3a 06e4 883a 6f4c 8a39 596d a93a
000000f0: 02c9 a839 52fe 34ba d3bd cb39 d9df eab9
00000100: c8f5 0439 131c a6ba 7333 6d39 6f20 d2ba
00000110: ae49 e339 94e8 81ba 0794 853a 5bbf d7ba
00000120: a82e ff39 6f84 e4ba d6c1 9c3a d8bd fb39
00000130: 9be3 cd3a 244e 363a 8df0 893a 5c06 ab3a
00000140: ebe9 073b 8f1b 653a ecc9 a4b9 1aa3 9c39
00000150: d924 303a b5ef 3e3a 57ad 2d3a 5834 ae3a
00000160: d301 bd3a fcec 39b9 2853 a03a e4b1 ebb8
00000170: 8e0c 1e3a ec40 a339 ec44 8eba f4a3 b73a
00000180: a98f 8a38 009f bb3a 53f2 28ba 4804 3a3a
00000190: f263 343a c4ea 58ba 7d46 3439 8d21 bd3a
000001a0: 3508 03ba 4fa7 05bb 77cb 4f3a 3849 a4ba
000001b0: b644 0d3b 44e3 8739 fb53 d439 47dd a63a
000001c0: 5b5c b53a 8491 08ba 0377 8339 95b4 c639
000001d0: 033c 3a3a 2322 a7b9 cb40 1f3a d802 563a
000001e0: e54c 9ab8 5cbc db39 3a0a 6c3a 570d daba
000001f0: f39c 313a f290 07ba b544 bc3a e605 37ba

exp_avg_sq f4 [128]
2.7253946e-05 4.395269e-06 1.1299147e-05 2.1825042e-06 8.990555e-06 7.6784175e-07 6.5676024e-05 9.003882e-06
5.2249593e-06 4.6738587e-05 2.3332427e-07 1.4608205e-06 9.02344e-06 3.9189676e-06 2.692221e-06 1.2023929e-06
2.00422e-06 1.289248e-05 8.63288e-06 1.6422903e-06 8.586082e-06 6.1365877e-06 1.6489426e-05 3.3857643e-06
2.0111308e-06 1.0587845e-05 2.07991e-06 1.1771778e-05 3.7883878e-05 1.1985327e-05 2.7906544e-05 1.0633498e-05
4.9246455e-06 1.9328513e-06 6.7875208e-06 1.1742605e-06 4.9347755e-06 1.0775414e-05 1.1981982e-05 2.0252912e-06
2.1546692e-05 4.89929e-06 2.0678599e-05 9.1102254e-07 5.7908637e-06 4.1455387e-06 2.575818e-05 3.165637e-05
3.139586e-06 1.1902765e-06 2.15282e-05 2.2707076e-05 4.6309406e-06 1.1155793e-05 8.38375e-07 1.3985398e-05
1.3480845e-05 1.137462e-05 7.837505e-06 2.095044e-05 9.970385e-06 3.6224337e-06 5.3277516e-05 1.2991839e-05
8.450417e-07 2.1992182e-05 9.997567e-06 1.7092929e-05 1.1865885e-06 1.3685609e-05 2.0135518e-05 2.2315566e-05
2.8541283e-06 2.3831093e-05 9.165052e-06 1.4541643e-05 6.497443e-06 1.5052765e-06 7.538075e-06 1.657873e-05
1.8321782e-05 2.5709744e-06 2.1684625e-06 8.677082e-07 5.3341746e-06 1.9889058e-06 1.1803884e-06 2.4110752e-05
1.3500113e-05 4.08446e-06 1.6650447e-05 9.910629e-06 3.640415e-05 2.590929e-05 2.7790444e-05 9.978274e-06
3.2831142e-07 7.99871e-06 1.5957641e-05 2.8078757e-06 2.7935885e-06 8.07108e-06 2.8135983e-06 4.623057e-06
2.892732e-05 2.775904e-05 8.061072e-06 1.5468493e-05 1.4776354e-05 7.2017415e-06 1.6899012e-06 7.3004e-06
4.240001e-06 2.0888105e-05 6.737272e-07 9.890869e-06 1.2978252e-05 7.1964673e-06 3.355683e-06 6.224118e-06
4.03007e-07 1.4137363e-06 2.0068697e-05 1.68436e-05 1.1735899e-06 2.1683207e-05 1.9031671e-05 2.3813527e-05
00000000: 679f e437 137b 9336 7891 3d37 2377 1236
00000010: 24d6 1637 af1d 4e35 8cbb 8938 610f 1737
00000020: 0f52 af36 2d09 4438 b087 7a34 6911 c435
00000030: 6163 1737 ad7f 8336 01ac 3436 e861 a135
00000040: 3d80 0636 c84c 5837 f0d5 1037 aa6c dc35
00000050: f10c 1037 e3e8 cd36 c652 8a37 fd36 6336
00000060: f7f6 0636 73a2 3137 9594 0b36 677f 4537
00000070: 81e5 1e38 9614 4937 d918 ea37 8766 3237
00000080: 623e a536 22b6 0136 5cc0 e336 499b 9d35
00000090: 6695 a536 0dc8 3437 3906 4937 3dea 0736
000000a0: 2bbf b437 9564 a436 f476 ad37 fe8c 7435
000000b0: 244f c236 e819 8b36 4513 d837 c5c6 0438
000000c0: adb1 5236 97c1 9f35 7597 b437 137b be37
000000d0: 7a63 9b36 c429 3b37 b10c 6135 d4a2 6a37
000000e0: ca2b 6237 9fd5 3e37 d47d 0337 babe af37
000000f0: 7a46 2737 f018 7336 4c76 5f38 86f7 5937
00000100: d3d6 6235 da7b b837 39bb 2737 c962 8f37
00000110: df42 9f35 3e9b 6537 b2e8 a837 5032 bb37
00000120: 8d89 3f36 e2e8 c737 99c3 1937 e2f7 7337
00000130: 9c04 da36 e808 ca35 92ef fc36 8d12 8b37
00000140: bab1 9937 0189 2c36 e785 1136 74ec 6835
00000150: 36fc b236 2479 0536 d66d 9e35 7241 ca37
00000160: 8b7e 6237 3f0d 8936 90ac 8b37 d445 2637
00000170: a9b0 1838 c757 d937 861f e937 5c68 2737
00000180: c742 b034 3332 0637 c6dc 8537 f06e 3c36
00000190: 7c79 3b36 0669 0737 40d1 3c36 c21f 9b36
000001a0: f2a8 f237 16dc e837 0a3e 0737 56c2 8137
000001b0: f5e7 7737 7da6 f136 90d0 e235 f5f5 f436
000001c0: 5545 8e36 dd38 af37 2eda 3435 f5f0 2537
000001d0: 2bbd 5937 2f79 f136 3232 6136 c4d8 d036
000001e0: dc5c d834 9cbf bd35 3359 a837 5b4b 8d37
000001f0: 3e84 9d35 55e4 b537 34a6 9f37 29c3 c737
