Simulator/results/test_training/My Behavior/My Behavior-499983.pt (torch, 435001 bytes, 36 tensors)

network_body._body_endoder.seq_layers.0.weight f4 [128, 5]
000000 dd 30 69 3e 2c 3e 25 be 46 6a 2f bf 26 05 f0 3e
       0.22772546 -0.16136998 -0.68521535 0.46878928
000010 40 be c0 be 30 e6 06 3f a6 71 07 be e0 dc 5b bf
       -0.3764515 0.5269499 -0.13226947 -0.85883904
000020 12 80 86 3e 38 a2 39 3b de 91 5b bf b5 d3 8b be
       0.26269585 0.002832545 -0.8576945 -0.27309957
000030 b7 6a 15 3c a5 d3 65 bd a9 c4 fd 3e 03 68 be 3e
       0.009119681 -0.056110043 0.49564102 0.3718873
000040 e8 7c 7e 3e f2 ca 24 bd 8c 0c c3 3d 54 9b 5b bf
       0.24852335 -0.040232606 0.095238775 -0.85783887
000050 f0 1d 1a 3f 82 66 24 3f 21 85 09 3c 58 4f 24 be
       0.6020193 0.64218915 0.008393557 -0.16045892
000060 b7 fe 06 bf bd 05 8b 3f 4f c0 e0 3c 6a 7f 85 3e
       -0.52732414 1.0861126 0.02743545 0.26073772
000070 15 f1 d1 3c eb 9d 6d 3e 3a 1b 24 3f fe 20 4b bf
       0.025627652 0.23204772 0.64104044 -0.7934722
000080 63 34 73 bf d9 66 6b 3f 94 0d 26 bf 54 61 03 3f
       -0.9500181 0.9195381 -0.6486447 0.51320386
000090 ba 4c 5c bf a4 2a ea be ed 4e 02 bf 04 b6 37 3f
       -0.86054575 -0.45735657 -0.5090168 0.7176211
0000a0 8b 6c 3d 3f c4 88 64 3e e0 1e c4 3e af 77 cc 3c
       0.7399375 0.22317797 0.38304806 0.024959413
0000b0 fc 5d 79 bd 98 41 22 3f 71 aa 79 3f e0 f2 5a 3e
       -0.060880646 0.6338134 0.975257 0.21381712
0000c0 68 83 53 be 1d d4 56 3f 1a dc c7 be 49 50 9d 3e
       -0.20655596 0.8391741 -0.39035112 0.30725315
0000d0 07 ea fa be 5c 9a 89 3e 36 d7 91 be f2 f7 a6 be
       -0.49006674 0.2687558 -0.28484505 -0.32611042
0000e0 b4 1d 61 3c ca ef 71 be fb 91 24 bf 74 1d 93 3e
       0.013739992 -0.23626629 -0.6428525 0.28733408
0000f0 d4 8d 76 bd 86 76 b3 3e 00 3d 14 3f e2 86 b9 be
       -0.06019385 0.35051364 0.5790558 -0.3623572
000100 86 ae bc be 0c 71 ec 3e c2 db 16 3d bf 54 bb 3e
       -0.368519 0.46179998 0.03683067 0.36588094
000110 cd 65 ba bd 0c 0d 31 3f 49 e2 32 3d 39 f8 8a be
       -0.09101448 0.6916053 0.043672834 -0.27142504
000120 1f 14 3d 3f 27 55 a9 3d 2f 82 a6 3d 9f f5 0d bf
       0.7385883 0.08268195 0.08130299 -0.55452913
000130 a4 f6 46 be 9e 28 c3 be 1b 0d 1a bf 1b ca fb bd
       -0.19430023 -0.38116926 -0.6017625 -0.12294408
000140 11 a0 97 3e 97 24 16 3e 9f 2f a8 be 8d 0e ae be
       0.29614308 0.14662395 -0.32848832 -0.33995476
000150 e0 14 bb be f4 06 0d 3e 66 f8 0e bf e5 d5 1c bf
       -0.36539364 0.13772184 -0.55847776 -0.6126388
000160 9c dc 94 3c bc 12 4a bf d4 a8 7c 3e 7d 29 28 3f
       0.018171601 -0.78934836 0.24673778 0.65688306
000170 ec 98 96 3e ba f8 06 3d 5b c0 06 bf f4 d5 0e 39
       0.29413545 0.032952048 -0.5263726 0.00013621879
000180 06 4a b6 3d 7d 6d 08 3f 90 38 70 3e ad 7e cc be
       0.089008376 0.53292066 0.23459077 -0.39940396
000190 20 32 26 be 4b bf 39 3f 11 f9 d3 3e 55 cb 31 bf
       -0.16230059 0.72557515 0.4140096 -0.69450885
0001a0 d7 fe fb 3e 64 2f c6 3d bb c3 25 be ec ce 06 bf
       0.49217865 0.09677008 -0.16187946 -0.5265949
0001b0 da 8d 67 3c 78 ca b6 bf a2 17 e5 3e df ed 4e bf
       0.014132941 -1.4280539 0.44744593 -0.8083171
0001c0 0b 39 a6 be b0 e5 fe be 4a 1b 34 3f 14 49 1c bd
       -0.32465395 -0.49784613 0.7035414 -0.03815563
0001d0 1a 20 6d bc d9 ba 2d 3f 33 07 92 be 07 f4 4b bc
       -0.014472986 0.6786323 -0.28521118 -0.012448317
0001e0 64 c4 4d 3e 57 b9 9c 3d 88 16 78 bd c8 92 23 bf
       0.20094448 0.07652538 -0.060568362 -0.63895845
0001f0 d5 fe d1 bd 04 8e cc 3e 53 e8 a8 be b6 d2 12 3e
       -0.102536835 0.399521 -0.3298975 0.14338192
000200 62 2d 42 be 18 d6 cc 3e a2 3a 05 be 57 23 df be
       -0.18962625 0.4000709 -0.13010648 -0.4358165
000210 4d 9f 19 bf 40 79 ad be e3 a9 6b 3e 76 fa 8d 3e
       -0.600087 -0.3388157 0.23014025 0.2773015
000220 ee 8e 4e be 23 5a 12 be ba 2f ae 3e 37 eb 99 bd
       -0.20171711 -0.14292197 0.34020787 -0.07515567
000230 14 ae 27 3f 21 9a a6 be c8 ff dc 3e c8 f3 76 3f
       0.655 -0.32539466 0.43163896 0.9646573
000240 8d 62 40 bd 98 b5 de 3b b0 49 88 3f fd 0d 1a 3e
       -0.046968985 0.00679655 1.0647488 0.15044399
000250 68 7a d1 3d e3 38 32 bf 2b dc 0a 3f a0 12 90 be
       0.10228425 -0.6961805 0.542422 -0.2813921
000260 07 03 a9 be e6 67 61 3d 32 aa d6 be 13 70 d2 3d
       -0.33010122 0.055030726 -0.41926724 0.10275283
000270 e5 d0 34 3f 9f 5d 95 be 06 b1 54 bc 47 d9 bd 3e
       0.7063125 -0.2917299 -0.012981659 0.37079832
000280 ec 99 15 3e 51 26 e5 be 60 aa 17 bf 7b 2b 28 be
       0.14609498 -0.44755796 -0.59244347 -0.16422836
000290 be fb 45 be 73 5d e5 be 36 4b fe bd 67 81 a3 be
       -0.19334313 -0.4479786 -0.12416689 -0.31934664
0002a0 f9 b7 7f bf 4f b8 97 3f 53 96 f5 be c7 e0 0f bf
       -0.99890095 1.1853122 -0.4796625 -0.5620236
0002b0 45 80 7c 3e 26 a5 a6 be ac 67 2e 3e 1f b5 5b be
       0.24658306 -0.32547873 0.17031735 -0.21455811
0002c0 17 37 40 3e a5 1a 9c 3f 81 7a 9e 3e 6e ca 71 bf
       0.18771015 1.2195631 0.30952838 -0.9444951
0002d0 8e 80 59 3d 39 b4 2c bf 13 06 5b bf 6c 5e eb 3d
       0.053101115 -0.674625 -0.85556144 0.11492619
0002e0 84 33 8b 3d 91 7b 95 3e 4b 3e f3 3e 05 cc d3 3e
       0.06796935 0.29195836 0.47508463 0.41366592
0002f0 a5 5c b6 3e 02 ce cf 3d f4 e9 70 3e 07 06 89 3e
       0.35617557 0.10146715 0.23526746 0.2676241
000300 57 45 77 3e d4 3e 26 3c f9 18 db 3e 40 f1 47 3f
       0.24147545 0.010146815 0.4279249 0.78102493
000310 50 15 9f be 00 7c 7a 3c 7f e7 94 bc 1a b6 64 3f
       -0.31070948 0.015288353 -0.018176792 0.89340365
000320 b8 41 f4 3e 3d e6 e0 bd 6f 1a 14 3e 5f c9 a9 3e
       0.4770639 -0.109814145 0.14463209 0.33161446
000330 60 34 95 bf b8 0f 5e 3d 67 d5 37 3f ed 29 1b be
       -1.1656609 0.05421421 0.7181 -0.15152712
000340 f4 ae 96 be 69 f6 f1 bc b7 47 b0 3e 72 d7 47 3f
       -0.29430354 -0.029536443 0.34429714 0.7806312
000350 f2 7d 60 be 26 1f 43 be d2 5c 32 3f 07 9d 95 3e
       -0.21923044 -0.19054851 0.6967288 0.29221365
000360 f6 52 94 3e 49 2f 01 bf f4 f6 06 bf 0e 6a a3 be
       0.28969544 -0.50462776 -0.5272057 -0.3191685
000370 5e cd 1e bf d2 a3 02 3f a4 1a 90 3f ae 49 0b 3e
       -0.62032115 0.5103122 1.125813 0.13602325
000380 6e 89 e8 3c 5e f6 a1 3e a8 ea 6a 3e 60 85 aa 3e
       0.028385844 0.31633276 0.22941077 0.33304882
000390 51 fc 4f bf 01 4b 08 bd 30 9b 1d 3f 9d b0 11 3f
       -0.8124438 -0.033274654 0.6156492 0.56910115
0003a0 db 85 99 3e 92 5a 30 bd ed a7 cf 3e aa d6 cf bd
       0.29984936 -0.043055125 0.40557805 -0.10148366
0003b0 8f 89 1d 3f df e2 22 be ef d3 77 3e e9 aa 61 3e
       0.6153802 -0.15906857 0.2420194 0.22037853
0003c0 0a fa 2e be 3e a9 20 3f ca a3 d0 be 0b 16 6b 3e
       -0.1708757 0.62758243 -0.4074996 0.22957627
0003d0 2a 9c ca be 84 f9 c7 3c 7d 34 37 3f 88 ac 73 bf
       -0.3957227 0.02441097 0.71564466 -0.95185137
0003e0 d5 00 04 be 07 89 23 3f ae f4 36 bf d4 83 f6 3e
       -0.12890942 0.6388096 -0.714671 0.48147452
0003f0 05 2c 9c bd ae 26 3a 3f 63 d5 36 3e cd 10 1b be
       -0.076255836 0.7271527 0.17854838 -0.15143128

network_body._body_endoder.seq_layers.0.bias f4 [128]
000000 c6 1d 20 3d fb a2 f8 bc 34 13 73 bc 1f ed b6 3c
       0.039090894 -0.030351153 -0.014836121 0.022329865
000010 31 a3 b2 bc d4 82 1a 3d 22 8e 36 3d 04 e8 42 bc
       -0.021806331 0.037722424 0.044569142 -0.011896137
000020 71 0f 4f 3d e2 ee ac 3b 4c 6a ba bc 5d c6 12 bc
       0.050551835 0.0052775005 -0.022755764 -0.008958426
000030 bf 1f fd 3c 30 70 d2 3b 6d d1 2e 3d 8d 89 bf ba
       0.030898927 0.006422065 0.042680193 -0.0014613137
000040 28 3f d5 bc 6d 74 98 3c c7 52 1e 3d 7e 51 76 3c
       -0.026031092 0.018610204 0.03865316 0.015034078
000050 68 03 2b bd f8 26 85 3c bb 81 3e 3b a0 83 ad 3b
       -0.041751295 0.016253933 0.0029069025 0.005295232
000060 e1 ff 53 bd ca af 46 bc 12 ef 02 3b e9 7d 45 3d
       -0.051757697 -0.012126872 0.0019978923 0.04821578
000070 07 7a 90 3d 0d 99 4b bc ec 8a 32 3c 39 c3 f0 39
       0.07054525 -0.012426627 0.010897379 0.0004592182
000080 54 50 05 3c cf 6a 9f 3c 75 d3 2e bc 14 71 be 3c
       0.0081368275 0.01946011 -0.0106705325 0.02324728
000090 48 62 ed bc 3b ed 5d 3c 87 11 34 3d 47 79 a5 3c
       -0.028977528 0.01354533 0.043962028 0.020199431
0000a0 40 8d 85 3d 78 93 0f bb 60 3e 33 bc 91 b4 af bb
       0.06521082 -0.0021907967 -0.010940164 -0.0053621014
0000b0 d4 64 0b 3c f7 f2 d2 bc ce 64 1b 3d 53 f1 fa 3c
       0.008507926 -0.02575062 0.03793793 0.03063265
0000c0 48 52 bd bb 28 e9 a0 bd 2b c8 05 3d db d6 51 3c
       -0.005777631 -0.07856971 0.0326616 0.012807573
0000d0 50 b0 3a bc b7 fc 73 bd 8a 4b 5b bc 6d 74 a1 3c
       -0.011394575 -0.05956718 -0.013384709 0.019708836
0000e0 f2 cc 69 bb b2 73 f0 3a 12 13 1b bc 2d 7c 80 bd
       -0.0035675135 0.0018345027 -0.009464996 -0.06273685
0000f0 22 1f 56 bc 94 d4 60 3d 71 e9 96 b9 ad 2f 2c 3d
       -0.013068946 0.05489023 -0.00028784157 0.042037655
000100 20 67 9e 3c 35 04 2c 3d 45 44 c2 3b ae 9d 52 3d
       0.019336283 0.0419962 0.0059285485 0.051419906
000110 27 ee d0 bc f9 36 14 3d e7 08 5b 3c 64 5d 21 3d
       -0.025504185 0.03618524 0.013368822 0.039395705
000120 98 d7 ce bc 0e 8c 2f 3d f2 49 80 ba 7c 4d 8d 3c
       -0.025249287 0.042858176 -0.0009787662 0.017248861
000130 d3 f5 7d bc 9b ca 38 bd 84 2f e4 bc 0b 19 aa bc
       -0.015500504 -0.045115095 -0.027854688 -0.020763895
000140 e8 5b d3 ba 47 73 a3 3c 43 e0 83 3d fc 75 79 bc
       -0.0016125413 0.01995243 0.06439259 -0.015225884
000150 9c 15 9a bc 38 38 28 bd 12 71 38 bd 3b 62 27 bb
       -0.018809132 -0.04106924 -0.045029707 -0.0025540728
000160 da 8d 02 3c 48 ef 13 3c 05 de 34 bc 03 9c 33 3c
       0.00796839 0.009029217 -0.011039262 0.010962489
000170 61 85 fc bc f5 bd ad 3c c2 2c 8c 3d 2f 3a 8b bc
       -0.030825319 0.021208743 0.068444744 -0.016995518
000180 16 d6 e3 bc b0 e6 13 bd cc cc 11 3d 99 77 45 bd
       -0.027812045 -0.036108673 0.0355957 -0.04820976
000190 bb b2 49 bd 79 99 c9 3c ff 87 fd bc 90 06 b1 ba
       -0.049242716 0.024609314 -0.030948637 -0.0013505984
0001a0 28 be 13 3d 00 5c 2f 3d fe f3 fc 3c be 34 c4 3c
       0.03607002 0.042812347 0.030878063 0.02395093
0001b0 e7 43 58 bc 2d 96 75 bc a9 b7 a5 bc 21 69 fe bb
       -0.013199783 -0.014989418 -0.020229178 -0.007763997
0001c0 a9 10 f2 ba a2 cc b3 bc 6c 1f 11 bc f5 eb 6c 3c
       -0.00184681 -0.021948162 -0.008857589 0.014460553
0001d0 c2 7d 45 bc 4f c8 ac 3a 6f 5a 7b bc 91 c7 0f bd
       -0.012053909 0.0013182255 -0.015341385 -0.03510243
0001e0 9c 17 34 bd fe c7 2d bc 61 d1 90 3c 59 16 78 3d
       -0.04396783 -0.010606764 0.017677965 0.060568187
0001f0 e9 d7 a6 b9 1f fa 41 3d 72 7f 1a bd e7 98 4d 3d
       -0.00031822853 0.047357675 -0.037719198 0.050194647

network_body._body_endoder.seq_layers.2.weight f4 [128, 128]
000000 e5 8a 10 be 1f d9 11 3e 30 80 e8 bc 1c b2 a5 3c
       -0.14115484 0.14242981 -0.028381437 0.02022653
000010 12 ef 98 3d 2a 92 a7 bd ec 27 ff bd 2e 6b 2d 3d
       0.07467474 -0.081821755 -0.12458786 0.042338543
000020 84 47 25 3e db 4d 3a 3e 35 fb c9 3d 27 67 01 bd
       0.16140562 0.18193762 0.09862367 -0.031592514
000030 00 04 cf 3d ce 83 88 3d c8 7a 83 3e 1c 5a 91 3d
       0.10108185 0.06665765 0.25679612 0.07097265
000040 17 6c 9e bd d1 21 ba 3c 12 a4 10 bc 13 e9 9c 3c
       -0.0773546 0.022721203 -0.00882818 0.019154107
000050 9b 2a 23 be f4 95 9d bd b1 83 8f be df 48 e7 3d
       -0.15934221 -0.07694617 -0.2803016 0.11293196
000060 5a 9b af 3d b9 c3 ab bd ec b7 7f bd 01 de 48 3d
       0.08574553 -0.083869405 -0.06243126 0.049039844
000070 eb 58 b2 3d 4f e3 00 3e 38 8c 3c be b0 79 79 3d
       0.08708366 0.12586711 -0.18412864 0.060907066
000080 34 cc 58 3c d0 86 4e be 8c f1 28 be af 88 4f bd
       0.01323228 -0.20168614 -0.16498393 -0.05066746
000090 7e 35 04 be 64 1c 6f 3d 8f 62 82 3d 87 6c 28 bd
       -0.1291103 0.058376685 0.06366455 -0.041119125
0000a0 11 75 4e 3e 35 39 e2 bc 9f 74 4a bd 4b d3 dd 3b
       0.20161845 -0.027615169 -0.049427625 0.006769573
0000b0 11 f6 67 3d c8 ef b6 bd d2 86 62 3d e6 40 fa 3c
       0.05663115 -0.089324534 0.055304356 0.030548524
0000c0 e6 cb 8d 3d 6f 4c 5a bd 9f da 20 bc c4 f0 4c bd
       0.06923656 -0.05329555 -0.009817748 -0.0500343
0000d0 a9 41 8b bd 46 db 27 be 4b 6d 12 bc 4a 04 5a 3c
       -0.06799633 -0.1639224 -0.00893719 0.013306687
0000e0 31 dd e5 3c e9 c9 24 be d4 59 1a 3e ce 07 a9 bd
       0.028059574 -0.16092648 0.15073329 -0.08253442
0000f0 c2 dd fc bd 80 0b 1f 3e 36 71 f0 bd 93 32 f2 bc
       -0.123469844 0.1553173 -0.11740343 -0.029565131
000100 ec 4c ad bc bf 20 ad 3d 49 ee b3 bb 94 4d 92 3d
       -0.021154843 0.084535114 -0.0054910523 0.07143703
000110 bf e8 53 3d d6 04 a8 bc 72 ef 7d bd 8f ad fd 3d
       0.051735636 -0.020510118 -0.06199593 0.12386619
000120 c9 0b 30 bd 93 5d b7 3d 21 ff 9b be 15 cf 83 3b
       -0.04297999 0.08953395 -0.30468085 0.004022489
000130 9d cc d3 bc 71 ec a4 bd ca 34 16 be cc 29 c3 bd
       -0.025854403 -0.0805291 -0.14668575 -0.095294565
000140 87 09 99 bd 91 52 24 bd 77 32 31 3d 9d 8a da ba
       -0.0747252 -0.040117804 0.043261018 -0.001667339
000150 6b 52 4b bd 1d e9 3c bd be b5 86 bd 4e 17 69 be
       -0.049639147 -0.04612075 -0.06577633 -0.22762796
000160 16 c3 9a bd 88 f2 3f bd 02 f4 b5 3d 71 0e b1 bd
       -0.07556741 -0.046862155 0.088844314 -0.086453326
000170 1b 12 d6 3b 98 7b 39 3d 5f dd 93 3d 23 e9 a5 bd
       0.00653292 0.045283884 0.072199576 -0.08101108
000180 88 98 d1 3c de ec 03 bc 9f 25 7b 3d 81 1a 1c bd
       0.025585428 -0.008052079 0.061315175 -0.038111214
000190 5e 31 c3 bd 27 b0 96 bd 3c a7 58 3d 8e 8b 6c be
       -0.095309004 -0.07357817 0.052893862 -0.23100111
0001a0 31 fc 41 3e 7c 70 eb 3c 95 39 f5 bd 12 ec f9 3d
       0.1894386 0.02874016 -0.119738735 0.1220323
0001b0 a3 48 09 3c b2 18 b4 bd e6 0d 8b bb 0f 48 c0 3d
       0.008379134 -0.08793773 -0.0042436 0.09388744
0001c0 81 22 32 bd e2 c6 ba bc 1f f8 c8 bc ee 1a d4 3d
       -0.043489937 -0.022799913 -0.024532376 0.10356699
0001d0 ba 0d 18 be f6 d9 6d 3e 27 c9 03 bc 44 6e 2e 3e
       -0.14848986 0.23227677 -0.008043564 0.1703425
0001e0 e5 fc e8 3d 7f d4 c3 bd 17 ef a4 bd 14 53 77 3e
       0.11376361 -0.09562015 -0.08053415 0.24152786
0001f0 76 d5 c7 bd fa d9 05 3c 82 ab 9c bd b8 b0 97 3c
       -0.09757511 0.008169645 -0.076499 0.018516883
000200 63 65 72 3d 26 56 75 3d c8 6d ef bb 3a bf 26 3e
       0.05917872 0.05989661 -0.007306788 0.16283885
000210 3b 4e 4d be 28 47 90 bc 6c e5 b0 3d d3 23 6a bd
       -0.20049374 -0.017612055 0.08637509 -0.05716307
000220 87 a5 43 3d 0c 0a 91 bd b1 02 06 3e d1 a5 6d 3d
       0.04776528 -0.070819944 0.13086964 0.058019463
000230 4a 7c 37 be 20 64 8e 3d b6 3f 33 3d 52 1c 95 bc
       -0.17918506 0.06952691 0.04376193 -0.01820198
000240 50 89 8e 3c f7 1c 09 3e 6f 86 1e 3e f7 fe 68 3e
       0.01739946 0.13389955 0.1548097 0.22753511
000250 25 2c 00 be 69 d7 93 bd 5c 1d 15 be 39 e0 08 be
       -0.1251684 -0.072188206 -0.14561981 -0.13366784
000260 18 e0 bf bd b5 80 b3 3d 90 e9 58 be ea 23 27 3e
       -0.09368914 0.08764783 -0.21182847 0.16322294
000270 12 6b 86 3d 62 92 84 bd ce 49 57 bc a6 4b 83 bc
       0.06563391 -0.06473233 -0.013140155 -0.016027283
000280 32 87 19 bd f2 ea 9b 3c 4d 85 14 3e d2 67 ec 3d
       -0.037482448 0.01903293 0.14503975 0.1154324
000290 c6 a7 a6 3b fe 59 b5 bd cc 34 f7 3d 0f a1 48 3e
       0.005085918 -0.08855055 0.12070617 0.19592689
0002a0 01 c8 66 bd a6 0e 93 be b3 4c 1f be 14 38 ce bc
       -0.056343082 -0.28722113 -0.15556602 -0.025173225
0002b0 45 71 a5 3d e4 68 37 3d de 6d 93 bc 75 aa de 3d
       0.08078245 0.044777766 -0.017996725 0.10872356
0002c0 4a 2c 74 bd 7a d2 13 be 4f af 07 3e b5 4a e7 3d
       -0.05961255 -0.14435759 0.13250469 0.11293546
0002d0 bf 2a e0 bd f0 04 c8 be 65 bd 88 bc 50 fd 7a bd
       -0.10945653 -0.39066267 -0.016691873 -0.061276734
0002e0 0f 31 e2 bd 9d 6c f7 3c 07 e3 76 bc 04 af 55 be
       -0.110445134 0.030203158 -0.015068776 -0.20867544
0002f0 9f da 04 bb 30 df f3 3d 23 ae 2e be 89 3e b9 bd
       -0.002027191 0.11907804 -0.17058615 -0.09045131
000300 15 21 4e bd 92 a4 2c 3d 32 45 d3 bc e7 bb 2d bd
       -0.05032452 0.042149134 -0.02578983 -0.042415526
000310 cc ae 08 3e 38 07 3b 3e 34 34 fe bd db 76 05 3c
       0.1334793 0.18264472 -0.12412301 0.008146013
000320 4f d6 67 bd ce af b6 39 2e 7f 2a bc f1 31 b6 bc
       -0.056600865 0.0003484473 -0.010406299 -0.02224061
000330 b9 59 f0 3c e9 b8 85 bc 2f 97 a7 bc 4c c3 74 be
       0.029339658 -0.016323524 -0.020457832 -0.23902625
000340 d7 72 9f 3d 44 d2 63 bc a2 61 69 3d c0 17 9b ba
       0.07785576 -0.013905112 0.056977876 -0.001183264
000350 4e 01 b7 bd b8 3a 83 bd cf f7 52 3d 63 61 ac ba
       -0.08935796 -0.06407684 0.05150586 -0.0013151582
000360 2f bf e3 bd 6b bb 02 bd 4c 10 02 3d ef 06 dc bc
       -0.1112045 -0.031917017 0.031753823 -0.026858775
000370 fc ad 1e be b9 ab 91 3c 6c a7 37 3e 9f ea 2b 3e
       -0.15496057 0.017782079 0.1793496 0.1678872
000380 20 3b bd 3a cc c2 a4 bd c9 1d 63 3d e7 ab 60 3c
       0.0014437176 -0.08044967 0.055448327 0.01371286
000390 3d 56 fa bd 0b ad 2a 3d 47 5d 11 bd 80 93 1b bd
       -0.1222348 0.041668933 -0.035489347 -0.037982464
0003a0 f7 fb af 3d d2 f5 b3 3c b6 7e bc 3d d0 3c 59 3d
       0.0859298 0.021967802 0.09203856 0.05303651
0003b0 c9 3e 5c 3b 92 56 d6 bd 55 67 3f be c9 b3 b5 bd
       0.0033606759 -0.10465731 -0.18691762 -0.08872182
0003c0 7f ea 21 be dc 4e 7d bd 83 b3 e9 3c 22 7f 3f bb
       -0.1581211 -0.061842784 0.02852798 -0.0029220064
0003d0 1a 5f 14 3d bc 91 2b 3c 2d 01 0a be 9d c7 9e bd
       0.03622351 0.0104717575 -0.13477011 -0.07752917
0003e0 11 3a ab bd 0b 02 82 3c 0a b6 bf 3d 39 54 23 3e
       -0.08360685 0.015870115 0.09360893 0.15950097
0003f0 b3 04 ac bd 17 c2 da 3d d9 50 e7 bd 56 e5 28 3e
       -0.08399334 0.10681551 -0.11294717 0.16493735

network_body._body_endoder.seq_layers.2.bias f4 [128]
000000 66 4b 20 3d 84 82 28 3d 89 2c ba bc 66 09 43 3d
       0.039134406 0.041140094 -0.022726314 0.047616385
000010 53 04 7f 3c 78 92 27 3c a4 e4 49 3b 7a e1 3d 3d
       0.015564996 0.010227792 0.0030806446 0.04635761
000020 d0 6c df bc 16 4d c7 3c 9a 59 94 bc 22 1c 6d 3d
       -0.027273566 0.02432875 -0.018109132 0.057888158
000030 57 d3 24 3d 1c 7d ba 3a 35 1a 50 3d 28 56 99 3c
       0.040240612 0.0014227959 0.050806243 0.01871784
000040 11 f4 80 3d 77 ca 15 3c 03 6d 23 3d f6 b1 1c 3d
       0.06296552 0.00914251 0.039898884 0.038255654
000050 86 4a bc bc bd 83 26 3d 8f bb 1b 3d 5e 1c 18 3d
       -0.022984754 0.04065298 0.038020667 0.037136428
000060 56 fc 9b 3d 0c 33 9f bc ad 19 7d 3d c6 26 90 3b
       0.07616489 -0.01943352 0.061792064 0.0043991534
000070 0a c7 b5 3c ea f0 b2 bc ea 24 0c 3d 85 d1 99 bc
       0.022189636 -0.021843392 0.03421489 -0.018776665
000080 6f 39 86 bb 23 56 83 3d c9 a9 f3 bb 9e c6 b8 3b
       -0.004096202 0.06412914 -0.0074360115 0.0056389114
000090 09 d3 a0 bb e0 10 81 bc 5e 20 f5 3c 60 15 7f 3d
       -0.00490797 -0.015755117 0.02992266 0.062276244
0000a0 2d 03 48 3d d3 08 2d 3d a0 21 a4 3c af 8d 91 bc
       0.048831154 0.042244744 0.020035565 -0.017767755
0000b0 be c5 75 3d ca 46 14 bb 95 0b 24 3d 50 2d ba 3c
       0.060003035 -0.0022625201 0.040050108 0.022726685
0000c0 5e 46 0a 3d 7a 6a f4 3c 70 cf b5 bc f0 a9 40 3d
       0.033758514 0.029835928 -0.02219364 0.047037065
0000d0 b0 52 3e 3d 0d 75 53 3d 14 b2 24 bb e9 33 99 bc
       0.046465576 0.0516253 -0.0025130557 -0.01870151
0000e0 2a c1 7b bc 82 69 10 3d c2 91 1c 3b 69 cc f5 bc
       -0.015365878 0.03525687 0.002389059 -0.030004697
0000f0 a0 e5 97 3c 69 58 17 3d fd bb c1 3c 8f cf 0c 3d
       0.01854211 0.03694955 0.02364921 0.03437763
000100 98 42 41 3d 71 9f 83 3d 29 09 07 3d 51 a1 e5 3c
       0.04718265 0.064268954 0.03296772 0.028031023
000110 89 84 7a 3c e5 2c 44 3d 97 72 6c 3c a8 37 f1 bc
       0.015290388 0.047894377 0.014431617 -0.029445484
000120 a3 5d 21 ba 85 46 27 bc 2d 64 6e 3c d7 f1 5a bc
       -0.00061556156 -0.010209684 0.014550251 -0.013363323
000130 be 70 8a bc 7d 4f a5 3c 63 6e 17 3d 82 2a ea bc
       -0.016899463 0.020179505 0.036970507 -0.028584722
000140 d2 32 de 3b 03 85 8c bc 38 3b 64 bb b9 8a 07 3d
       0.0067809606 -0.017153269 -0.0034825336 0.03309128
000150 7e ca c4 3b bd 85 53 3d e8 2a db 3c 4d b8 a7 bc
       0.0060055843 0.051641215 0.026753858 -0.020473624
000160 1a 4e d2 3c 79 43 3e 3d 23 27 9c bc 05 e1 67 3a
       0.025672007 0.046451066 -0.01906163 0.0008845481
000170 7d 71 b7 bc 80 c5 69 bb d6 4f 96 3c 28 db 38 3d
       -0.022392983 -0.0035670698 0.018348616 0.04513088
000180 76 4d dc 3c ec 8e 24 bc dd 10 78 3c 8d 98 c9 bc
       0.026892405 -0.010043841 0.015140739 -0.024608875
000190 05 20 c9 3b 72 53 71 3d ac 1c 06 3d 04 df 9d 3c
       0.00613785 0.05891747 0.032742187 0.019271381
0001a0 36 7b fb 3c c7 19 a2 3c 5b 0a af bc 02 10 ca bc
       0.0306984 0.019787682 -0.021367243 -0.024665836
0001b0 51 38 a6 ba e8 26 6f 3d 75 f2 53 3d bf 10 4a 3d
       -0.0012681579 0.058386713 0.051744897 0.049332377
0001c0 0d 3c 02 3d ba 8a 6c 3d fc 42 8e bb d2 bb b1 bb
       0.03179555 0.057749487 -0.0043414813 -0.0054240013
0001d0 9e b6 6f bb 97 a2 a4 3c b9 ea 09 3d 99 b4 4e 3d
       -0.0036577354 0.02009706 0.033671115 0.0504652
0001e0 c1 c6 48 bc d0 e4 dc bb f4 59 ca bc 25 a2 fc 3c
       -0.012254418 -0.0067411438 -0.024701096 0.030839035
0001f0 a8 d9 44 3d 87 73 2d bc 96 d7 02 3c b8 74 ec 3c
       0.048059136 -0.010586626 0.00798597 0.02886425

action_model._continuous_distribution.log_sigma f4 [1, 2]
000000 34 44 83 bd ec a1 f4 bd
       -0.06409493 -0.11944947

action_model._continuous_distribution.mu.weight f4 [2, 128]
000000 55 0f 6e bb 67 9c c7 3d 58 92 fe bc f7 41 b4 3d
       -0.0036325057 0.09746628 -0.031075642 0.08801644
000010 74 a9 2e 3d cc b6 8f 3c 32 1e 05 be 04 99 23 3d
       0.04264207 0.017543219 -0.129998 0.03994085
000020 46 ee c0 bd 5c b0 79 3d 0b fe 92 bd 71 9f 7c 3d
       -0.09420447 0.060959205 -0.07177361 0.061675493
000030 be e1 92 3c 66 ec e1 3c d7 6f 0c 3d 49 df e1 bb
       0.017929908 0.027578544 0.034286346 -0.0068930727
000040 d1 5d b5 3c 19 11 e9 3c 73 7c 6d 3d dd 0c 3d 3b
       0.022139462 0.028450536 0.057980012 0.0028846778
000050 77 48 40 bd 46 fe a6 3d fa 5c ac bc d0 d4 a5 3c
       -0.046944108 0.081539676 -0.021040428 0.020243078
000060 f2 a7 ad 3d 5e a9 85 bd 8f f9 a8 3d f9 5e bf bc
       0.08479299 -0.06526445 0.082507245 -0.023360716
000070 4a c3 04 bd 34 3f 91 bd f1 89 9c 3a 72 3e 1c bd
       -0.032412805 -0.07092133 0.0011942965 -0.03814549
000080 4e d0 92 b8 b1 fe 69 3d d9 97 5e bd 1c 64 20 3b
       -7.000622e-05 0.05712766 -0.054344032 0.0024473732
000090 8a 22 4c bd 4f 51 99 bd de e6 23 bd 6b de 01 3e
       -0.049837627 -0.074862115 -0.040015094 0.12682502
0000a0 88 5d 63 3d 36 64 77 bb ac c3 f5 3c 88 92 40 bd
       0.05550912 -0.003774894 0.03000053 -0.047014743
0000b0 36 d0 94 3d 03 b0 be 3c ef a4 42 bb 68 84 44 3d
       0.072662756 0.023277288 -0.002970036 0.047977835
0000c0 06 27 26 3d a6 d8 9b 3c fe 4d b1 bc 90 ea ca 3d
       0.04056456 0.019024204 -0.021643635 0.099080205
0000d0 26 6d 40 3d 3a 4e 47 3d 3d f3 c2 bd d2 a0 94 bd
       0.046979092 0.048658587 -0.0951905 -0.072572365
0000e0 c6 fa 99 3b 6c cf 73 3b 3d 59 c0 bd b6 2c 37 bd
       0.004699084 0.003720249 -0.09392021 -0.044720374
0000f0 41 8c ca 3d 45 bd 3d 3d fb dd 82 3d e3 84 46 3c
       0.098900326 0.04632308 0.06389996 0.012116644
000100 e0 95 b9 3d 6a 11 8f 3d 4c 60 b0 3d ce 23 b3 bc
       0.090617895 0.06985743 0.08612117 -0.021867659
000110 70 f6 8f 3d b4 14 94 3d e4 f0 ce 3c 95 5a 3c bd
       0.07029426 0.07230511 0.02526135 -0.045984823
000120 b5 25 42 3c 8a e8 c2 bc ab e0 3b 3d 06 2c 8d bd
       0.01184981 -0.023792524 0.045868557 -0.068931624
000130 3d fc d2 bd b4 5c 0d 3c ac 85 d1 3d da 16 2c bd
       -0.10302017 0.008628059 0.10230574 -0.04201398
000140 a8 57 06 3c c3 be 7a bd 75 dd c2 bd 93 11 a3 3d
       0.00819961 -0.06121708 -0.09514896 0.079623364
000150 5d 7b a6 bd 47 94 ae 3d f2 7f ad 3d 95 e7 83 bd
       -0.081289984 0.085243754 0.08471669 -0.06440655
000160 64 45 a5 3d 3a 16 29 3d 2a 0c 72 bd 50 f1 b5 bd
       0.08069876 0.041280963 -0.05909363 -0.08883917
000170 97 a7 4f bd c9 ce 43 bd cf 1b 92 3d ac eb e5 3c
       -0.050696936 -0.047804628 0.0713421 0.028066479
000180 26 07 19 bb a5 8c 62 bc af 43 c2 3c 66 94 81 bd
       -0.0023350208 -0.013827478 0.023713915 -0.06327133
000190 3f ba f7 bd 99 99 ac 3d e0 3b 13 3d 37 5f 5d bd
       -0.120960705 0.08427734 0.035945773 -0.054045882
0001a0 f2 e9 9c 3d a0 76 88 3d c9 08 aa bd e0 29 46 bd
       0.07661809 0.06663251 -0.08302457 -0.04837978
0001b0 0f 7e ba bc a7 a5 4f 3d 6e 18 b5 3d 7c 44 8e 3d
       -0.022765188 0.050695088 0.0884255 0.06946656
0001c0 f9 1b 7a 3b 65 05 92 3d d8 9a 69 bd 5c 96 0a be
       0.0038163646 0.07129935 -0.057032436 -0.1353392
0001d0 44 f5 1c be 51 c7 8b 3d 43 b8 a0 3d 0f be 0d 3d
       -0.15327936 0.06825126 0.07847645 0.034605082
0001e0 14 23 53 bd b8 83 99 bd d5 12 d8 bc bf 55 d7 bb
       -0.051547125 -0.074958265 -0.026376167 -0.006571501
0001f0 5c ce 39 3d ed 30 d7 bc b3 79 f5 bd 2b 88 a1 3d
       0.045362815 -0.026268447 -0.11986103 0.078873
000200 fb 7a a4 3d 6c 94 9e 3c 28 7c 58 bd 87 d9 02 3d
       0.08031269 0.019357882 -0.05285278 0.03194573
000210 96 38 a8 bd d3 79 10 be c1 3d 26 3d e6 75 b7 3d
       -0.08213918 -0.14108972 0.040586237 0.08958034
000220 8a 69 63 bd 72 26 5b bd a1 37 6f bd ba 9d 3a 3d
       -0.05552057 -0.05350346 -0.05840266 0.045560576
000230 14 9e 1c 3d fa 62 2a bd e8 de 58 3d 7a db 50 3d
       0.038236693 -0.041598298 0.052946955 0.05099056
000240 f9 29 d6 3d 6f 47 c0 bd 41 e3 a0 3c 9a 58 a3 3d
       0.104572244 -0.09388625 0.019639613 0.07975884
000250 cc 10 06 bc 28 72 43 3c b2 55 d5 3d fd e3 76 3d
       -0.008182716 0.011929072 0.10416736 0.06027602
000260 a4 21 53 3d 6d 24 af bd 61 45 7f 3d 8b 60 dc bd
       0.051545754 -0.085518695 0.062322024 -0.107606016
000270 0a 54 a8 3d 4d 2d 4b bd d5 4f 9b 3d f1 1f 4a bd
       0.08219154 -0.04960375 0.07583586 -0.049346868
000280 49 80 86 bd 29 0e ca 3d 43 a2 c7 bd 5f 9a 9c bd
       -0.06567437 0.09865982 -0.09747746 -0.076466314
000290 39 01 3c 3b 8f 65 a4 bc c0 1a a2 3d 21 ad 37 3c
       0.0028687252 -0.020067958 0.079152584 0.011210711
0002a0 69 2f 5b 3d 6a 23 af 3d f4 90 b6 bd 11 bc 15 bc
       0.05351201 0.085516766 -0.08914366 -0.009139077
0002b0 88 04 a6 3d 74 7b 89 bd 39 2d ea 3d 57 9a 9b bc
       0.08106333 -0.06713 0.11434407 -0.018994493
0002c0 6d cc 85 3d 33 20 36 3d 9c 6d 0c bd 1c 0b 82 bc
       0.06533132 0.0444643 -0.03428422 -0.015874438
0002d0 ea b2 99 3d 44 c2 9d 3d 5d 57 cf bc 23 82 44 bd
       0.07504828 0.07703069 -0.025310213 -0.04797567
0002e0 18 0c 32 bd 64 06 ca 3d f2 5e 27 3d 6b 41 05 bd
       -0.043468565 0.098645 0.04086203 -0.03253309
0002f0 bb 0d de bd c6 51 88 3c 32 b3 80 bd a5 e0 b5 3d
       -0.10842463 0.016640555 -0.06284179 0.08880738
000300 7c f9 11 3d c5 31 45 3d 8d 24 8f bd c5 05 cd 3d
       0.035638317 0.048143167 -0.069893934 0.10010866
000310 49 39 5c bd 2d 64 05 3c 97 ca db bd 01 59 3c bd
       -0.05376557 0.00814156 -0.10732 -0.04598332
000320 5a d6 72 bd b4 63 ab bd f6 bb 2b bd f7 9f 84 bc
       -0.059286453 -0.08368626 -0.0419273 -0.016189558
000330 0a 8b cc bc 8b 8e d8 bd 49 16 c0 bb d7 f2 44 bd
       -0.024968643 -0.10574063 -0.0058620316 -0.048083153
000340 93 56 a9 bd 03 d0 9e bd e4 ea 3a bd 72 42 0a bd
       -0.08268466 -0.07754519 -0.045634165 -0.033754773
000350 65 ca 30 3d ed f7 25 3d 46 04 0a bd f9 24 c1 bd
       0.04316177 0.040519644 -0.03369548 -0.0943088
000360 d3 75 bf bc df 5d ad 3d 38 9e 5c bd ec 29 4d bd
       -0.023371613 0.0846517 -0.053861827 -0.050088808
000370 2c 9e 9d bc c7 d1 d1 bd 57 4d 8d bd 5b 98 e2 3d
       -0.019240461 -0.1024509 -0.06899517 0.11064216
000380 f1 b5 62 3d 9a ed 0f bd a5 b5 e7 bd 33 2d b0 bd
       0.055349294 -0.035138704 -0.11313943 -0.08602371
000390 06 02 ab 3c a4 52 28 3d ce bd 9d 3b da c7 3a 3d
       0.020874988 0.041094437 0.0048138862 0.04560075
0003a0 ad c9 0b bd 18 02 21 bd 65 3e 95 bd f3 14 1c bd
       -0.03412788 -0.039308637 -0.072872914 -0.038105916
0003b0 66 5b d1 3c f9 0f 57 3d 01 03 9e 3d ae 53 20 3d
       0.025556277 0.052505467 0.07715417 0.039142303
0003c0 b9 43 d9 3d aa a1 79 3d f7 b2 e0 3c 13 88 0a 3d
       0.1060862 0.06094519 0.027429087 0.033821177
0003d0 11 18 7c bd 35 91 85 bd 7b b5 a8 bd a4 98 f0 3d
       -0.06154639 -0.06521837 -0.0823774 0.11747864
0003e0 13 b7 70 3c 51 02 09 be 54 fd 19 bd 4f f6 df 3d
       0.014692086 -0.1337979 -0.03759511 0.109356515
0003f0 96 be 84 3d 73 59 da bd 64 b1 c5 3c 64 39 18 bd
       0.06481664 -0.10661592 0.024132438 -0.037164107

action_model._continuous_distribution.mu.bias f4 [2]
000000 43 38 07 3d 34 ac cd 3c
       0.03301264 0.025106527

exp_avg f4 [128, 5]
000000 40 3b 81 39 e6 18 68 b9 12 15 ea 38 67 77 be 39
       0.00024648942 -0.0002213452 0.00011161914 0.00036328586
000010 66 dd 85 b8 b6 eb 87 39 a3 77 cf 37 1e d9 b6 38
       -6.383173e-05 0.00025924825 2.4732033e-05 8.7188775e-05
000020 8d 38 63 39 7f 3d 4b b7 a6 29 83 b4 1c 4d 87 39
       0.00021669474 -1.2114061e-05 -2.4430955e-07 0.00025806658
000030 45 10 93 b9 13 4c c7 b9 75 cb 0c b9 99 65 77 38
       -0.00028050147 -0.00038012918 -0.00013427234 5.898401e-05
000040 71 58 b9 b8 0c 46 6a b7 21 15 e8 38 58 d2 e5 37
       -8.837961e-05 -1.3963796e-05 0.000110665576 2.7396876e-05
000050 2d 12 9f b8 fc b4 cd 38 c4 0f 94 38 c4 6f 93 b8
       -7.585096e-05 9.808873e-05 7.0601265e-05 -7.030324e-05
000060 55 59 88 38 9b e1 15 b9 1a 9b 8f 37 14 a8 7f b7
       6.501625e-05 -0.00014293792 1.7119153e-05 -1.5238318e-05
000070 c4 dc ea b8 03 07 64 b8 7b 40 3a 3a b3 ab 00 b8
       -0.0001119911 -5.4365966e-05 0.0007104945 -3.0677485e-05
000080 17 5b 5b 39 79 a5 1f 3a eb d5 ba b9 05 50 86 38
       0.00020919401 0.0006090026 -0.00035636066 6.404523e-05
000090 8c bf ad 39 82 ce 3a b9 4d 92 25 b9 02 17 a2 b9
       0.00033139845 -0.00017815272 -0.00015790128 -0.0003091619
0000a0 82 7c ba b9 45 8b c2 b8 85 47 a9 37 c4 e4 28 b9
       -0.0003556945 -9.276582e-05 2.0179674e-05 -0.0001610695
0000b0 bf 23 5e b7 95 42 d3 b9 3c 05 e4 38 1f 5a 9f b8
       -1.3240554e-05 -0.00040294664 0.00010872862 -7.598497e-05
0000c0 cf b4 ce b9 aa e4 07 ba 21 7b 28 38 01 c0 1d b7
       -0.00039426095 -0.0005183915 4.0168994e-05 -9.402634e-06
0000d0 76 aa e5 b6 cc 69 cf 37 95 6a 41 38 53 43 f1 b5
       -6.844576e-06 2.4725588e-05 4.6114048e-05 -1.7975493e-06
0000e0 c7 e9 20 38 b2 29 ae b8 2b 36 c5 b8 a9 db 83 b7
       3.8364695e-05 -8.304733e-05 -9.4037816e-05 -1.5718704e-05
0000f0 a7 5b 2f b9 f2 70 39 39 40 58 84 38 d5 4f 0c b9
       -0.00016723444 0.0001768505 6.310688e-05 -0.0001338118
000100 60 52 8e 35 bc 4d 25 b9 f8 46 8d 38 23 09 5b b8
       1.0603799e-06 -0.00015764585 6.736623e-05 -5.2222178e-05
000110 83 05 2d b9 a6 2e fa b8 68 6e b8 b8 7d 78 df b8
       -0.00016500619 -0.00011929618 -8.7943685e-05 -0.00010655911
000120 df 3c 97 38 16 f7 45 38 54 79 1f b8 f3 a7 17 36
       7.211579e-05 4.7198577e-05 -3.802155e-05 2.2598513e-06
000130 76 29 36 38 97 dd f1 b8 10 31 19 b9 6f 82 91 38
       4.3430795e-05 -0.0001153305 -0.00014609494 6.938434e-05
000140 38 39 05 39 13 e1 52 38 50 9a db 36 77 fe 43 38
       0.00012705184 5.027752e-05 6.544673e-06 4.672861e-05
000150 37 29 21 38 c8 7c e5 39 25 9d 42 38 1f d9 27 b8
       3.8423776e-05 0.00043771253 4.6399557e-05 -4.0018112e-05
000160 f6 b3 12 39 d6 e5 27 38 41 42 ae b9 ab 07 84 b5
       0.00013990686 4.0029954e-05 -0.0003323723 -9.836998e-07
000170 b2 20 25 38 ac 6c 1a b9 c3 fa c5 b7 c3 34 0b b9
       3.9369515e-05 -0.00014727068 -2.3601e-05 -0.00013275728
000180 60 a2 8c b8 d7 3b a9 38 a7 90 f7 37 d0 76 7e b8
       -6.705965e-05 8.069694e-05 2.9512054e-05 -6.0668972e-05
000190 97 1f 71 38 0f eb 39 39 97 ca 24 b8 51 d3 b0 b8
       5.7488298e-05 0.00017730541 -3.9289323e-05 -8.431695e-05
0001a0 96 4e 83 b9 bf af c9 39 0d 55 b4 b7 8c 01 93 b8
       -0.00025044818 0.0003846865 -2.1497277e-05 -7.009794e-05
0001b0 75 d8 f0 38 d4 94 99 39 5c 26 cf 38 44 e1 ce 39
       0.0001148441 0.0002929332 9.877674e-05 0.00039459218
0001c0 33 b2 48 b9 28 5c 33 b9 df 7c c0 b9 92 a2 24 b8
       -0.0001913987 -0.00017105101 -0.0003671413 -3.9252052e-05
0001d0 a1 13 25 39 46 30 85 b7 db af e8 b8 03 98 c9 b8
       0.00015742939 -1.5877315e-05 -0.00011095378 -9.612741e-05
0001e0 0e 33 bd 38 9c b0 ba 38 19 9e d8 b7 1d b5 1e b7
       9.021732e-05 8.902067e-05 -2.5822827e-05 -9.459703e-06
0001f0 03 90 30 b7 09 55 5e 39 45 a7 69 39 f6 61 dd b7
       -1.0523948e-05 0.00021203248 0.00022282924 -2.639087e-05
000200 2f 4d ce 37 30 50 48 b9 2b a6 d9 37 73 82 cb 38
       2.4593055e-05 -0.00019103358 2.5945794e-05 9.7040924e-05
000210 d7 40 d5 b8 18 5d ef b8 e9 e4 4f b8 94 1b 2e b8
       -0.00010168709 -0.00011413748 -4.9565835e-05 -4.1510517e-05
000220 1b 52 4d b9 bf 52 85 38 29 09 f5 38 25 bf 4d 37
       -0.0001958091 6.357347e-05 0.000116842166 1.22634565e-05
000230 94 cb ba b9 a4 9b f4 b9 d3 33 94 38 f1 a2 87 38
       -0.00035628362 -0.00046655268 7.066843e-05 6.467652e-05
000240 64 08 30 39 8e 4a 44 b9 9c 87 f1 38 7e 28 8d 38
       0.00016787794 -0.0001871979 0.00011517035 6.730946e-05
000250 b5 43 1e b9 91 ae 13 38 50 66 21 3a f1 6b 43 b7
       -0.00015093277 3.521011e-05 0.00061569083 -1.1648038e-05
000260 98 3b 04 39 f9 d2 e3 39 1c 9a 14 b9 2f 91 22 b9
       0.00012610701 0.00043454 -0.0001417179 -0.00015503609
000270 3f 74 b6 38 02 f4 63 b7 a2 34 2c b9 49 8a 19 b9
       8.700089e-05 -1.3587067e-05 -0.00016422805 -0.00014642732
000280 89 a6 56 39 dd 49 c0 38 e5 18 5e b8 9c 3f 8b 37
       0.0002047067 9.1690315e-05 -5.295211e-05 1.6599712e-05
000290 4d 44 ab 36 a3 5a e4 b8 61 83 78 38 d9 2c 3b b9
       5.1041484e-06 -0.000108887696 5.9250164e-05 -0.00017850417
0002a0 89 6e 64 b9 2c a6 e1 b8 3c 2e 1b 38 4d 00 33 39
       -0.00021784952 -0.00010759788 3.699794e-05 0.00017070882
0002b0 55 42 3b b9 d6 f3 64 b9 8d 44 2f b8 14 55 2c b9
       -0.0001785842 -0.0002183461 -4.1787094e-05 -0.00016434892
0002c0 9a 32 07 b8 74 88 97 b4 86 22 8a b8 f5 b6 f9 b7
       -3.2233635e-05 -2.8225224e-07 -6.586783e-05 -2.976831e-05
0002d0 77 17 0e 39 9b 15 3c 39 ca a2 c1 b8 03 0c ad b8
       0.00013550917 0.00017937126 -9.233279e-05 -8.25152e-05
0002e0 3d 2e a1 b8 a1 31 b4 b9 53 42 12 b9 27 64 6c b7
       -7.685691e-05 -0.00034369252 -0.00013948353 -1.4090015e-05
0002f0 cd 5f 12 b9 37 39 63 38 b7 f6 b2 b9 76 86 fa 34
       -0.00013959334 5.4174303e-05 -0.00034134623 4.6663962e-07
000300 f8 e6 14 b7 a8 d0 63 b9 bc 53 65 b8 06 0f eb 38
       -8.875264e-06 -0.00021726137 -5.467584e-05 0.000112084716
000310 ef ca b6 38 dc d6 41 38 0c 68 bb 38 18 bd 80 35
       8.7162356e-05 4.621489e-05 8.936235e-05 9.591777e-07
000320 2c c3 20 b8 6b 75 81 b9 f4 46 91 b8 a4 40 cd 38
       -3.832874e-05 -0.0002469228 -6.927355e-05 9.787202e-05
000330 b0 20 11 b9 76 ee 8e 37 a5 b7 b5 38 50 60 ee 37
       -0.00013840455 1.7038761e-05 8.664959e-05 2.841666e-05
000340 b9 63 f1 b7 09 0a d4 b7 5d f9 37 b9 4a 27 29 39
       -2.8775876e-05 -2.5277042e-05 -0.00017545135 0.00016131732
000350 24 9f 97 b8 29 fa 7c b9 44 8f c1 b9 70 8c ad 38
       -7.229883e-05 -0.00024125785 -0.0003691857 8.275441e-05
000360 01 aa b9 37 34 10 39 36 56 b4 18 38 e8 fc 20 37
       2.2132883e-05 2.757658e-06 3.6407575e-05 9.5956275e-06
000370 15 e2 00 b9 1a e9 d6 38 79 f6 86 38 14 c5 8f b8
       -0.00012291253 0.00010247734 6.435527e-05 -6.85548e-05
000380 2a b5 06 b9 99 7e 62 38 5a 19 12 39 c0 b7 b9 b7
       -0.00012846725 5.4000502e-05 0.00013933089 -2.2139284e-05
000390 5d ec 2f b8 d7 b1 91 b8 0e 4b 15 ba ed 47 3c 38
       -4.194338e-05 -6.947264e-05 -0.0005695083 4.488968e-05
0003a0 0d 28 2e b8 6c 55 de b9 2c 46 12 b9 d8 3d ed b9
       -4.1522133e-05 -0.00042406784 -0.00013949786 -0.0004525024
0003b0 ef cf 0e b7 50 2f 95 b7 26 ce 98 b9 85 c7 d3 b8
       -8.512273e-06 -1.7784216e-05 -0.00029145292 -0.000100984274
0003c0 4d 7e 4c b8 a7 4a 73 38 eb 11 69 38 5f 71 72 b7
       -4.8755017e-05 5.800524e-05 5.5568216e-05 -1.445072e-05
0003d0 17 cc fc b6 f4 a0 df 37 bc 16 f6 37 97 29 91 b8
       -7.5339444e-06 2.6658621e-05 2.9336072e-05 -6.9218855e-05
0003e0 e0 f2 48 b8 fe f8 d2 b8 d3 66 af b9 5d cc 37 b9
       -4.790991e-05 -0.00010059959 -0.0003345521 -0.00017528371
0003f0 f1 8a 65 38 89 a9 00 b8 7c 25 e3 36 02 0a 34 39
       5.4727254e-05 -3.067547e-05 6.769491e-06 0.00017169866

exp_avg_sq f4 [128, 5]
000000 55 b9 e8 35 c8 30 19 35 46 35 d6 35 50 ea 57 36
       1.7339286e-06 5.706793e-07 1.5959747e-06 3.2173884e-06
000010 d6 3b 62 35 7f e0 e3 34 5c ef b5 33 1c c0 bd 34
       8.4278633e-07 4.2445387e-07 8.4720085e-08 3.534377e-07
000020 64 21 46 35 1b 1f db 33 dc f4 7b 35 79 11 92 35
       7.380934e-07 1.020364e-07 9.3861104e-07 1.0882933e-06
000030 f3 d4 06 36 3e 95 24 36 32 0b f5 35 4d ed 27 34
       2.0091509e-06 2.4524775e-06 1.8257181e-06 1.5639417e-07
000040 1c 78 a7 33 71 4b 3b 34 7c 45 ab 34 5a 4f ee 33
       7.798391e-08 1.7443178e-07 3.190179e-07 1.10971726e-07
000050 34 7a 52 35 41 06 7a 34 09 79 4b 35 d7 f8 c4 35
       7.8408925e-07 2.328534e-07 7.579952e-07 1.467556e-06
000060 9f 37 d4 34 cd 22 f0 33 7a d9 fd 32 a2 ff 08 34
       3.9528547e-07 1.1182201e-07 2.9551973e-08 1.2758986e-07
000070 c2 32 80 34 d8 a0 18 33 eb 52 d0 36 99 7f d2 35
       2.387879e-07 3.5536544e-08 6.208536e-06 1.5683355e-06
000080 f7 97 af 36 eb cf 32 37 3a e3 0d 36 c7 d9 a8 35
       5.2330975e-06 1.0658036e-05 2.11429e-06 1.2580357e-06
000090 ce c2 37 35 02 2a e8 35 00 3b 34 36 2b 65 a7 35
       6.845629e-07 1.7297573e-06 2.6856433e-06 1.2471913e-06
0000a0 3c 8b 8d 35 c8 27 a2 34 f4 48 ae 35 57 d3 1f 36
       1.0545841e-06 3.0203796e-07 1.2985242e-06 2.3815862e-06
0000b0 5b 69 d5 34 77 8d 50 36 dd b1 82 35 85 4f 4e 36
       3.9750998e-07 3.1076759e-06 9.73752e-07 3.0742679e-06
0000c0 6e a8 ae 36 c3 0b d8 35 7b a5 9c 32 c0 a2 a6 32
       5.205212e-06 1.6096677e-06 1.8236042e-08 1.9398954e-08
0000d0 c1 82 15 33 aa 81 7e 33 d0 40 07 33 cf c4 bb 33
       3.4810686e-08 5.9256912e-08 3.1491084e-08 8.743665e-08
0000e0 ff 3f dc 33 bb ea 5a 34 21 5e 8a 34 40 4a 39 34
       1.0256189e-07 2.0388227e-07 2.577299e-07 1.725648e-07
0000f0 5c 78 3f 35 d5 4a c6 34 75 32 87 35 38 ad d3 35
       7.132819e-07 3.6934821e-07 1.0072969e-06 1.5771138e-06
000100 22 ed 13 35 c7 c9 aa 34 9f 95 ec 33 c3 a0 b4 34
       5.510684e-07 3.181178e-07 1.1016822e-07 3.3644582e-07
000110 18 34 13 35 14 48 2d 34 40 10 c6 34 2d 11 44 34
       5.4837574e-07 1.6138102e-07 3.6892197e-07 1.8260171e-07
000120 c0 32 1b 35 34 1d 83 35 06 00 8b 34 81 21 96 33
       5.781585e-07 9.76876e-07 2.5890785e-07 6.9910136e-08
000130 bd fe a1 33 d5 8b ed 33 44 c6 19 34 0a 55 ce 33
       7.543483e-08 1.1061608e-07 1.4321364e-07 9.608091e-08
000140 c5 9f 4f 34 11 59 9c 33 60 42 5b 34 a0 07 da 34
       1.9336501e-07 7.280517e-08 2.0420111e-07 4.0611212e-07
000150 31 6b ef 33 6f 26 b2 35 49 80 0d 35 35 47 ba 35
       1.1148803e-07 1.3273219e-06 5.271327e-07 1.3878804e-06
000160 b8 06 39 36 b2 48 52 35 8a a3 3a 35 26 48 6e 34
       2.757106e-06 7.833688e-07 6.952838e-07 2.2191725e-07
000170 19 ba 55 35 60 5f c1 35 92 f9 98 34 f6 27 40 34
       7.961949e-07 1.4407378e-06 2.8493793e-07 1.7895931e-07
000180 51 4e d2 33 48 68 8f 34 6e 89 ec 34 1c 94 01 34
       9.793133e-08 2.67117e-07 4.405842e-07 1.2067943e-07
000190 33 2d c7 34 32 85 cf 34 fd c7 5d 35 03 eb 90 35
       3.7099525e-07 3.8653667e-07 8.2619937e-07 1.0797233e-06
0001a0 87 16 3e 35 36 0d 2f 35 e6 03 ea 34 6d 4d 6e 35
       7.08133e-07 6.5211805e-07 4.3588733e-07 8.877458e-07
0001b0 4f 21 e2 35 1f 1b 67 35 2b a7 14 36 ed cc a2 35
       1.6848006e-06 8.609367e-07 2.2151023e-06 1.2129582e-06
0001c0 d3 da 4f 36 40 31 9c 36 2f 33 16 36 6d 90 17 34
       3.0972776e-06 4.6548957e-06 2.2381535e-06 1.4115513e-07
0001d0 11 02 bc 33 2e 8d 50 34 98 af 91 34 4d 1f 0b 34
       8.754808e-08 1.942287e-07 2.7136116e-07 1.2956771e-07
0001e0 20 3e 5b 34 04 b1 b4 33 e5 1f 8c 34 09 32 fa 34
       2.0418565e-07 8.414102e-08 2.6100238e-07 4.6602534e-07
0001f0 16 49 02 34 0f 17 a9 35 5e 4f 01 35 c4 57 ca 35
       1.2133782e-07 1.2598192e-06 4.817174e-07 1.5075716e-06
000200 49 e6 27 36 4a 53 48 35 29 75 4a 34 20 76 3c 34
       2.5018983e-06 7.462701e-07 1.8855339e-07 1.7551838e-07
000210 d4 ae bd 34 ab 0f 0e 35 aa a3 8c 34 a2 47 84 35
       3.5331198e-07 5.292192e-07 2.6196113e-07 9.855614e-07
000220 58 a7 b0 34 02 3c 8f 35 83 75 06 36 b6 3c 00 35
       3.2904313e-07 1.0671795e-06 2.0035957e-06 4.777206e-07
000230 6c 68 ae 36 4a 20 df 35 c2 30 d7 36 00 f4 47 37
       5.1977604e-06 1.6624192e-06 6.4131755e-06 1.1918135e-05
000240 51 f9 24 36 ce d6 16 35 5e ca a4 34 47 b1 44 35
       2.4583026e-06 5.6191936e-07 3.0694622e-07 7.327366e-07
000250 34 02 af 35 8c 21 12 35 1f c0 50 36 16 f5 56 35
       1.3039157e-06 5.4438055e-07 3.1106244e-06 8.007786e-07
000260 b4 3d 39 36 e7 b4 b5 36 bc 88 95 35 52 35 da 34
       2.7603064e-06 5.41528e-06 1.114116e-06 4.064446e-07
000270 9b 45 51 34 ea f0 01 35 3a d5 61 35 35 5e a4 34
       1.9489964e-07 4.840682e-07 8.412932e-07 3.0615925e-07
000280 15 1a 0b 35 5f 43 6d 34 b6 bb 1f 35 37 ff 93 35
       5.181949e-07 2.2096854e-07 5.950527e-07 1.1026631e-06
000290 a8 34 95 34 14 57 a5 33 23 21 4b 34 e7 92 b3 34
       2.7791725e-07 7.699251e-08 1.8917903e-07 3.3448234e-07
0002a0 bb c7 9d 34 0c 7e 0a 35 67 a9 0f 35 c3 9e 13 35
       2.9388852e-07 5.159243e-07 5.3518164e-07 5.4992796e-07
0002b0 d4 b5 93 35 9f 0e be 35 b4 cb 5f 35 01 af 55 34
       1.1005272e-06 1.4160358e-06 8.33704e-07 1.9900837e-07
0002c0 fb 40 8b 33 b8 8e 85 34 0e ed ef 34 0e 2b 9f 33
       6.484512e-08 2.4877022e-07 4.46897e-07 7.411846e-08
0002d0 e5 08 17 35 fa e8 a0 34 78 1b 41 35 6c 02 b1 35
       5.6264827e-07 2.9971835e-07 7.1938075e-07 1.3188233e-06
0002e0 81 11 cd 34 51 e1 bb 35 92 c2 ef 34 ee d8 e0 35
       3.819696e-07 1.3998161e-06 4.4658788e-07 1.6752435e-06
0002f0 f2 fc 4a 36 17 c9 2e 35 d5 26 95 35 c3 bb bd 34
       3.024758e-06 6.5112675e-07 1.1112667e-06 3.5340608e-07
000300 20 44 af 35 f2 01 17 36 fb e9 03 35 8d fc ce 34
       1.3058343e-06 2.2501886e-06 4.914179e-07 3.8554245e-07
000310 b3 f1 07 34 7b bc e7 34 35 9c 3d 35 cd 0d 5d 34
       1.2660784e-07 4.316424e-07 7.06353e-07 2.058725e-07
000320 0d ac 10 36 62 bf 26 35 dc 6a 14 36 34 d1 90 36
       2.1557819e-06 6.211832e-07 2.211592e-06 4.315889e-06
000330 20 fa 81 35 5c 55 4c 34 b6 9d 38 34 59 f2 a0 34
       9.684045e-07 1.9030034e-07 1.719371e-07 2.9978654e-07
000340 9e 78 02 35 1c c4 87 34 3d 89 a9 35 b3 b0 05 35
       4.8604295e-07 2.5288398e-07 1.2631423e-06 4.980349e-07
000350 d2 02 bd 35 db 98 24 36 ce ac 68 35 ef ea 9f 33
       1.4082418e-06 2.4526878e-06 8.66782e-07 7.4467486e-08
000360 da 3b 0f 33 2a b5 a6 33 b4 40 25 34 f6 2b 44 33
       3.3349217e-08 7.762931e-08 1.5390361e-07 4.567479e-08
000370 d6 77 41 34 b8 14 01 34 91 9a 9a 34 4a 0d dd 34
       1.8018122e-07 1.2021599e-07 2.8797197e-07 4.1174127e-07
000380 07 e4 31 34 08 22 af 34 04 01 3a 34 43 45 fa 34
       1.6567365e-07 3.262105e-07 1.732297e-07 4.6616523e-07
000390 b3 7c 42 35 b5 b9 8c 34 aa e0 2f 36 d5 01 44 35
       7.2452093e-07 2.6212152e-07 2.6207804e-06 7.3018356e-07
0003a0 f1 7b 35 36 c8 10 a0 36 ea 62 85 35 df f5 da 35
       2.7043245e-06 4.770325e-06 9.93806e-07 1.6313824e-06
0003b0 ed b0 23 35 15 92 00 36 a2 a6 65 36 77 a7 69 35
       6.097969e-07 1.9158517e-06 3.4220652e-06 8.704296e-07
0003c0 ff 87 f1 33 89 f7 d8 33 67 5e 41 34 76 35 a0 34
       1.12471746e-07 1.010331e-07 1.8008869e-07 2.984122e-07
0003d0 f1 1e 31 34 fc ea e5 33 3b 6e 6e 33 0d 79 24 34
       1.6495666e-07 1.0706387e-07 5.5513947e-08 1.5317728e-07
0003e0 59 2f 9f 34 ed 04 f2 33 81 f9 98 35 30 df 0e 35
       2.9650508e-07 1.1269899e-07 1.1397498e-06 5.32239e-07
0003f0 4f e8 d7 35 2a 4a 3f 36 7d b2 4c 35 62 74 e3 35
       1.6086359e-06 2.8504387e-06 7.6255657e-07 1.694669e-06

exp_avg f4 [128]
000000 a6 15 f6 39 16 02 4a 39 b4 e2 2a ba 2b f4 a8 38
       0.00046936906 0.00019264998 -0.0006518767 8.056344e-05
000010 3a 27 49 b8 8f 64 54 b8 89 31 3b 3a 7b ac ce b9
       -4.7958667e-05 -5.063839e-05 0.0007140865 -0.0003941989
000020 bf f1 ca 38 60 db ab b9 22 1f b4 b7 f7 05 3f b9
       9.677139e-05 -0.0003277911 -2.147217e-05 -0.00018217402
000030 5c 7b 28 b8 20 a9 2d b9 f5 23 83 39 9e a9 86 b9
       -4.016921e-05 -0.0001656157 0.00025013057 -0.00025684846
000040 69 b7 21 b8 95 1e 3f b8 e5 36 71 38 00 3d 52 39
       -3.8556205e-05 -4.556643e-05 5.7510002e-05 0.00020049885
000050 81 c5 48 b9 f4 4e 05 b9 c1 97 e7 b9 52 43 11 b9
       -0.00019147062 -0.00012713281 -0.0004417282 -0.00013853356
000060 d2 13 f5 b8 8a 3b 1c b9 96 92 66 b9 24 02 a4 39
       -0.00011686202 -0.000148995 -0.00021989117 0.00031282112
000070 d8 21 05 3a fe 8e 31 b8 e5 43 b0 39 c1 65 da b8
       0.00050785905 -4.233326e-05 0.0003361992 -0.00010414003
000080 7b 54 fd b8 f4 c0 b7 b9 69 5c e5 b9 06 ac 57 38
       -0.00012079716 -0.0003504824 -0.00043747135 5.1420204e-05
000090 69 a0 63 b9 b8 c4 8d 38 aa a1 e7 b7 ac ff b1 38
       -0.00021708164 6.760046e-05 -2.7612627e-05 8.48764e-05
0000a0 50 ab 66 39 27 56 12 b8 29 3f 7f b9 88 fa 2c b7
       0.00021998328 -3.4889348e-05 -0.00024342224 -1.031033e-05
0000b0 ce ca 93 38 48 5e 2b b9 f3 54 2f b9 6d da 92 b8
       7.0472815e-05 -0.00016342953 -0.00016720947 -7.0025075e-05
0000c0 68 a8 4c 38 2e b0 f2 b8 e8 8f 61 39 5d 6a bf 37
       4.879423e-05 -0.00011572275 0.00021511281 2.2818504e-05
0000d0 7b 01 c1 b9 ab 60 02 37 5a ee 3e b9 bb 5c 2d 39
       -0.00036812932 7.771111e-06 -0.00018208605 0.0001653311
0000e0 b7 0b 49 b9 07 ef a9 b8 43 34 21 39 7b 55 93 b9
       -0.00019173218 -8.10307e-05 0.00015373626 -0.00028101713
0000f0 7e b9 21 b8 97 ce 24 39 e6 14 11 39 84 5d 94 39
       -3.8558144e-05 0.0001571722 0.00013836063 0.00028298434
000100 c8 27 f9 37 ef bc ea b7 90 7a 85 39 e4 f3 28 39
       2.9701638e-05 -2.7982953e-05 0.00025459053 0.00016112585
000110 8e 12 02 b9 d8 7f ce 39 98 92 25 b9 4a 2b 85 39
       -0.00012404678 0.00039386633 -0.00015790237 0.0002539999
000120 a0 7e b8 b8 fe 78 72 38 fd 8f 6a b9 07 cd 37 39
       -8.7973895e-05 5.780998e-05 -0.00022369619 0.00017528619
000130 4e 66 e9 b9 fb 86 89 b9 8c ed ab b9 f5 bd 64 b9
       -0.00044517446 -0.00026231245 -0.00032792648 -0.00021814539
000140 e3 09 17 ba 09 24 b6 b9 5c ea a7 37 49 07 45 b7
       -0.0005761666 -0.00034740593 2.0017083e-05 -1.1743811e-05
000150 24 28 36 b9 fa 5e 7b b9 28 e5 8c b9 0d a9 8f b8
       -0.00017371826 -0.00023972607 -0.00026873616 -6.8502595e-05
000160 cb ae d8 b9 73 9a 2e 39 03 8d 58 b9 a6 eb fd b8
       -0.0004132896 0.0001665147 -0.00020651896 -0.00012107873
000170 4b 98 3b 37 50 14 93 39 05 c6 b6 39 4b 80 b8 b9
       1.1181527e-05 0.0002805316 0.0003486128 -0.000351908
000180 d4 3b 3b b8 63 7d 80 b9 d2 4a 98 39 05 23 55 b9
       -4.4639994e-05 -0.00024507483 0.00029047445 -0.00020326309
000190 63 b3 4b b9 fc 71 ae 38 37 d5 12 b9 28 9e 00 ba
       -0.00019426415 8.318198e-05 -0.00014003074 -0.00049063796
0001a0 ed 0a 1d b9 3b 55 8f 39 cb bd 16 b9 38 74 f9 38
       -0.00014976757 0.00027338587 -0.00014375818 0.00011894893
0001b0 7c ca 13 ba 4f 3d 97 38 9e 45 00 b9 62 51 ca b9
       -0.00056377775 7.211661e-05 -0.00012232966 -0.00038589077
0001c0 1e 1e ff b9 5c b9 96 b8 8b ec 3d b8 5e a2 18 39
       -0.0004865983 -7.187083e-05 -4.528141e-05 0.00014556336
0001d0 4b e0 0a b9 c0 4e 98 36 74 65 5e b9 9a 20 25 b9
       -0.00013244261 4.5391207e-06 -0.00021209364 -0.00015747771
0001e0 e6 02 e2 b8 66 d0 84 b8 d5 2b fb b8 66 d1 99 39
       -0.0001077706 -6.333068e-05 -0.00011976777 0.00029338448
0001f0 ea c5 2a b9 be 26 0a 3a e0 a1 ba b8 89 5c b8 39
       -0.00016286192 0.0005270055 -8.899323e-05 0.0003516416
