Simulator/results/test_training/My Behavior/My Behavior-60545.onnx (onnx, 72132 bytes, 7 tensors)

network_body._body_endoder.seq_layers.0.weight f4 [128, 5]
0	0x3e3e7c2e	0.18602058
1	0xbdae491b	-0.085100375
2	0xbf3363bf	-0.70074075
3	0x3ed31ae1	0.41231444
4	0xbeaed730	-0.3414855
5	0x3f058e96	0.52170694
6	0xbd2d601e	-0.042327993
7	0xbf53501c	-0.8254411
8	0x3e9c603c	0.3054217
9	0x3d0713a6	0.032977723
10	0xbf4bdacf	-0.7963075
11	0xbe42d6d1	-0.19027258
12	0x3ce6fe78	0.028197512
13	0xbc0d2d43	-0.008616748
14	0x3edd068a	0.4316905
15	0x3eba4a3d	0.36384764
16	0x3e8578e2	0.2606879
17	0xbd543ebd	-0.051817644
18	0x3d760c03	0.06007005
19	0xbf5a2d66	-0.8522552
20	0x3f1de620	0.6167927
21	0x3f0949c0	0.5362816
22	0x3c4d7920	0.0125410855
23	0xbe01d36d	-0.12678309
24	0xbf0cbd31	-0.54976183
25	0x3f8b8bb9	1.0902015
26	0x3c4d86c7	0.01254434
27	0x3e63ce20	0.22246599
28	0xbd0761a3	-0.033052098
29	0x3e59242a	0.21205202
30	0x3f195414	0.5989392
31	0xbf2a6fdc	-0.66576934
32	0xbf758c2c	-0.9591701
33	0x3f6213fe	0.88311756
34	0xbf20df39	-0.6284061
35	0x3ef0469e	0.46928877
36	0xbf4012b7	-0.75028557
37	0xbef19877	-0.47186634
38	0xbf005cbf	-0.5014152
39	0x3f2a3574	0.66487813
40	0x3f3cce01	0.73751837
41	0x3e23a3ec	0.159805
42	0x3eaccbb5	0.33749166
43	0xbd3a6845	-0.045509595
44	0xbd71c6ec	-0.059027597
45	0x3f1ee194	0.62062955
46	0x3f4d2f5b	0.80150384
47	0x3e3aef5f	0.18255375
48	0xbe54696a	-0.20743337
49	0x3f4515a1	0.7698613
50	0xbebb6842	-0.3660298
51	0x3e82471a	0.2544487
52	0xbefa0bda	-0.48837167
53	0x3e9499be	0.29023546
54	0xbe640bc1	-0.22270109
55	0xbe965414	-0.29361022
56	0x3d5bf7bb	0.05370305
57	0xbe64ea03	-0.22354893
58	0xbf1c7f02	-0.611313
59	0x3e800f7a	0.25011808
60	0xbd6479de	-0.055780284
61	0x3e91426e	0.28370994
62	0x3f0c9422	0.5491353
63	0xbec47cfb	-0.38376603
64	0xbec70c10	-0.3887639
65	0x3ef65d06	0.48117846
66	0xbcf84aed	-0.030309165
67	0x3eb26541	0.34842876
68	0xbdbb5af7	-0.091482095
69	0x3f295042	0.6613809
70	0x3cc587e0	0.024112642
71	0xbe81205c	-0.2522
72	0x3f38ece9	0.72236496
73	0x3cf7d5ff	0.030253408
74	0x3d865462	0.065590635
75	0xbeff1e7c	-0.49827945
76	0xbdf5fb56	-0.12010829
77	0xbebc52ab	-0.3678182
78	0xbf120a7e	-0.5704726
79	0xbde147a5	-0.10999993
80	0x3e93cf9d	0.28869334
81	0x3df93cdd	0.12169812
82	0xbea82029	-0.32837036
83	0xbea25779	-0.3170736
84	0xbe9cb473	-0.30606422
85	0x3dc64d3c	0.096827
86	0xbeea6bb3	-0.45785293
87	0xbf1ed1ba	-0.6203877
88	0x3b25d095	0.0025301327
89	0xbf3d9ff3	-0.7407219
90	0x3e7b6d42	0.24553397
91	0x3f11a9c8	0.5689969
92	0x3e840da2	0.2579165
93	0xbc34856b	-0.011018137
94	0xbf0f1a1c	-0.55899215
95	0xbbf393c7	-0.007433388
96	0x3d08fb31	0.03344268
97	0x3f08b87c	0.534065
98	0x3e600c92	0.21879795
99	0xbee2aaad	-0.4427084
100	0xbe0c8972	-0.13724306
101	0x3f1ff165	0.62477714
102	0x3ed55289	0.41664532
103	0xbf281b5c	-0.6566675
104	0x3ed80f7e	0.4219932
105	0x3d95dea8	0.07317859
106	0xbdc09bff	-0.09404754
107	0xbf0760cc	-0.52882075
108	0x3c394e82	0.011310222
109	0xbfacfbd5	-1.3514353
110	0x3ed77f89	0.4208949
111	0xbf2793a4	-0.65459657
112	0xbeaf9bb8	-0.3429849
113	0xbefd8e29	-0.49522522
114	0x3f2603cf	0.6484956
115	0xbd35f995	-0.044427473
116	0x3c9fa544	0.019487984
117	0x3f2a7336	0.6658205
118	0xbe8f5960	-0.27997875
119	0xbdb16532	-0.086618796
120	0x3e5cb13a	0.21551982
121	0x3da7876f	0.08180129
122	0xbd1557d1	-0.0364607
123	0xbf14f337	-0.58183616
124	0xbde1e344	-0.110296756
125	0x3ecbc79a	0.3980072
126	0xbe580936	-0.21097264
127	0x3e21897f	0.15775107
128	0xbe2299cc	-0.15878981
129	0x3ebc0c97	0.36728355
130	0xbe03affb	-0.128601
131	0xbeb19f49	-0.34691837
132	0xbf19a37b	-0.60015076
133	0xbea6a12e	-0.32544845
134	0x3e5cb3ad	0.21552916
135	0x3e8abd78	0.27097678
136	0xbe291f37	-0.16515814
137	0xbe1c2666	-0.15249023
138	0x3e952ba9	0.29134873
139	0xbd9ef570	-0.07761657
140	0x3f1f9b71	0.6234656
141	0xbeabad2c	-0.33530557
142	0x3ec4e902	0.3845902
143	0x3f606af4	0.876632
144	0xbc8da813	-0.017292058
145	0x3cdb760f	0.026789693
146	0x3f75bf71	0.9599524
147	0x3e1941e1	0.14966537
148	0x3dfd860d	0.12379084
149	0xbf3982bd	-0.72465116
150	0x3f03d0b3	0.51490325
151	0xbe32d257	-0.17463051
152	0xbea17949	-0.31537846
153	0x3d7e45cc	0.062078282
154	0xbec77d7d	-0.38962927
155	0x3dab24be	0.083566174
156	0x3f1592be	0.58427036
157	0xbea84c3d	-0.32870665
158	0xbcf0deae	-0.029403057
159	0x3eaeb5e1	0.34123138
160	0x3e06f983	0.13181119
161	0xbea6161a	-0.32438737
162	0xbf15b01c	-0.58471847
163	0xbe18fe29	-0.14940704
164	0xbe30422a	-0.1721274
165	0xbec3f1b3	-0.3827034
166	0xbdbc7e50	-0.0920378
167	0xbeb3d2f7	-0.3512189
168	0xbf7df8ef	-0.9920797
169	0x3f8c7228	1.0972338
170	0xbef0c8bf	-0.47028157
171	0xbef3e2e1	-0.47634032
172	0x3e802465	0.25027767
173	0xbe9dfd3a	-0.3085726
174	0x3e0f695c	0.14005035
175	0xbe5c26fe	-0.2149925
176	0x3e341b8a	0.1758863
177	0x3f9b8de1	1.2152673
178	0x3e935adc	0.28780258
179	0xbf80cb0e	-1.0061967
180	0x3d5eab48	0.054362565
181	0xbf08b41a	-0.53399813
182	0xbf581a5d	-0.8441523
183	0x3e130863	0.14358668
184	0x3d89dcc3	0.0673156
185	0x3e969d2f	0.29416797
186	0x3ed435c9	0.41447285
187	0x3ec9fb99	0.39449766
188	0x3ea343da	0.31887704
189	0x3dfa148a	0.12210949
190	0x3e6a5ae5	0.22886236
191	0x3e3a02c2	0.18165115
192	0x3e479217	0.19489323
193	0xbd52f7b9	-0.051505778
194	0x3edfe58f	0.43729827
195	0x3f425380	0.7590866
196	0xbe824057	-0.25439712
197	0x3b8f6ed9	0.0043772277
198	0xbd40acbc	-0.047039732
199	0x3f6aeda8	0.91768885
200	0x3ee618dc	0.4494084
201	0xbd900247	-0.07031684
202	0x3de0d535	0.10978166
203	0x3e850841	0.2598286
204	0xbf993e26	-1.1972091
205	0x3d6654e5	0.056233305
206	0x3f17477d	0.5909346
207	0xbe39a921	-0.18130924
208	0xbe9946dc	-0.29936874
209	0xbcb0bdcb	-0.021574875
210	0x3ea83d7a	0.32859403
211	0x3f212486	0.62946355
212	0xbe805fc0	-0.2507305
213	0xbe416f4d	-0.18890114
214	0x3f258bd3	0.6466648
215	0x3e88f9e0	0.2675314
216	0x3e9b1089	0.30286053
217	0xbf0362ba	-0.5132252
218	0xbf06aee5	-0.5261062
219	0xbe8f5138	-0.27991652
220	0xbf1f819f	-0.6230716
221	0x3ef60836	0.4805314
222	0x3f8f5106	1.1196601
223	0x3e02f3e0	0.12788343
224	0xbc87e295	-0.016587535
225	0x3ea0bc3d	0.31393614
226	0x3e304c1e	0.17216536
227	0x3ea64692	0.32475716
228	0xbf49f09e	-0.7888278
229	0xbd1503e7	-0.036380675
230	0x3f1f1276	0.62137544
231	0x3ef2862d	0.47367993
232	0x3e89336d	0.26797047
233	0xbd9c49da	-0.076312736
234	0x3ec2b141	0.3802586
235	0xbdd40fe9	-0.10354597
236	0x3f049de2	0.5180341
237	0xbe42f02d	-0.19036932
238	0x3e5b14b4	0.21394616
239	0x3e4af0c8	0.19818413
240	0xbe2ee26c	-0.1707856
241	0x3f04e864	0.519171
242	0xbeddd51e	-0.43326658
243	0x3e5d37f2	0.21603373
244	0xbecc52df	-0.39906976
245	0x3d742003	0.05960084
246	0x3f1a87cd	0.60363466
247	0xbf690f0a	-0.9103857
248	0xbd1c8c4a	-0.038219728
249	0x3f0a73f7	0.540832
250	0xbf3edd0c	-0.7455604
251	0x3ee168e4	0.44025338
252	0xbdce02fc	-0.10059163
253	0x3f2feafa	0.6871792
254	0x3e392d9b	0.18083803
255	0xbe24c1de	-0.1608958

network_body._body_endoder.seq_layers.0.bias f4 [128]
0	0xbc053adf	-0.008131712
1	0x3bc08910	0.005875714
2	0x3c318134	0.010834027
3	0xbbd4048b	-0.006470268
4	0x3c06f6bd	0.008237538
5	0xbbd3a2c2	-0.006458611
6	0x3c3f16de	0.011663167
7	0xbc1b82f0	-0.009491667
8	0xbb964b85	-0.0045866393
9	0x3c076b6c	0.008265357
10	0xbc33d581	-0.010976196
11	0x3c059624	0.008153472
12	0x3c65dce4	0.014029715
13	0x3c04e30a	0.008110771
14	0x3b85598c	0.0040695127
15	0x3c25c389	0.01011742
16	0xbc348a54	-0.011019308
17	0x3aaf19d0	0.0013359133
18	0x3b9f25ee	0.0048568165
19	0x3c3cbb93	0.011519331
20	0xbc4d02c6	-0.012512868
21	0x3bc26e17	0.005933534
22	0xbb864c76	-0.0040984703
23	0x3c3603c9	0.011109301
24	0xbbe64052	-0.0070267105
25	0x3bfaf8e2	0.0076590637
26	0x3bc10877	0.0058909017
27	0x3c11569b	0.008870746
28	0xbb488b1a	-0.003060049
29	0x3c02f339	0.007992559
30	0x3c6e6740	0.014550984
31	0xbc11d83f	-0.008901655
32	0x3c64dc52	0.013968544
33	0x3b906d29	0.004407544
34	0xbbccb345	-0.0062469565
35	0x3c34c989	0.011034378
36	0xbc2b0070	-0.010437116
37	0xbc51e1c9	-0.012810179
38	0xbb573285	-0.0032836508
39	0xbb7b3f58	-0.0038337316
40	0x3b75f9df	0.0037532968
41	0xbc024b72	-0.007952558
42	0xbbdecd74	-0.0067993943
43	0xbc072f9f	-0.0082511
44	0x3c17db66	0.009268617
45	0xbc2948ad	-0.010332269
46	0x3c698d40	0.014254868
47	0x3c35da4b	0.011099408
48	0xbc678e91	-0.014133112
49	0xbaad4cbf	-0.0013221725
50	0x3b3f219c	0.002916432
51	0x3bc31a67	0.005954075
52	0x3c119d12	0.008887546
53	0xbc37b4be	-0.011212526
54	0xbb32abc1	-0.0027263018
55	0x3bb97079	0.0056591597
56	0x3bf1c8e9	0.0073786867
57	0xbbd37b9e	-0.0064539453
58	0x3bfa4ea8	0.007638771
59	0xbb455cba	-0.0030115084
60	0xbbe025c7	-0.006840441
61	0x3c317b84	0.010832671
62	0xbad939d4	-0.001657302
63	0xbbca04cc	-0.0061651226
64	0x3b0f7f3b	0.0021895904
65	0x3be4873d	0.0069741295
66	0xbc66bc65	-0.014083003
67	0xbc2510f1	-0.01007484
68	0x3c96024e	0.018311646
69	0x3bc7c52e	0.0060965037
70	0x3c7f42fd	0.015579936
71	0xbb0e32d5	-0.0021697779
72	0xbc11a43e	-0.008889256
73	0x3ab104ef	0.0013505499
74	0x3bfda333	0.007740402
75	0xbc1a848d	-0.009431017
76	0x3c38b37e	0.011273263
77	0xbb09507b	-0.002095251
78	0xb7add998	-2.0724532e-05
79	0x3c6663a9	0.014061847
80	0x36bc11c0	5.604903e-06
81	0x3cb1d644	0.021708615
82	0x3bcd236c	0.006260326
83	0xbc1eef2f	-0.0097005805
84	0xbb8414b2	-0.0040307874
85	0xbc3b6bc3	-0.011439267
86	0x3b245cfd	0.002507984
87	0x3c1e67d3	0.009668308
88	0xbb952e9b	-0.004552675
89	0x3abdc138	0.0014477139
90	0xbc1d0ce7	-0.009585596
91	0x3bf0a1b9	0.0073434976
92	0x3bb0e966	0.005398917
93	0x3c34d410	0.011036888
94	0x3b301b42	0.0026871716
95	0xbb977146	-0.0046216575
96	0xbbe9d091	-0.0071354588
97	0x3c51690f	0.012781396
98	0x3bf68ada	0.0075238766
99	0xbc25a1f3	-0.0101094125
100	0xbc4d2992	-0.012522118
101	0x3c2c8502	0.010529758
102	0xbc1d8321	-0.009613783
103	0x3a913274	0.0011077658
104	0x3bcc63b7	0.006237473
105	0xbaf4d7e9	-0.0018680069
106	0x3c11cd3e	0.008899031
107	0xbbf81986	-0.007571402
108	0x37e1ede6	2.693287e-05
109	0x3c0ce33e	0.008599101
110	0x3c241c40	0.010016501
111	0x3c20681b	0.009790446
112	0xbc1d7af4	-0.009611834
113	0x3c1d56c3	0.009603205
114	0xbc2be091	-0.0104905525
115	0x3bbcae87	0.00575811
116	0x3c455286	0.012043601
117	0x3c4701f1	0.012146459
118	0xba86cfa1	-0.0010285267
119	0xbc38c159	-0.011276566
120	0xbb3197c6	-0.002709852
121	0xbc2e8d07	-0.010653741
122	0x3c45def8	0.012077086
123	0xba938379	-0.0011254392
124	0x39ff1441	0.0004865248
125	0xbbdc15b1	-0.006716453
126	0x3c2ba2f4	0.010475863
127	0xbade5f8f	-0.0016965735

network_body._body_endoder.seq_layers.2.weight f4 [128, 128]
0	0xbdc24ac7	-0.09486919
1	0x3e42fb2a	0.19041124
2	0x3c30944d	0.010777545
3	0x3d0a910b	0.03382973
4	0x3daa1b94	0.08306041
5	0xbdb8e3fb	-0.09027859
6	0xbd8fd528	-0.07023078
7	0x3dfe711e	0.12423919
8	0x3e0b452d	0.13600607
9	0x3e1c3028	0.15252745
10	0x3dddd3bb	0.108314
11	0x3c5cf70e	0.013486637
12	0x3dca9324	0.09891346
13	0x3d47f512	0.0488177
14	0x3e683c3a	0.22679225
15	0x3df2c50d	0.11853991
16	0xbc9c58d6	-0.019085329
17	0x3dec2d62	0.115320936
18	0xbcf3dbb8	-0.029767856
19	0xbc855537	-0.016275985
20	0xbe046867	-0.12930451
21	0x3c5a626d	0.013329131
22	0xbe4b6ed7	-0.19866501
23	0x3db488a5	0.088151254
24	0x3e0ced71	0.13762452
25	0xbd3cc185	-0.046082992
26	0xbc375416	-0.011189481
27	0x3d22b0b0	0.039719284
28	0x3d5f7e3b	0.054563742
29	0x3dec9c29	0.11553223
30	0xbdd1908c	-0.10232648
31	0x3d5b05ce	0.053472333
32	0x3d999fff	0.0750122
33	0xbe1148cd	-0.14187928
34	0xbddaaac6	-0.10677104
35	0xbdabd828	-0.08390838
36	0xbd86bf72	-0.06579484
37	0x3bf2b96c	0.007407358
38	0x3c8fdee6	0.017562341
39	0xbc6e7748	-0.014554806
40	0x3e569049	0.20953478
41	0x38cc248c	9.7342854e-05
42	0xbd311c4d	-0.04323988
43	0x3d6579bf	0.05602431
44	0x3c1713d8	0.00922104
45	0xbcf3db14	-0.02976755
46	0x3c7f8bbb	0.015597279
47	0xbcf3e520	-0.029772341
48	0x3d97c16a	0.07409938
49	0xbc9a65f5	-0.018847445
50	0xbd9a2094	-0.07525745
51	0xbd39b33c	-0.045336947
52	0xbc41b9df	-0.0118241
53	0xbdbfba07	-0.09361654
54	0x3d15eca7	0.036602642
55	0x3bb43a6b	0.005500128
56	0x3d0bb17e	0.034104817
57	0xbe18ec7b	-0.1493396
58	0x3e1fca3c	0.1560449
59	0xbd42fad9	-0.04760251
60	0xbdee7d68	-0.11645013
61	0x3e0255cc	0.12728041
62	0xbdef1196	-0.11673276
63	0xbd0bcc54	-0.03413041
64	0xbcd72b17	-0.026265664
65	0x3d09f561	0.033681277
66	0x3c8ff837	0.017574413
67	0xbb1f9eab	-0.0024356048
68	0x3dc6ddf1	0.09710301
69	0xbd604ce0	-0.054760814
70	0x3cc114af	0.023569433
71	0x3d9a9778	0.075484216
72	0xbc3d9be3	-0.011572811
73	0x3cfafa9b	0.030637076
74	0xbe85d8f0	-0.26142073
75	0x3ca6601b	0.020309499
76	0xbbcadb7e	-0.0061907163
77	0xbd048700	-0.03235531
78	0xbdacc3c9	-0.084357806
79	0xbc2a0a09	-0.010378369
80	0x3b251ed5	0.002519538
81	0x3c58a9bc	0.013224062
82	0x3cc91afb	0.024548998
83	0x3d23afe8	0.03996268
84	0xbce3b93d	-0.02779829
85	0x3b1365ef	0.0022491177
86	0xbc9df079	-0.019279705
87	0xbe6498fc	-0.22323984
88	0x3b456542	0.0030120169
89	0xbd99f0bb	-0.07516619
90	0x3e383088	0.17987263
91	0xbdd1ece0	-0.102502584
92	0xbbc7a012	-0.00609208
93	0x3da20c24	0.07912472
94	0x3d2789b7	0.04090282
95	0xbb99924e	-0.0046866303
96	0x3d6367ba	0.055518843
97	0x3cedb698	0.029017732
98	0x3d52f8a5	0.051506657
99	0xbb65fd56	-0.0035093627
100	0xbd5734d1	-0.052540604
101	0xbde53469	-0.11191637
102	0x3dbf3e97	0.0933811
103	0xbe32bd17	-0.17454945
104	0x3e18b89f	0.14914177
105	0xbd20a56c	-0.03922026
106	0xbd2d38c5	-0.042290468
107	0x3da9e3fe	0.08295439
108	0x3d8a5398	0.067542255
109	0xbda852b3	-0.082188986
110	0x3c9f79a4	0.019467182
111	0x3e0fc394	0.14039451
112	0x3c6e0f94	0.014530081
113	0xbd80dc07	-0.06291967
114	0xbd0f5a71	-0.03499836
115	0x3dd7ebe4	0.105430394
116	0xbe12f6fc	-0.1435203
117	0x3e496a01	0.19669344
118	0x3d63047c	0.0554242
119	0x3e537762	0.2065101
120	0x3dac0fb7	0.08401435
121	0xbcd64569	-0.026156144
122	0x3b8f65ed	0.004376164
123	0x3e32bad7	0.17454086
124	0xbd497c88	-0.049191028
125	0x3cb2650f	0.021776704
126	0xbd410951	-0.047128025
127	0x3c16ef82	0.009212377
128	0xbd26cbe0	-0.040721774
129	0x3cc91790	0.024547368
130	0x3d5c2c3d	0.053753126
131	0x3e12751a	0.14302483
132	0xbe37316f	-0.17889951
133	0xbd27c630	-0.04096049
134	0x38952148	7.111073e-05
135	0x3c48744a	0.012234757
136	0x3cb20b13	0.021733796
137	0x3c7c5d48	0.015403099
138	0x3e10aa8a	0.14127555
139	0x3debba9c	0.11510202
140	0xbe095969	-0.13413014
141	0x3d99e8a4	0.07515076
142	0x3caedd97	0.021345897
143	0x3d21b2ea	0.039477266
144	0x3d65d222	0.0561086
145	0x3e26d3d7	0.16291748
146	0x3e16c920	0.1472516
147	0x3e42af8c	0.19012278
148	0xbd1471a5	-0.036241192
149	0xbd1ebc07	-0.038753536
150	0xbd973133	-0.07382431
151	0xbdc9e144	-0.09857419
152	0xbd208a20	-0.039194226
153	0x3dd630a9	0.104585
154	0xbe286a8f	-0.16446899
155	0x3dbf88f8	0.093522966
156	0x3c62a76e	0.013833864
157	0xbd499974	-0.04921861
158	0xbd5828d6	-0.05277332
159	0x3d256d5e	0.040387504
160	0xbb8766bc	-0.00413212
161	0x3dae9528	0.08524543
162	0x3e5fc333	0.21851806
163	0x3dae45ad	0.08509383
164	0x3cd25469	0.025675016
165	0xbdebf3ff	-0.11521148
166	0x3dfc6540	0.123239994
167	0x3e4c0362	0.19923165
168	0xbddaa0d3	-0.10675206
169	0xbe6cca56	-0.2312406
170	0xbd8cee94	-0.06881443
171	0x3c9ae7fa	0.018909443
172	0x3da250c3	0.0792556
173	0x3df4e8fd	0.119585015
174	0xbbcd369b	-0.006262613
175	0x3df12f15	0.11776558
176	0xbd425f5f	-0.047454234
177	0xbdbf6103	-0.093446754
178	0x3dcd37f7	0.1002044
179	0x3db5da5f	0.088795416
180	0xbd4a0002	-0.049316414
181	0xbea81361	-0.32827285
182	0x3d1c40cb	0.03814773
183	0xbdd49608	-0.10380179
184	0xbcd1d632	-0.025614832
185	0x3d028479	0.031864617
186	0xbd4e5a6c	-0.0503792
187	0xbdb69589	-0.0891524
188	0x3d4538ce	0.048149876
189	0x3dce3bbf	0.100699894
190	0xbd9e0cdd	-0.07717297
191	0xbe134d8f	-0.14385055
192	0xbda41b88	-0.08013064
193	0x3cacce5f	0.0210945
194	0xbd6337b9	-0.055473063
195	0xbd9acdfb	-0.07558819
196	0x3e340005	0.17578132
197	0x3dff569c	0.12467691
198	0xbda70edc	-0.08157131
199	0xbd076c25	-0.03306212
200	0xbcc1f864	-0.023678012
201	0xbbc0a34e	-0.0058788424
202	0x3aa9d0d6	0.0012955915
203	0xbd2a98ab	-0.0416495
204	0x3d8afd1d	0.06786559
205	0x3d286f9c	0.041122064
206	0x3d4fd280	0.050737858
207	0xbe2a20ba	-0.16614047
208	0x3deb30bf	0.11483907
209	0x3d3a0e2d	0.045423675
210	0x3d426bb2	0.047465988
211	0x3c5cd2e0	0.013478011
212	0xbd2de023	-0.04245008
213	0xbb5684af	-0.0032732894
214	0x3dd60170	0.10449493
215	0xbc6fb37c	-0.014630195
216	0xbd81c4df	-0.06336378
217	0xbd5ab36c	-0.053393766
218	0x3d689710	0.05678469
219	0xbcbd9ecb	-0.023147007
220	0xbd669489	-0.056293998
221	0xbd2dd881	-0.042442802
222	0x3df58ea9	0.11990101
223	0x3e6f9b33	0.23399048
224	0x3ce2091d	0.027592236
225	0xbc1f15dd	-0.009709802
226	0x3b2feefd	0.002684533
227	0x3d9c25b4	0.07624379
228	0xbd973799	-0.07383651
229	0xbb46de04	-0.0030344734
230	0x3ce3805a	0.027771164
231	0x3cab2a9e	0.020894345
232	0x3dd55658	0.104168594
233	0xbcfa589b	-0.030559829
234	0x3e0bc3bf	0.1364889
235	0x3cf16e9d	0.02947169
236	0x3da40ddb	0.08010455
237	0xbd931252	-0.07181229
238	0xbe2bf230	-0.16791606
239	0xbd7944f0	-0.06085676
240	0xbdc734b2	-0.09726848
241	0xbd146b6a	-0.03623525
242	0x3d01707b	0.03160141
243	0xbd0f9c35	-0.03506108
244	0x3df53334	0.11972657
245	0xbbc0ca27	-0.0058834734
246	0xbdac2ea1	-0.08407331
247	0xbcc10d70	-0.023565978
248	0xbdcc01ba	-0.09961267
249	0x3ce30fc2	0.027717475
250	0x3e0b9e00	0.13634491
251	0x3dd8f8e0	0.10594344
252	0xbcd1527e	-0.02555203
253	0x3d89bf8e	0.06725989
254	0xbd0950ea	-0.03352443
255	0x3de5f802	0.11228944

network_body._body_endoder.seq_layers.2.bias f4 [128]
0	0xbaac04bb	-0.0013123968
1	0xbbb9956f	-0.005663566
2	0x3c3fa1bd	0.011696276
3	0xbbd61fc1	-0.006534547
4	0x3b5fc220	0.0034142807
5	0x3c3227cb	0.010873745
6	0x3bbc29b4	0.005742276
7	0xbc0b4977	-0.008501402
8	0xbb1e06e7	-0.0024113
9	0x3b9474d7	0.00453053
10	0x3c33b438	0.0109682605
11	0xbc1a1354	-0.009404022
12	0xbc181632	-0.0092826355
13	0x3c199abe	0.009375272
14	0xbbf780d6	-0.0075532002
15	0xbc46a750	-0.012124851
16	0x3c2e793b	0.010649021
17	0x3c36da1a	0.011160398
18	0xbbb60bcf	-0.005555607
19	0xbc07fac4	-0.008299533
20	0x3bb95732	0.0056561464
21	0xbc06f859	-0.008237922
22	0x3b1f7c88	0.00243357
23	0x3c233ec6	0.009963697
24	0x3b82bde9	0.003989924
25	0x3bf99729	0.0076168966
26	0xbbc5dc3f	-0.0060382183
27	0x3c5411a6	0.012943661
28	0xbc20b001	-0.009807588
29	0x3c0472c8	0.008084007
30	0xbbf41e94	-0.0074499343
31	0x3c2c0430	0.010499045
32	0xbc38bce8	-0.0112755075
33	0xbbd1ae3d	-0.0063989446
34	0x3b06c171	0.0020562077
35	0xbb82b10d	-0.0039883913
36	0xbc4a59fa	-0.012350554
37	0x3b327912	0.0027232808
38	0xbb914563	-0.0044333204
39	0xbb0ae9f0	-0.0021196567
40	0xbc36353c	-0.0111210905
41	0x3b3e0bc0	0.0028998703
42	0x3c5235b9	0.012830191
43	0x3c38c376	0.01127707
44	0xbc211619	-0.009831929
45	0x3c1e0ce6	0.00964663
46	0xbbc151fb	-0.0058996654
47	0xbc32ef17	-0.010921261
48	0xbc33aa03	-0.010965827
49	0xbc1cc55f	-0.009568541
50	0x3c4875e2	0.012235137
51	0x3b83c963	0.00402181
52	0xbc378475	-0.011201014
53	0xbc1396df	-0.009008138
54	0x3c467876	0.012113681
55	0x3c06664e	0.008203102
56	0x3c27f22c	0.010250609
57	0xbc0dd4b7	-0.008656672
58	0x3beff293	0.0073226183
59	0x3a151f57	0.0005688569
60	0x3ba8a001	0.005146027
61	0xbb4b997a	-0.003106682
62	0x3be81efd	0.007083772
63	0xbc2950c1	-0.010334195
64	0xbc26f51a	-0.010190273
65	0xbc138048	-0.009002753
66	0x3bc41d7a	0.005984959
67	0xbc2dbe0a	-0.010604391
68	0x3c1e0027	0.009643591
69	0xbc299879	-0.010351294
70	0x3c343360	0.010998577
71	0x3c2bf611	0.0104956785
72	0xbc0d01bb	-0.00860637
73	0x3c06ced8	0.008228026
74	0x3c2e7887	0.010648853
75	0xbc2b4cc2	-0.010455312
76	0xbaf80d85	-0.0018924928
77	0xba967e81	-0.0011481793
78	0xbb56c20d	-0.0032769472
79	0x3c21d699	0.009877824
80	0x3c248a5b	0.010042752
81	0x3c3ce822	0.011529954
82	0x3c1619d3	0.00916143
83	0x3b4bf384	0.0031120488
84	0x3c49697f	0.012293219
85	0xbc1c87b7	-0.009553841
86	0xbbbda8dd	-0.0057879523
87	0x3b0caf7a	0.0021466897
88	0xb88a00cb	-6.5805005e-05
89	0xbc3936ff	-0.011304616
90	0x3c28d911	0.010305659
91	0x3bd39ae9	0.0064576757
92	0x3c2f2bf0	0.010691628
93	0x3c3dadcb	0.01157708
94	0xbb96e07b	-0.004604397
95	0xbc2387b2	-0.009981083
96	0xbb145fbc	-0.002264007
97	0x3b64f18c	0.0034934012
98	0x3c4717bc	0.012151655
99	0x3c111c9c	0.008856919
100	0xbb2115f8	-0.0024579745
101	0xbbf19d31	-0.007373475
102	0xbc144c62	-0.009051414
103	0x3c4dee61	0.012569041
104	0x3a4da4aa	0.0007844666
105	0x3bec1467	0.0072045806
106	0x3c2ef0b3	0.010677504
107	0x3c1f4c0b	0.00972272
108	0xbaf6a91a	-0.0018818707
109	0x3b23d9e5	0.0025001701
110	0xbc24123c	-0.010014113
111	0xbbb57732	-0.005537891
112	0xbbbae19d	-0.0057031647
113	0xbc08ac0a	-0.008341799
114	0x3bad9e55	0.0052984157
115	0xbb8a6319	-0.004223239
116	0x3c14bb1c	0.0090778135
117	0xbbb20367	-0.0054325345
118	0x3bbf9d13	0.005847582
119	0xbc1fc61d	-0.009751824
120	0x3b4ed3f0	0.003155943
121	0x3bf949db	0.007607681
122	0x3c0056a6	0.007833159
123	0xbbf9ef82	-0.0076274285
124	0xbc13c804	-0.009019855
125	0x3b6db5df	0.0036271734
126	0x3c190851	0.009340362
127	0xb9f43444	-0.00046578248

action_model._continuous_distribution.log_sigma f4 [1, 2]
0	0xbc0bf974	-0.008543361
1	0xbca171db	-0.01970761

action_model._continuous_distribution.mu.weight f4 [2, 128]
0	0xbcb3020d	-0.021851564
1	0x3d2ebf9c	0.0426632
2	0xbb103c14	-0.0022008466
3	0x3d0bade9	0.0341014
4	0x3cf37691	0.029719623
5	0x3cec32eb	0.028832873
6	0xbd4ad4d1	-0.049519364
7	0xbc4afea5	-0.012389814
8	0xbceefc40	-0.029173017
9	0x3c816cee	0.015799012
10	0xbc109d2d	-0.008826536
11	0x39443cd8	0.00018714683
12	0x3c82383e	0.015895959
13	0xbb4f6209	-0.0031644127
14	0xba8553fe	-0.0010172126
15	0xba2a191a	-0.0006488726
16	0xbc948d58	-0.018133804
17	0x3bc47873	0.005995804
18	0x373151cc	1.0569067e-05
19	0xbc3f779c	-0.011686232
20	0xbcf779e3	-0.030209487
21	0x3ccba513	0.024858987
22	0xbcda9e21	-0.02668673
23	0xbc5773b0	-0.013150141
24	0x3c23b3cf	0.0099916
25	0xbc31c3d8	-0.010849915
26	0x3cab2bb1	0.020894857
27	0x3c68318e	0.014171971
28	0xbbde6030	-0.006786369
29	0xbc01905f	-0.007907956
30	0xbc91859d	-0.017763907
31	0xbb90a328	-0.004413981
32	0x3c63bcef	0.013900026
33	0x3b332496	0.002733504
34	0x3c2cc9af	0.010546132
35	0x3d090cbc	0.03345941
36	0xb9a34d4c	-0.00031147373
37	0xbcbb0fee	-0.022834744
38	0xbc7182a0	-0.014740616
39	0x3d150863	0.03638495
40	0x3abe440e	0.0014516131
41	0xbc9690c8	-0.018379584
42	0x3cf98122	0.030457083
43	0xbca04ed0	-0.01956883
44	0x3c9b61d2	0.018967543
45	0x3ca2f6ae	0.019893017
46	0xbca216c2	-0.019786242
47	0x3c992bf8	0.018697724
48	0xbb53fda6	-0.0032347231
49	0x3bb71920	0.005587712
50	0xbbeace72	-0.0071657235
51	0x3c9a17b9	0.01881014
52	0x3a034469	0.00050074473
53	0x3c1b9b19	0.009497427
54	0xbcf3ee7e	-0.029776808
55	0xbbab450e	-0.005226738
56	0x3abc9c51	0.0014389848
57	0xbc7ada86	-0.015310889
58	0xbd31b0a3	-0.043381345
59	0xbc9406f8	-0.01806973
60	0x3d504f83	0.05085708
61	0x3c3fefe3	0.011714908
62	0x3ca07ec2	0.019591693
63	0xbb7c7a57	-0.0038525069
64	0x3cc58d5a	0.024115253
65	0x3b7f4cdd	0.0038955726
66	0x3d0b842d	0.0340616
67	0xbc5edfd0	-0.013603166
68	0x3bbab8aa	0.005698283
69	0x3c4393f0	0.0119371265
70	0x3c48209f	0.012214809
71	0xbb9e04f7	-0.004822369
72	0x3cd90e4c	0.026496075
73	0x3cd35c7f	0.025800942
74	0x3c312c39	0.010813766
75	0xbc0e9af5	-0.008703937
76	0xbce4cbbf	-0.027929185
77	0x3ce01347	0.027352942
78	0x3d2b5d72	0.041837163
79	0xbc3b8604	-0.011445526
80	0x3c307942	0.010771098
81	0x3c146231	0.009056614
82	0xbcbbea84	-0.022938974
83	0x3caad2e6	0.020852517
84	0xbce31f41	-0.027724864
85	0x3c930e5c	0.017951183
86	0x3c8121e9	0.01576324
87	0xbb64539e	-0.0034839879
88	0x3ce3a944	0.027790673
89	0xba90f67f	-0.001105979
90	0xbc377447	-0.011197156
91	0xbc869b1f	-0.01643139
92	0xbcfa074b	-0.030521056
93	0x3c219468	0.009862043
94	0x3cfff0a3	0.031242674
95	0xbbfc0b41	-0.0076917713
96	0xbc6c71dd	-0.014431444
97	0x3cf68cd4	0.030096449
98	0x3cbf9175	0.023384789
99	0xba977eec	-0.0011558211
100	0xbceca573	-0.028887486
101	0x3cd008c8	0.025394812
102	0x3d06eeac	0.03294246
103	0xbc9de138	-0.019272432
104	0x3cf962d7	0.030442638
105	0x3cf5415e	0.029938396
106	0xbc6f4a3e	-0.014605103
107	0xbca76924	-0.020435877
108	0xbc8a2c82	-0.016866926
109	0x3bc2533b	0.005930332
110	0x3ccf0d9d	0.025275046
111	0x3ca43572	0.020045016
112	0xbce3496b	-0.02774497
113	0x3c88ac32	0.016683672
114	0xbcecd80b	-0.028911611
115	0xbd0c740e	-0.034290366
116	0xbd7399f5	-0.059472997
117	0x3cf7a16c	0.03022834
118	0x3d4d2d49	0.050092015
119	0xbb0276e9	-0.0019907302
120	0xbcc9f237	-0.02465163
121	0xbc04c890	-0.008104458
122	0xbc3cb9d7	-0.011518917
123	0xbcfcb6f7	-0.030848963
124	0xbb2fd99f	-0.0026832593
125	0x3cbe2f0c	0.023215793
126	0xbcd29f6e	-0.025710788
127	0x3d4eefeb	0.050521772
128	0x3c07ca9f	0.008288055
129	0x3c2dac8d	0.010600221
130	0xbd4137a9	-0.047172222
131	0x3c86aa08	0.0164385
132	0xbc45c479	-0.0120707685
133	0xbd376b38	-0.044779986
134	0x3a5c38a6	0.0008400775
135	0x3ceb8527	0.028750015
136	0xbc09fd6f	-0.00842224
137	0xbc4411dd	-0.01196715
138	0xbc5662f2	-0.013085114
139	0xbaa48886	-0.0012552894
140	0x3ce4f2cd	0.027947808
141	0xbc79836c	-0.015229087
142	0x3caaac30	0.020834059
143	0x3c498be8	0.012301423
144	0x3c23d276	0.009998908
145	0xbcd5a3bd	-0.026079053
146	0xbbb4fabc	-0.005523054
147	0x3c98e4fe	0.01866388
148	0xbc83b3da	-0.01607697
149	0x3c3b12ec	0.011418086
150	0x3c3ce1bd	0.01152843
151	0xbbbd12c0	-0.0057700574
152	0x3bdd3f59	0.0067519364
153	0xbcb1ac8c	-0.021688722
154	0x3c8bc4ec	0.017061673
155	0xbcd9772c	-0.026546083
156	0x3c739388	0.014866717
157	0xbc522583	-0.012826326
158	0x3d054f85	0.03254654
159	0xbcb1cda0	-0.021704495
160	0x3c2d5aab	0.010580699
161	0x3c4d0271	0.012512789
162	0xbbd578c8	-0.0065146424
163	0x3bb6bcd5	0.0055767098
164	0x3c35f176	0.011104932
165	0xbc2c6f31	-0.010524557
166	0x3c0b74ce	0.008511735
167	0x3c538015	0.012908955
168	0x3bc961fb	0.0061457134
169	0x3c11b70e	0.008893741
170	0xbd22d3a8	-0.039752632
171	0xbcc339c8	-0.023831263
172	0x3d142cf2	0.036175676
173	0xbd46208c	-0.048370883
174	0x3ce0ca1a	0.02744012
175	0x3c8e9643	0.017405635
176	0x3ce86dde	0.028372701
177	0x3c13ab8a	0.009013066
178	0xbcffc9c6	-0.031224143
179	0xbc0b25fb	-0.008492942
180	0x3cb19497	0.021677298
181	0x3d262070	0.04055828
182	0xbc430e02	-0.011905195
183	0xbb4f4f4f	-0.0031632965
184	0xbd1bf838	-0.038078517
185	0x3c9f3c30	0.01943788
186	0xbbae72a9	-0.005323727
187	0xbbe579fa	-0.007003066
188	0xbd042676	-0.03226324
189	0x3c0f400d	0.008743298
190	0xbc874c6a	-0.01651593
191	0x3cdb5268	0.026772693
192	0x3cbd3bc2	0.023099784
193	0x3c5a95fc	0.013341423
194	0xbc41d7d8	-0.011831246
195	0x3ce34180	0.027741194
196	0xbcab3ee1	-0.020904006
197	0x3c790af8	0.015200369
198	0xbcd6a311	-0.026200803
199	0xbce24120	-0.027618945
200	0x3c0bde59	0.0085368985
201	0xbcfc4bc6	-0.03079785
202	0xbce369eb	-0.027760467
203	0x3cafcd77	0.021460278
204	0xba470451	-0.0007591891
205	0xbc1dcf98	-0.009632014
206	0xba31b6e2	-0.0006779266
207	0xbcab32e8	-0.020898297
208	0xbca56237	-0.020188434
209	0xbd01f9ad	-0.03173225
210	0xbc028b04	-0.007967714
211	0xbbf2b64e	-0.0074069863
212	0xbc3aebcb	-0.0114087565
213	0x3c5d37d4	0.01350208
214	0x3a8e701e	0.0010867154
215	0xbc116301	-0.008873702
216	0xbc08d0f3	-0.008350599
217	0x3d0a6dec	0.033796236
218	0xbced13bb	-0.028940072
219	0x3b04a0f5	0.002023754
220	0xbd0cc8c3	-0.03437115
221	0xbc4b1f0d	-0.01239754
222	0xbc27ee1d	-0.010249642
223	0x3d341d51	0.04397327
224	0x3c499ba2	0.012305172
225	0xbcb9e926	-0.022694182
226	0xbc8bdc89	-0.017072933
227	0xbca6be5c	-0.020354442
228	0x3c0fefb4	0.008785177
229	0x3cc3ad61	0.023886384
230	0x3d0e0491	0.034672324
231	0xbbfc8489	-0.007706229
232	0x3a6108a0	0.0008584354
233	0xbcfc488a	-0.030796308
234	0xbd1a5c7c	-0.037685856
235	0xbccbd4dd	-0.024881775
236	0xbbbdfdbb	-0.0057980693
237	0xbb816a96	-0.0039494736
238	0x3d3251ad	0.043534923
239	0xbad6cce7	-0.001638797
240	0x3d0366c3	0.032080423
241	0x3d240887	0.040047195
242	0xbc2dd31b	-0.0106094135
243	0x3c6b3d53	0.014357883
244	0xbcb83aa4	-0.0224889
245	0x3aa1edfa	0.0012354248
246	0xbc0f89bd	-0.008760867
247	0x3d180160	0.037110686
248	0xbc12405d	-0.008926478
249	0xbcaf0569	-0.021364884
250	0xbc6ce088	-0.014457829
251	0x3d0e565c	0.034750327
252	0x3ca08c9a	0.019598294
253	0xbc5e7d4a	-0.013579676
254	0xbb8af09a	-0.0042401077
255	0x3a6a3082	0.000893362

action_model._continuous_distribution.mu.bias f4 [2]
0	0xba16fd89	-0.00057598256
1	0xbc366c0b	-0.011134158
