Simulator/results/test_training/My Behavior/My Behavior-127070.onnx (onnx, 72132 bytes, 7 tensors)

network_body._body_endoder.seq_layers.0.weight f4 [128, 5]
0	0x3e46089c	0.19339222
1	0xbdc3d9ad	-0.09563003
2	0xbf34b0e3	-0.7058241
3	0x3ed1c412	0.40969902
4	0xbead9ba5	-0.3390781
5	0x3f06aefb	0.5261075
6	0xbd59e359	-0.05319533
7	0xbf554918	-0.8331466
8	0x3e9942db	0.2993382
9	0x3d2f5c95	0.042812902
10	0xbf4f9bb3	-0.81096953
11	0xbe65469d	-0.22390218
12	0x3cdc2c81	0.02687669
13	0xbc7539c2	-0.014967384
14	0x3ee70d2e	0.45127243
15	0x3ebbc9a1	0.36677268
16	0x3e80d542	0.25162703
17	0xbd8029b1	-0.06257952
18	0x3d500389	0.05078462
19	0xbf5b8d48	-0.85762453
20	0x3f1c2be4	0.6100447
21	0x3f0c88fb	0.54896516
22	0x3caee2a7	0.02134831
23	0xbdf4a91d	-0.11946318
24	0xbf0e4b62	-0.55583775
25	0x3f8b0e02	1.086365
26	0x3d07a527	0.033116486
27	0x3e6ac719	0.22927512
28	0xbcb373c3	-0.021905785
29	0x3e4fa12d	0.20276327
30	0x3f198daa	0.5998179
31	0xbf3279ba	-0.6971699
32	0xbf76b1ab	-0.9636485
33	0x3f60afc2	0.87768185
34	0xbf1e1264	-0.6174681
35	0x3ef6e682	0.48222739
36	0xbf3f55df	-0.74740404
37	0xbef0d59e	-0.47037977
38	0xbeff25ba	-0.4983347
39	0x3f2bec1d	0.67157155
40	0x3f3ab68e	0.72934806
41	0x3e3969c6	0.18106756
42	0x3eb4c8f5	0.35309568
43	0xbcd7e6fd	-0.026355261
44	0xbd9fd900	-0.07805061
45	0x3f1dadd6	0.6159338
46	0x3f53470e	0.82530296
47	0x3e490ea3	0.1963449
48	0xbe44cf67	-0.19219743
49	0x3f412cfd	0.7545927
50	0xbeb6753f	-0.35636327
51	0x3e84a053	0.25903568
52	0xbef8c60d	-0.485886
53	0x3e979e8a	0.29613143
54	0xbe6b3cb3	-0.22972374
55	0xbe96b38a	-0.29433852
56	0x3d07f6b2	0.03319425
57	0xbe6ba329	-0.2301146
58	0xbf1e61a2	-0.61867726
59	0x3e8631f6	0.26209992
60	0xbd78c07e	-0.06073045
61	0x3e99e158	0.30054736
62	0x3f1025b3	0.56307524
63	0xbebd252c	-0.36942422
64	0xbecd497b	-0.40095124
65	0x3ef3f9ef	0.47651622
66	0xbc27cae0	-0.01024124
67	0x3eb67802	0.35638434
68	0xbdaa6e08	-0.08321768
69	0x3f2681df	0.6504192
70	0x3c12b97f	0.0089553585
71	0xbe86bb38	-0.26314712
72	0x3f39013d	0.72267514
73	0x3cddf68e	0.027095105
74	0x3d976c3d	0.07393692
75	0xbf00f405	-0.50372344
76	0xbe118413	-0.14210539
77	0xbebff69b	-0.37492833
78	0xbf13e585	-0.57772094
79	0xbdd04da6	-0.1017106
80	0x3e978f96	0.29601735
81	0x3e002340	0.12513447
82	0xbea62e08	-0.32456994
83	0xbe9e5934	-0.30927432
84	0xbe9f6364	-0.31130517
85	0x3dc61fd6	0.09674041
86	0xbef50cfb	-0.47861466
87	0xbf1fcfc5	-0.62426406
88	0xba39646d	-0.00070721545
89	0xbf3cd543	-0.7376291
90	0x3e754afb	0.23954384
91	0x3f1719e1	0.59023863
92	0x3e8a1433	0.26968536
93	0x3999d728	0.00029342738
94	0xbf127f17	-0.57225174
95	0xbc7833ac	-0.015149038
96	0x3d0ee7a8	0.034888893
97	0x3f08b93b	0.5340764
98	0x3e5bb1a6	0.21454486
99	0xbee0ff86	-0.4394495
100	0xbe06aee7	-0.13152657
101	0x3f1fb22d	0.6238125
102	0x3ed4a9ff	0.41535947
103	0xbf27876e	-0.65441024
104	0x3ed21596	0.41032094
105	0x3d96bf13	0.07360663
106	0xbdeebb53	-0.11656823
107	0xbf0a363e	-0.53989017
108	0x3ad09fb1	0.0015916732
109	0xbfad1cb9	-1.352439
110	0x3ed743f2	0.42044026
111	0xbf326362	-0.69682896
112	0xbeabf722	-0.33586985
113	0xbefb6ee2	-0.49108034
114	0x3f2a70a0	0.665781
115	0xbd61ed40	-0.0551579
116	0x3c21ff71	0.009887562
117	0x3f29c2ba	0.66312754
118	0xbe933381	-0.28750232
119	0xbda0c012	-0.078491345
120	0x3e6577ed	0.2240903
121	0x3da83d0a	0.08214767
122	0xbd0081c8	-0.03137377
123	0xbf132fe9	-0.5749498
124	0xbdd637f7	-0.10459893
125	0x3ec71f54	0.3889109
126	0xbe75ea6f	-0.2401521
127	0x3e1c4ff4	0.15264875
128	0xbe2c784e	-0.16842768
129	0x3ec86829	0.39141968
130	0xbdfe8784	-0.12428191
131	0xbeb98dcf	-0.36241004
132	0xbf19d439	-0.6008945
133	0xbea6cb09	-0.3257678
134	0x3e64af04	0.22332388
135	0x3e836ed4	0.25670493
136	0xbe315d69	-0.1732079
137	0xbe21030b	-0.15723817
138	0x3e90e450	0.2829919
139	0xbd925974	-0.07145968
140	0x3f1f1e65	0.62155753
141	0xbeaa0da2	-0.33213526
142	0x3ec478b5	0.38373342
143	0x3f60b7ed	0.8778065
144	0xbc8815be	-0.01661193
145	0x3cb46a7f	0.022023438
146	0x3f798ad6	0.9747747
147	0x3e221ac5	0.15830524
148	0x3e04c846	0.12967023
149	0xbf39fbc4	-0.7264979
150	0x3f03146f	0.51203054
151	0xbe524d73	-0.20537357
152	0xbea6b6cf	-0.32561347
153	0x3d4cf2c3	0.050036203
154	0xbec15d6a	-0.37766582
155	0x3db997fc	0.09062192
156	0x3f188224	0.5957358
157	0xbea12517	-0.3147361
158	0xbc1cad67	-0.009562827
159	0x3ea395f6	0.3195035
160	0x3e07df80	0.13268852
161	0xbeb67bd9	-0.35641363
162	0xbf16f0c3	-0.58961123
163	0xbe1f7f1a	-0.15575829
164	0xbe20b442	-0.15693763
165	0xbebcba28	-0.36860776
166	0xbdda1cf5	-0.10650054
167	0xbeb39147	-0.35071775
168	0xbf7dddaa	-0.9916636
169	0x3f8ce188	1.1006327
170	0xbef26167	-0.47339937
171	0xbf000ff3	-0.50024337
172	0x3e7e055c	0.24806732
173	0xbe9fee78	-0.31236625
174	0x3e1c3418	0.15254247
175	0xbe660248	-0.22461808
176	0x3e2daa76	0.16959557
177	0x3f9afc2f	1.210821
178	0x3e8e6e44	0.278185
179	0xbf7f91c3	-0.9983179
180	0x3d63af2a	0.05558697
181	0xbf0c1b88	-0.5472951
182	0xbf582478	-0.84430647
183	0x3e1345a5	0.14382036
184	0x3d9f017e	0.077639565
185	0x3e96e41a	0.29470903
186	0x3ee17979	0.4403799
187	0x3ecd38d7	0.40082428
188	0x3ea7328a	0.32655746
189	0x3ddb4f22	0.10708453
190	0x3e6503ff	0.22364806
191	0x3e5a0354	0.21290332
192	0x3e589ab2	0.21152762
193	0xbcff4b64	-0.031163879
194	0x3ed5eed2	0.41783768
195	0x3f4419bd	0.76601774
196	0xbe7bf48b	-0.24605004
197	0x3bee4d86	0.007272425
198	0xbd2c8965	-0.042123217
199	0x3f6b7457	0.91974396
200	0x3ee2027c	0.4414252
201	0xbdb6db8a	-0.089285925
202	0x3dd03036	0.101654455
203	0x3e80b37c	0.25136936
204	0xbf98bdcf	-1.1932925
205	0x3d74f8cc	0.059807584
206	0x3f1adabc	0.6049001
207	0xbe2b189b	-0.16708605
208	0xbe900d18	-0.2813499
209	0xbd147dc7	-0.036252763
210	0x3ea891f0	0.3292384
211	0x3f25fb2e	0.64836395
212	0xbe6f6a8e	-0.23380491
213	0xbe2b7114	-0.16742355
214	0x3f207d0f	0.62690824
215	0x3e8bb2bd	0.27284804
216	0x3e9618a5	0.29315677
217	0xbf045aff	-0.5170135
218	0xbf07070a	-0.52745116
219	0xbe8e95e4	-0.27848732
220	0xbf2207c5	-0.63293105
221	0x3ef25c51	0.47336057
222	0x3f8eac54	1.114634
223	0x3df1435f	0.11780428
224	0xbc1e9117	-0.009678147
225	0x3ea5714b	0.32312998
226	0x3e3d907b	0.18512146
227	0x3ea952ef	0.33071086
228	0xbf474940	-0.77846146
229	0xbd40e408	-0.047092468
230	0x3f1d1b4c	0.61369777
231	0x3efddfa9	0.49584702
232	0x3e904cef	0.28183696
233	0xbd79c198	-0.06097564
234	0x3eba3741	0.3637028
235	0xbddeba61	-0.10875393
236	0x3f097dfd	0.5370787
237	0xbe35f7c1	-0.17770292
238	0x3e687b91	0.22703387
239	0x3e3cdf48	0.1844455
240	0xbe282286	-0.1641942
241	0x3f098546	0.53718984
242	0xbed42402	-0.41433722
243	0x3e74fb60	0.23924017
244	0xbed4df8d	-0.41576806
245	0x3d9b3fec	0.075805515
246	0x3f17f5e6	0.59359586
247	0xbf6b3b61	-0.9188748
248	0xbd41645a	-0.047214843
249	0x3f0ec58e	0.55770195
250	0xbf3fe16a	-0.7495333
251	0x3ee37c5a	0.4443081
252	0xbdd5cefd	-0.104398705
253	0x3f2e1b24	0.68010163
254	0x3e3788ff	0.17923354
255	0xbe2f3e97	-0.1711372

network_body._body_endoder.seq_layers.0.bias f4 [128]
0	0xbc4b82ff	-0.012421369
1	0xbb00cd21	-0.0019653516
2	0x3c1f5535	0.009724905
3	0xbc840091	-0.016113551
4	0x3c87867d	0.016543621
5	0x3902b8b4	0.00012466573
6	0x3c0c0454	0.008545954
7	0xbc0c23a1	-0.0085534165
8	0x3c43ef29	0.011958876
9	0x3cb6ef01	0.022330763
10	0xbbf9d587	-0.0076243314
11	0x3b005afe	0.0019585486
12	0x3ce7295a	0.02821796
13	0x3c7b0fea	0.015323618
14	0x3b8c63a5	0.0042843395
15	0x3b792685	0.0038017344
16	0xbbd856db	-0.006602151
17	0xbab4d67e	-0.0013796834
18	0x3c865285	0.01639677
19	0x3c2c2206	0.010506159
20	0xbc483763	-0.0122202365
21	0xbb6dc90b	-0.003628316
22	0x3b64cbbd	0.0034911477
23	0x3c00a17a	0.007850999
24	0xbb0c135c	-0.0021373844
25	0x3b059060	0.0020380244
26	0x3bb376f2	0.005476826
27	0x3b75354a	0.0037415796
28	0xbb535fc0	-0.0032253116
29	0x3c8000fb	0.015625468
30	0x3bac00ce	0.0052491194
31	0x3be3324f	0.0069334875
32	0x3c24566d	0.010030371
33	0x3b88a72f	0.0041703205
34	0xbc040809	-0.008058556
35	0x3bbf021e	0.00582911
36	0xbc2dd031	-0.010608719
37	0xbbd62d03	-0.0065361275
38	0x3c621f93	0.013801473
39	0xbb05415a	-0.0020333142
40	0xbb4537ec	-0.0030093146
41	0x3bef6cd7	0.007306676
42	0x3c3ce82c	0.011529963
43	0xbc372769	-0.01117883
44	0x3b5a58d9	0.0033317117
45	0xbb846faf	-0.004041634
46	0x3ce88075	0.028381566
47	0x3cc226cf	0.023700146
48	0x3bc39739	0.005968955
49	0xbc27ffb1	-0.010253833
50	0xbaabd4fc	-0.0013109739
51	0x38e7445c	0.00011027671
52	0x3bc231bb	0.0059263385
53	0xbc996602	-0.018725399
54	0xbc12d58a	-0.0089620445
55	0x3ad549e4	0.0016272631
56	0x3c67b795	0.01414289
57	0xbbe323bf	-0.0069317515
58	0x3b8f28f2	0.0043688947
59	0xbc9413e0	-0.018075883
60	0x3c1e651c	0.009667661
61	0x3ba3b31e	0.0049957177
62	0x3c81f8af	0.015865652
63	0xbbf683ea	-0.0075230496
64	0x3b413cd1	0.0029485712
65	0x3c852c83	0.016256576
66	0xbcb5cf0b	-0.022193452
67	0xbbadd5f2	-0.0053050453
68	0x3c520d2a	0.012820521
69	0xbbaa3a54	-0.0051949415
70	0x3c8d1e4f	0.017226366
71	0xbafe7092	-0.0019412211
72	0x3ad4df3d	0.0016240847
73	0x3b967bdc	0.004592402
74	0x3b9c7bb0	0.004775487
75	0xbc6890ea	-0.014194706
76	0x3b97daa5	0.0046342188
77	0xbc35bc54	-0.011092264
78	0xbbd279ee	-0.0064232266
79	0x3ba1da7c	0.0049393754
80	0xbb3d069e	-0.0028843055
81	0x3cd63c5a	0.026151825
82	0x3c9e1e1b	0.019301465
83	0xbc25bfa1	-0.010116489
84	0x3c2cedb5	0.010554721
85	0xbc4a0c81	-0.012332083
86	0xbc1bfaf0	-0.009520277
87	0x3bd5200b	0.006504064
88	0x3b104390	0.0022012927
89	0xbbf8caec	-0.0075925495
90	0xbc959740	-0.018260598
91	0x3cae9bef	0.02131459
92	0xbb8432a9	-0.0040343595
93	0x3b98a810	0.0046587065
94	0x3a961752	0.0011451042
95	0xbc18bab3	-0.009321856
96	0x3bb61831	0.005557083
97	0x3bc762e4	0.0060847867
98	0x399771fa	0.00028885884
99	0xbb9f290e	-0.004857189
100	0xbc074e42	-0.008258404
101	0x3c0d8c95	0.008639474
102	0xbc054f4f	-0.008136584
103	0x3c02722e	0.007961793
104	0x3cb60793	0.022220409
105	0xbb33894e	-0.0027395072
106	0x3c774600	0.015092373
107	0x3bb44489	0.005501334
108	0xbb85715d	-0.004072352
109	0x3c170b1e	0.009218959
110	0x3c3231ad	0.010876101
111	0x3c90a9bf	0.017659066
112	0xbbc0212d	-0.00586333
113	0x3b5cf589	0.0033715686
114	0xbc753b0a	-0.014967689
115	0x3aee51d0	0.0018182341
116	0x3cc32a9f	0.023824034
117	0x3c4cf2a6	0.012509024
118	0x3b06c527	0.002056429
119	0xbb11f8eb	-0.002227361
120	0xbb05ae47	-0.0020398067
121	0xbc5c1755	-0.013433297
122	0x3c9db400	0.01925087
123	0x3b54d053	0.0032472804
124	0xbc69886e	-0.014253719
125	0xbbbf6db0	-0.005841933
126	0x3bf1ed63	0.007383035
127	0xbbd4c3ad	-0.006493053

network_body._body_endoder.seq_layers.2.weight f4 [128, 128]
0	0xbdde5249	-0.108555384
1	0x3e2d25b9	0.16908921
2	0xbb415f44	-0.0029506246
3	0x3d462a2f	0.048380073
4	0x3dc44bc8	0.095847666
5	0xbdbf8060	-0.093506575
6	0xbdb3ec0c	-0.08785257
7	0x3dc05558	0.09391278
8	0x3e14d00f	0.14532493
9	0x3e224279	0.1584567
10	0x3df22745	0.11823896
11	0xbb808c4d	-0.003922975
12	0x3df50033	0.119629286
13	0x3d414366	0.047183417
14	0x3e70a8a9	0.23501839
15	0x3dcd850f	0.100351445
16	0xbd0bb297	-0.034105863
17	0x3dc08ed6	0.09402244
18	0xbc2dd05a	-0.010608757
19	0x3b75b491	0.003749166
20	0xbdff55be	-0.12467526
21	0x3bb27ba5	0.0054468685
22	0xbe6a6132	-0.2288864
23	0x3dd6cb1d	0.104879595
24	0x3df5942c	0.11991152
25	0xbd93a51b	-0.07209226
26	0xbd06fcf7	-0.03295609
27	0x3d111536	0.03542062
28	0x3d82484b	0.06361445
29	0x3e09771d	0.13424344
30	0xbdf5e276	-0.120060846
31	0x3d6bd031	0.057571594
32	0x3d58e4f9	0.05295274
33	0xbe269025	-0.16265924
34	0xbe043d25	-0.1291395
35	0xbd80c538	-0.062876165
36	0xbdb9046a	-0.09034045
37	0x3ccf6725	0.025317738
38	0x3cdf6b87	0.027272953
39	0xbd1ef8e0	-0.038811564
40	0x3e622376	0.2208384
41	0x3b6e09bb	0.0036321718
42	0xbd408983	-0.04700614
43	0x3d271aec	0.04079716
44	0x3cf6e8f3	0.030140376
45	0xbd409e1f	-0.047025796
46	0x3cd7b2d4	0.02633039
47	0xbc44a053	-0.012001115
48	0x3dbaa24d	0.09112988
49	0xbd00a6d7	-0.03140911
50	0xbd592218	-0.05301103
51	0xbd475bb0	-0.048671424
52	0xbd13a01c	-0.036041364
53	0xbdb5647e	-0.08857058
54	0x3c991bab	0.01868995
55	0x3bf654a0	0.0075174123
56	0x3d533382	0.051562794
57	0xbe264704	-0.16238028
58	0x3e1c5437	0.152665
59	0xbd3334fa	-0.043751694
60	0xbdd5ecd4	-0.10445562
61	0x3e1b7071	0.15179612
62	0xbde795c8	-0.113078654
63	0xbd2f7a81	-0.04284144
64	0xbcf72e1b	-0.030173352
65	0x3d3e50a1	0.046463612
66	0x3aa45d84	0.0012540077
67	0x3b120984	0.0022283504
68	0x3dcb5663	0.09928586
69	0xbd4c2c5f	-0.049847003
70	0xb9dd4ec5	-0.00042211093
71	0x3dbb0056	0.091309234
72	0x3bb3ccec	0.005487075
73	0x3d39f779	0.045402024
74	0xbe90be2b	-0.28270087
75	0x3c671507	0.014104134
76	0xbc3435d4	-0.010999162
77	0xbd4a18cd	-0.049340058
78	0xbde306f7	-0.11085313
79	0xbc4183d0	-0.011811212
80	0xbc82abbd	-0.015951032
81	0xbc03da5f	-0.008047669
82	0x3cbc534d	0.02298894
83	0x3cb7ffa6	0.02246077
84	0xbc0d8ca9	-0.008639493
85	0xbc959abc	-0.01826226
86	0xbd19a619	-0.03751192
87	0xbe6baf8b	-0.23016183
88	0xbcd7c806	-0.026340496
89	0xbd980dff	-0.074245445
90	0x3e2d4e68	0.16924441
91	0xbdd83f8d	-0.10558996
92	0x3b9be256	0.004757206
93	0x3d777359	0.06041274
94	0x3d4f14cc	0.050556943
95	0xbce6e6a9	-0.02818616
96	0x3d24f761	0.04027498
97	0x3d106463	0.035251986
98	0x3d1e18a4	0.038597718
99	0xbc0cf1ec	-0.008602601
100	0xbd65ffb8	-0.056152076
101	0xbdbe0b0a	-0.09279449
102	0x3d923bca	0.0714031
103	0xbe4a949e	-0.19783255
104	0x3e205ae3	0.1565967
105	0xbc97f3b8	-0.018548831
106	0xbd8df231	-0.0693096
107	0x3dd68735	0.104750074
108	0x3d3fe752	0.046851464
109	0xbd92d340	-0.07169199
110	0x3d1f58a0	0.03890288
111	0x3de9ea7f	0.1142168
112	0xbc2095fc	-0.009801384
113	0xbd350287	-0.044191863
114	0xbd296945	-0.04136016
115	0x3dcfcec7	0.101468615
116	0xbe079e0f	-0.13243888
117	0x3e5be2f5	0.21473296
118	0x3d09bb24	0.033625737
119	0x3e62f1b0	0.22162509
120	0x3daee791	0.085402615
121	0xbd135d59	-0.035977695
122	0xbcb9f9ee	-0.022702184
123	0x3e46b5e0	0.19405317
124	0xbd84febe	-0.06493901
125	0x3b200670	0.00244179
126	0xbd134d8d	-0.03596263
127	0x3c0c6456	0.008568844
128	0xbd0cf20c	-0.03441052
129	0x3d029e93	0.03188951
130	0x3d5f8385	0.054568786
131	0x3e0e1400	0.13874817
132	0xbe3cb62b	-0.18428867
133	0xbd12964f	-0.035787877
134	0x3bc3b233	0.0059721707
135	0x3cab1d82	0.020888094
136	0x3ca5db89	0.020246284
137	0x3c4b193c	0.012396153
138	0x3e0d77b7	0.13815199
139	0x3df0c921	0.11757112
140	0xbe14290e	-0.14468786
141	0x3da14cc6	0.078759715
142	0x3cab3dc9	0.020903485
143	0x3d2e9f45	0.04263236
144	0x3d6c7c38	0.05773565
145	0x3e2cc429	0.16871704
146	0x3e0ea270	0.13929152
147	0x3e3d3c67	0.18480073
148	0xbd2c55db	-0.042074066
149	0xbd0da7a2	-0.034583695
150	0xbd8491fd	-0.064731576
151	0xbdd705d3	-0.10499158
152	0xbd199e10	-0.037504256
153	0x3de66abd	0.112508275
154	0xbe228be7	-0.15873681
155	0x3dc9e929	0.09858925
156	0x3c723b89	0.014784702
157	0xbd6c50e0	-0.057694316
158	0xbd3cb57c	-0.046071514
159	0x3d17b8c2	0.037041433
160	0x3af9c115	0.0019054735
161	0x3db95a4e	0.090504274
162	0x3e6258df	0.22104214
163	0x3da0cb6d	0.078513004
164	0x3d06e281	0.032930855
165	0xbdf78360	-0.12085605
166	0x3df9cbc9	0.12197072
167	0x3e554fec	0.20831269
168	0xbdddb529	-0.10825569
169	0xbe70f6fc	-0.23531717
170	0xbd8f7632	-0.07004966
171	0x3ca5e9e9	0.020253139
172	0x3d9169c8	0.07100254
173	0x3df3e82e	0.11909519
174	0xbc18ca46	-0.0093255695
175	0x3de45e0f	0.11150753
176	0xbd56abc0	-0.052409887
177	0xbdbeb1ae	-0.093112335
178	0x3dbdda80	0.09270191
179	0x3db799cf	0.089648835
180	0xbd2b69b9	-0.04184887
181	0xbeaaa326	-0.33327597
182	0x3d27a785	0.040931243
183	0xbdd265f6	-0.10273354
184	0xbd1037eb	-0.035209578
185	0x3d0b509a	0.034012415
186	0xbd4588ec	-0.048226282
187	0xbdc3073b	-0.095228635
188	0x3d2f3ce3	0.042782675
189	0x3dbe049b	0.09278222
190	0xbda8fc96	-0.08251302
191	0xbe0f8376	-0.14014992
192	0xbd9ae3cb	-0.07562979
193	0x3ca19851	0.01972595
194	0xbd4abd69	-0.04949704
195	0xbd9cd0ff	-0.0765705
196	0x3e31e003	0.1737061
197	0x3e015788	0.12631047
198	0xbd9b79dc	-0.07591602
199	0xbd0f6c53	-0.035015415
200	0xbcefa7b2	-0.029254768
201	0xbc1132a6	-0.008862173
202	0x3ba29735	0.004961873
203	0xbd25433f	-0.040347334
204	0x3d8a2a2f	0.06746327
205	0x3d318ab8	0.043345183
206	0x3d715720	0.05892098
207	0xbe2e0801	-0.16995241
208	0x3deec7e2	0.11659218
209	0x3d4cb60c	0.0499783
210	0x3d510b92	0.051036425
211	0x3c93c5c9	0.018038647
212	0xbd4d06fe	-0.050055496
213	0x3a9120f6	0.0011072445
214	0x3ddcb9a5	0.107775964
215	0xbc58a30b	-0.013222466
216	0xbd69efcc	-0.057113454
217	0xbd56e204	-0.05246164
218	0x3d6d5ad2	0.05794794
219	0xbca2d721	-0.019877972
220	0xbd82a004	-0.06378177
221	0xbd194c99	-0.037426565
222	0x3df77035	0.12081949
223	0x3e73a50e	0.23793432
224	0x3cf93e79	0.030425297
225	0xbc84cbf4	-0.016210534
226	0x3bdeb61c	0.0067966115
227	0x3d960b93	0.07326426
228	0xbd9a82b1	-0.07544459
229	0xbc03339b	-0.008007909
230	0x3d041c9a	0.03225384
231	0x3cddc321	0.027070584
232	0x3dd007c5	0.10157732
233	0xbd0d847b	-0.03455017
234	0x3e11353e	0.14180467
235	0x3caa989f	0.020824729
236	0x3da77706	0.08176999
237	0xbd9fa551	-0.077952035
238	0xbe32a470	-0.1744554
239	0xbd5a441b	-0.053287607
240	0xbdbd0077	-0.09228604
241	0xbd370e88	-0.044691592
242	0x3d05bb02	0.032649048
243	0xbd05a9f3	-0.03263278
244	0x3de909c4	0.11378816
245	0xbc4e31ad	-0.012585086
246	0xbda1eefa	-0.07906909
247	0xbcf43163	-0.029808706
248	0xbdc95670	-0.0983094
249	0x3cf96049	0.03044142
250	0x3e12faad	0.14353438
251	0x3dd38df8	0.10329813
252	0xbcc92835	-0.024555305
253	0x3d939acd	0.0720726
254	0xbd2a46f6	-0.04157158
255	0x3dea1855	0.11430422

network_body._body_endoder.seq_layers.2.bias f4 [128]
0	0x3c82c5cf	0.015963463
1	0xbc135528	-0.008992471
2	0x3b90f923	0.0044242307
3	0xbc09cb20	-0.008410245
4	0x3a6c482f	0.0009013442
5	0x3c152d66	0.009105062
6	0x3c859451	0.016306074
7	0x3b003698	0.001956379
8	0x3a9383ee	0.0011254528
9	0xba91e872	-0.0011131896
10	0x3c2622ec	0.010140162
11	0xbc53bec5	-0.012923901
12	0xbbebac9b	-0.007192207
13	0x3b9be73e	0.004757791
14	0x3a3f1977	0.00072898663
15	0xbb9220c4	-0.0044594724
16	0x3ce651f8	0.028115258
17	0x3b899f64	0.004199909
18	0xbc443cc3	-0.011977377
19	0x3bd3d390	0.006464429
20	0x3bebfc92	0.0072017396
21	0xbc297794	-0.010343451
22	0x3c9f1180	0.019417524
23	0x3c5e71a8	0.013576902
24	0x3b936396	0.0044979556
25	0x3bb57d96	0.0055386527
26	0xbbbd0720	-0.0057686716
27	0x3c0b3300	0.008496046
28	0x3a289f69	0.00064324454
29	0x3bdf9312	0.006822952
30	0x3b21b429	0.0024674034
31	0x3ba7a56d	0.005116156
32	0xbc65f873	-0.014036286
33	0x3be01fab	0.0068397126
34	0xbb903f05	-0.0044020438
35	0xbc0f03ba	-0.008728916
36	0xbb211bb2	-0.0024583158
37	0x3c0a66c3	0.008447352
38	0x3c5fc66b	0.013658146
39	0xbb848356	-0.004043977
40	0xbc2f3856	-0.010694584
41	0x3ca95add	0.02067321
42	0x3beab515	0.0071627
43	0x3c291904	0.010320906
44	0xbbaad91a	-0.005213869
45	0x3b5b24da	0.0033438713
46	0x3c0db07c	0.008648034
47	0xbc43bed4	-0.011947352
48	0xbbe458fa	-0.0069686146
49	0xbbe084c5	-0.006851765
50	0x3bc4b678	0.0060031973
51	0xba8e51c6	-0.0010858111
52	0xbb7e8ed7	-0.0038842463
53	0xbb36447a	-0.0027811811
54	0x3ca3f0ea	0.020012338
55	0x3c570a7f	0.013125061
56	0x3b9e0195	0.004821966
57	0x3bd41dbb	0.0064732707
58	0x3c83e5f4	0.016100861
59	0x3ae0079e	0.0017092114
60	0x390ee65a	0.00013627988
61	0xbb8c105d	-0.0042744116
62	0x3b829f5f	0.0039862837
63	0x3a4ef32b	0.0007894511
64	0xbc30b891	-0.010786192
65	0xbb833622	-0.004004256
66	0x3b5551de	0.0032550017
67	0x3a0e6e6b	0.00054333237
68	0x3b7b7c28	0.0038373563
69	0xbc2187e9	-0.009859064
70	0x3c0e2de7	0.008677936
71	0x3bb10352	0.005402007
72	0xbc3a782c	-0.01138119
73	0xb91a1cfa	-0.00014697379
74	0x3b96c0b7	0.00460061
75	0x3a9bc28a	0.0011883539
76	0x3bd694c4	0.006548496
77	0xbbae898c	-0.0053264555
78	0xbc078a8e	-0.00827278
79	0x3bd7d1bb	0.006586281
80	0x3bbc5b7b	0.00574821
81	0x3b78cc5f	0.0037963612
82	0x3c8f7ba5	0.017515013
83	0xbb98dfee	-0.0046653664
84	0x3ca05a4c	0.019574307
85	0xbc2d67e6	-0.010583853
86	0xbc4848e2	-0.012224408
87	0xba9cd5dd	-0.0011965592
88	0xbbc123dc	-0.0058941673
89	0xba3de6f0	-0.000724419
90	0x3be38539	0.0069433716
91	0x3c9fbb20	0.019498408
92	0x3c174552	0.009232836
93	0x3b928839	0.0044718054
94	0xbc2a969d	-0.010411886
95	0x3b2f8eb8	0.0026787948
96	0x3b88ebeb	0.0041785142
97	0xbbaec04c	-0.005332982
98	0x3bef4499	0.0073018786
99	0x3b88ccf9	0.0041748253
100	0x3c43209a	0.011909628
101	0xbbe69109	-0.0070363325
102	0xbc2bc579	-0.010484093
103	0x3cb6db60	0.022321403
104	0xbb278dbd	-0.002556666
105	0x3a6aad85	0.0008952248
106	0x3bd33c2a	0.006446381
107	0x3c012547	0.007882423
108	0x3b4a0e7e	0.0030831392
109	0x3a9b6592	0.0011855832
110	0xbc0381c1	-0.008026541
111	0xbc280912	-0.010256069
112	0x3bae7ad8	0.0053247027
113	0xbb7ed9f1	-0.0038887227
114	0x3c43f9b7	0.011961392
115	0x3b9f289e	0.004857137
116	0x3c5a5839	0.013326698
117	0xbc2e955c	-0.010655727
118	0x3baa347a	0.005194244
119	0x3b186a4f	0.0023256724
120	0x3be78cf5	0.007066364
121	0x3bbddd07	0.005794171
122	0x3bb1708a	0.005415027
123	0x3bcd1e06	0.0062596826
124	0xb98679c8	-0.00025649206
125	0xbb1e7813	-0.0024180457
126	0x3c9973f4	0.018732049
127	0xbb520a69	-0.0032049662

action_model._continuous_distribution.log_sigma f4 [1, 2]
0	0xbb231b76	-0.0024888194
1	0xbcd9b50a	-0.026575584

action_model._continuous_distribution.mu.weight f4 [2, 128]
0	0xbcfd68ae	-0.030933704
1	0x3d469616	0.048482977
2	0xbc25fd26	-0.010131156
3	0x3d266ab1	0.040629093
4	0x3d1d3ef4	0.038390115
5	0x3d1bfdc9	0.038083825
6	0xbd723772	-0.059134908
7	0xbc3409cd	-0.010988665
8	0xbd0cd2ae	-0.034380607
9	0x3cc5f85e	0.024166282
10	0xbc87157d	-0.016489739
11	0x3979213e	0.00023758874
12	0x3cb48319	0.022035168
13	0x395ec904	0.00021246454
14	0x3bbce06c	0.005764058
15	0x3a6ffc1d	0.0009154694
16	0xbce39ac1	-0.027783753
17	0x3c64fe21	0.013976605
18	0x39903db0	0.0002751178
19	0xbc5c6e63	-0.013454053
20	0xbd062052	-0.032745667
21	0x3d120e35	0.03565808
22	0xbd293084	-0.041306034
23	0xbc8862a4	-0.016648598
24	0x3c86d14a	0.016457219
25	0xbbec0e0d	-0.0072038234
26	0x3ccfa303	0.025346285
27	0x3c9fb9e7	0.019497825
28	0xbc6aeb09	-0.014338263
29	0xbc72e415	-0.014824887
30	0xbc078392	-0.008271115
31	0xbbbd95d9	-0.0057856855
32	0x3cafda03	0.02146626
33	0xbb98bc8f	-0.00466115
34	0x3ca2e6c8	0.019885436
35	0x3d2b14b0	0.041767776
36	0xba1da54b	-0.0006013705
37	0xbd0514f8	-0.0324907
38	0xbccd4560	-0.025057495
39	0x3d3ea777	0.046546426
40	0x3a93be5a	0.0011271939
41	0xbcff7c97	-0.031187339
42	0x3d0e515e	0.034745567
43	0xbce48620	-0.027895987
44	0x3cc52f46	0.024070393
45	0x3c9a7752	0.018855724
46	0xbce3d11b	-0.02780967
47	0x3cef3e02	0.029204372
48	0xbb63461b	-0.0034679237
49	0x3b54785c	0.0032420373
50	0xbc6df781	-0.014524342
51	0x3ce29c67	0.02766247
52	0xbb969172	-0.004594975
53	0x3c708c9e	0.014681963
54	0xbd31b65c	-0.043386802
55	0xbc3f958d	-0.0116933705
56	0xb9f828a8	-0.00047332537
57	0xbcd7858d	-0.0263088
58	0xbd516a2a	-0.051126637
59	0xbc854882	-0.016269926
60	0x3d855dfa	0.06512065
61	0x3c6a0dda	0.014285529
62	0x3cf5281a	0.029926348
63	0xbbecbbf8	-0.007224556
64	0x3d124a53	0.035715412
65	0x3c1ed14e	0.009693457
66	0x3d37959f	0.044820424
67	0xbca68200	-0.02032566
68	0x3c4f21ca	0.012642333
69	0x3c8c47f3	0.017124152
70	0x3ca051fd	0.019570345
71	0xbc353a03	-0.011061194
72	0x3d0a95fe	0.03383445
73	0x3cd5ebef	0.026113478
74	0x3c4c7567	0.012479163
75	0xbc1b206e	-0.009468181
76	0xbd28a8a1	-0.041176442
77	0x3d1bfe25	0.038084168
78	0x3d424960	0.047433257
79	0xbc277303	-0.010220292
80	0x3c6f46f6	0.014604321
81	0x3b7dcb12	0.0038725776
82	0xbd0c9f34	-0.034331515
83	0x3cd4e520	0.025988162
84	0xbd1b2828	-0.037880093
85	0x3cb33ed1	0.02188054
86	0x3cc45d2b	0.023970207
87	0x3b806ecf	0.0039194594
88	0x3d13cf75	0.03608652
89	0xbaa90c34	-0.0012897314
90	0xbc8d3f9b	-0.017242244
91	0xbca0965a	-0.019602943
92	0xbd11ed37	-0.035626616
93	0x3c93669e	0.017993268
94	0x3d2a6d1b	0.041607957
95	0xbc1c7797	-0.009549997
96	0xbbc93c15	-0.0061411955
97	0x3cc47912	0.023983512
98	0x3d10c99d	0.035348523
99	0x3b5ef0b4	0.0034017982
100	0xbd1e175d	-0.0385965
101	0x3d043257	0.03227457
102	0x3d25e2f1	0.04049963
103	0xbd03259b	-0.032018285
104	0x3d22aa4c	0.03971319
105	0x3cfe9842	0.031078462
106	0xbc726224	-0.014793906
107	0xbca50fc1	-0.020149114
108	0xbcb27a4f	-0.021786837
109	0x3b33b457	0.0027420723
110	0x3d0e277f	0.034705635
111	0x3c87e5fa	0.016589154
112	0xbcffe0ce	-0.031235125
113	0x3ce0729a	0.027398396
114	0xbd246afa	-0.040141083
115	0xbd29262a	-0.04129616
116	0xbd857228	-0.06515914
117	0x3d298864	0.041389838
118	0x3d78e956	0.0607694
119	0xbbc8c8fb	-0.0061274744
120	0xbcfda31d	-0.030961568
121	0x3bebff4f	0.007202066
122	0xbc0ddd95	-0.008658786
123	0xbd198ca3	-0.037487637
124	0x3a870dfd	0.0010303851
125	0x3d039c9d	0.03213178
126	0xbd279ab3	-0.040919017
127	0x3d6eca54	0.058298424
128	0x3d0d2596	0.034459673
129	0xbb94f1ca	-0.004545425
130	0xbd047a0b	-0.03234295
131	0x3b85da7a	0.0040848823
132	0xbd147853	-0.036247563
133	0xbd91a1dc	-0.0711095
134	0x3ca5def2	0.02024791
135	0x3d2e88df	0.042611
136	0xbbae4b1e	-0.0053190133
137	0xbce6d0f7	-0.028175814
138	0xbbad27ff	-0.005284309
139	0x3a38ebed	0.00070541986
140	0x3ca5e071	0.020248624
141	0xbc9ee45d	-0.019396001
142	0x3c848e06	0.016181003
143	0x3c355ac3	0.011069003
144	0x3d2c6a7a	0.04209373
145	0xbd08cd6e	-0.033399038
146	0xbb4a8623	-0.0030902706
147	0x3cf1c728	0.02951391
148	0xbc46daa4	-0.012137089
149	0xbb6bc651	-0.003597636
150	0x3d2589d8	0.04041466
151	0x3bcf38b8	0.0063239
152	0x3bdde8ad	0.006772122
153	0xbd14e014	-0.03634651
154	0x3c768077	0.015045277
155	0xbd3d75f1	-0.046255056
156	0x3ccc3b78	0.0249307
157	0xbc3a469d	-0.011369375
158	0x3d03be94	0.03216417
159	0xbca597d9	-0.020214008
160	0xbb86b934	-0.0041114334
161	0x3d189629	0.03725258
162	0xbcf249c8	-0.029576197
163	0xbc5be1ec	-0.013420563
164	0x3c4eb0be	0.012615381
165	0x3b8ae96d	0.0042392523
166	0x3cd14323	0.025544709
167	0xbb3c9b90	-0.0028779246
168	0x3b80d434	0.0039315466
169	0x3d021821	0.031761292
170	0xbd5330af	-0.0515601
171	0xbc7291b8	-0.01480525
172	0x3d09285d	0.03348576
173	0xbd533798	-0.05156669
174	0x3d52f729	0.05150524
175	0xba826d00	-0.0009950697
176	0x3cbaf456	0.022821587
177	0x3c1b2a3e	0.009470521
178	0xbca1c3c2	-0.019746665
179	0xbc665e37	-0.0140605485
180	0x3d09ce6f	0.033644136
181	0x3d1316a2	0.035910256
182	0x3c085042	0.008319916
183	0x3b91a49f	0.004444673
184	0xbd1e8710	-0.038703024
185	0x3d29d9cf	0.041467484
186	0x3c7f53da	0.015583957
187	0xbc2c0b8a	-0.010500798
188	0xbd81a890	-0.06330979
189	0x3baaca08	0.0052120723
190	0xbd0fb950	-0.035088837
191	0x3d02f43b	0.031971198
192	0x3be22d1d	0.0069023506
193	0x3c24301d	0.010021237
194	0xbd0fb414	-0.035083845
195	0x3d283089	0.04106191
196	0xbcf4edbb	-0.029898515
197	0x3c06acc6	0.008219903
198	0xbd320b36	-0.043467723
199	0xbcad3069	-0.021141248
200	0xbc6dbc55	-0.014510234
201	0xbd2d5ac0	-0.042322874
202	0xbd05ea5b	-0.032694202
203	0x3cbe7f54	0.023254074
204	0x3c6312e4	0.013859484
205	0xbd0c155e	-0.034200065
206	0xbc6d1baf	-0.014471932
207	0xbca18d0b	-0.019720575
208	0xbd0cb2da	-0.034350254
209	0xbd0811f8	-0.03322026
210	0x3bbd6382	0.0057796845
211	0xbc75d897	-0.015005252
212	0x3c26ec23	0.010188135
213	0x3bde492e	0.006783626
214	0xbc891d4b	-0.0167376
215	0xbcfb8998	-0.030705258
216	0xbcc0b7b4	-0.023525096
217	0x3d1b1a68	0.03786698
218	0xbcdc4184	-0.026886709
219	0x3c08a6af	0.008340522
220	0xbc9311bb	-0.01795279
221	0xbd094a21	-0.03351796
222	0xbcfd9aba	-0.030957568
223	0x3d5578cc	0.052117154
224	0x3c07487d	0.008257029
225	0xbca42c28	-0.020040587
226	0xbd408e92	-0.047010966
227	0xbced7665	-0.028987119
228	0x3ca561a9	0.02018817
229	0x3c82de3d	0.015975112
230	0x3cacfd2d	0.021116817
231	0x3c7626ac	0.0150238685
232	0xbcaf9615	-0.02143387
233	0xbd1c83e7	-0.03821173
234	0xbd16ee05	-0.036848087
235	0xbcc88aa7	-0.024480177
236	0x3c2d5e55	0.010581573
237	0x3bc404b5	0.0059820064
238	0x3d067608	0.032827407
239	0x3bc602b1	0.0060428013
240	0x3d47ae85	0.04875042
241	0x3d01ab95	0.031657774
242	0x3bbbf51a	0.0057360055
243	0x3cc65725	0.024211476
244	0xbc7f0d2c	-0.015567105
245	0xbca85fb7	-0.020553453
246	0xbd0c453f	-0.034245726
247	0x3d504250	0.05084449
248	0xbb34c4bc	-0.0027583083
249	0xbd6eafd1	-0.05827314
250	0xbc8c36d4	-0.017115988
251	0x3d6e8cf0	0.058239877
252	0x3c8d1b74	0.017225005
253	0xbd232a9e	-0.039835565
254	0x3c893279	0.0167477
255	0xbcbc716d	-0.023003304

action_model._continuous_distribution.mu.bias f4 [2]
0	0xbbc93d01	-0.0061413054
1	0xbb94398b	-0.004523461
