Simulator/results/test_training/My Behavior/My Behavior-64.pt (torch, 148011 bytes, 12 tensors)

network_body._body_endoder.seq_layers.0.weight f4 [128, 5]
000000 b1 bf 20 bf 45 86 5f be 8d b0 09 3f 19 a8 3c bf
       -0.627925 -0.21828564 0.5378502 -0.73693997
000010 71 de 2e 3f 89 5b 20 3f 35 4c 43 bf a5 7e f4 be
       0.6830817 0.6263967 -0.7628816 -0.47752872
000020 97 96 3c bf a7 19 88 be df 1b 6b 3e d5 b3 25 3d
       -0.7366728 -0.2658207 0.2295985 0.040454704
000030 12 a2 db 3b bd 5f 07 3f 9f c1 07 bf 4c 25 a9 3e
       0.00670267 0.5288046 -0.5302982 0.33036268
000040 6d 2d 86 be 04 5b 97 bd 07 13 41 bd d0 18 75 be
       -0.26206532 -0.07390407 -0.047137287 -0.23935246
000050 c6 8e c8 3b ac e9 3c bf eb ee fc 3e de dd 5a 3f
       0.0061205355 -0.73794055 0.4940103 0.8549479
000060 fb 67 94 be bf c2 84 3e d7 08 12 3f 6e 13 16 3f
       -0.2898558 0.2592983 0.5704474 0.586234
000070 d9 30 51 3d b1 9d 5e bd 4c da d9 be ab d8 35 3f
       0.051071975 -0.054349605 -0.4254936 0.71033734
000080 f0 ff ff 3d bb e6 10 bf ef 03 03 3f 67 27 61 3f
       0.12499988 -0.56602067 0.5117788 0.8795075
000090 bc e5 89 3e ef 0a bf bd 10 38 0d be a3 d9 55 3e
       0.26933086 -0.09328257 -0.13790917 0.20883803
0000a0 61 19 90 3e 29 82 ab 3d 80 0e 9b be e3 77 63 be
       0.28144363 0.083744355 -0.302845 -0.22213702
0000b0 60 54 0b 3e bc 64 12 be e3 68 1a be fa b3 8b bf
       0.13606405 -0.1429624 -0.15079074 -1.09143
0000c0 46 02 28 bc ee 8c 9d bf 5d 5b 55 bf 9e 45 9a be
       -0.010254448 -1.2308633 -0.83342534 -0.3013124
0000d0 ce ed 03 3f b4 3b c8 3b ac 6b 48 be 65 01 eb 3e
       0.51534736 0.006110633 -0.19572324 0.458995
0000e0 59 68 19 3f 9f 15 e9 be 79 fd bb be bf d8 8d 3e
       0.59924847 -0.45524308 -0.36716822 0.27704427
0000f0 f9 59 24 be 7a ac b2 3e 6d 52 18 bd fd 42 43 bf
       -0.16049947 0.34897214 -0.037187982 -0.7627409
000100 6f da 61 3f 93 c0 64 3f 8d f0 93 3e 79 94 67 bd
       0.8822393 0.89356345 0.28894463 -0.05653808
000110 fa d3 2d bf 9e 9c 63 3f a1 79 8e be 9b da e7 3d
       -0.67901576 0.88910854 -0.2782717 0.113209926
000120 10 13 66 3f 93 39 17 3f 3e cc 8c 3d cb 76 00 3e
       0.8987284 0.59072226 0.068748936 0.12545316
000130 2e 0a 0c 3f cc 59 0f 3f c6 30 25 be d8 34 66 3e
       0.5470303 0.55996394 -0.16131887 0.22481096
000140 88 37 0d 3f 6e 21 6c bd b7 ae 13 3d 89 1e 0c 3d
       0.5516286 -0.05764907 0.036055293 0.034208808
000150 1f bd 6c 3e 3e 99 f5 3e fb 59 85 be 63 ba 05 bf
       0.23119019 0.47968477 -0.26045212 -0.5223753
000160 77 61 04 bf 88 66 a3 bd c4 5f 42 bd ce 24 3c 3f
       -0.5171122 -0.07978541 -0.04745461 0.7349366
000170 62 1d ed 3d 2c ae 1d 3e b0 18 1a bf 53 ae c2 be
       0.1157787 0.15398473 -0.6019392 -0.38023624
000180 f4 39 2f 3c 3f ba d8 3d a5 fe 13 bf 35 60 32 3f
       0.010694969 0.105823986 -0.5781043 0.6967805
000190 f1 6d b8 3e 51 85 73 3e 04 65 12 3f f4 0a 01 bf
       0.3602138 0.23781325 0.5718539 -0.5040734
0001a0 23 99 8f 3c 0c e7 55 be e4 d1 ea be 80 1a 42 3e
       0.017529076 -0.20888919 -0.4586326 0.18955421
0001b0 19 2b dd be 11 30 a8 3d c2 1b b9 3d 20 96 37 3f
       -0.43196943 0.08212293 0.090384975 0.7171345
0001c0 7d 32 a3 be 3c 70 0d be c2 42 d9 be ca 25 c8 3e
       -0.31874457 -0.13812345 -0.42433745 0.3909133
0001d0 c8 ad ee 3d ae da 11 3e dc b0 d0 bd 2f 87 68 3f
       0.1165424 0.14243576 -0.10189983 0.90831274
0001e0 b1 e0 8f 3f ec 72 4d 3e 65 b1 23 be ee d8 9d 3f
       1.1240445 0.2006337 -0.1598564 1.2331827
0001f0 ef 7d d0 be 8f a5 93 3e 27 99 0e bf af ae ad be
       -0.4072108 0.2883725 -0.5570244 -0.33922336
000200 d5 80 79 3e ee b4 26 3f ac 22 34 be c5 f5 20 3e
       0.24365552 0.65119827 -0.17591351 0.15718754
000210 68 1a d0 be be 24 0c bf 0d a3 ae 3d 65 7b 82 3f
       -0.40645146 -0.54743564 0.08527193 1.0193907
000220 bd ac 1b 3f 73 5f 5a be c5 45 25 bf 2a d2 2a be
       0.6081045 -0.21325473 -0.64559585 -0.16681734
000230 ad 15 17 3f 6c 54 e0 be d3 ae 50 bf 22 65 65 3f
       0.5901745 -0.4381441 -0.8151676 0.8960744
000240 d6 88 90 be 2d c6 19 bf 98 ee 2c 3e be c6 7a 3d
       -0.28229398 -0.6006802 0.16887891 0.06122469
000250 5e 35 8c 3e 90 fc 05 bf 4d 3d f8 3d 0b 3e 47 be
       0.27384466 -0.52338505 0.12121067 -0.19457261
000260 0f 45 b4 be 93 c6 77 3e 7d 17 c6 3e 9c 95 23 bf
       -0.35208938 0.24196844 0.38689795 -0.6390016
000270 dc f1 d6 bd fb 0c ce bd 40 3c ca be a4 2f 23 be
       -0.1049535 -0.100610696 -0.39499092 -0.15936142
000280 2b d0 9c 3e 75 46 9d bd 06 6f 62 be ad 19 9d be
       0.3062757 -0.07679454 -0.22112665 -0.30683652
000290 fa ff a3 bd e5 36 8b be d9 55 1b bf 9b a6 f3 3e
       -0.08007808 -0.2719032 -0.6067787 0.47588047
0002a0 04 01 6a 3e 23 6b 59 3e 4e 06 cc 3e 93 be 4f be
       0.2285195 0.21232276 0.3984856 -0.20287542
0002b0 8d af ff be fe c9 70 bf 4f 11 34 3e c9 f2 87 3e
       -0.49938622 -0.94058216 0.17584728 0.26552418
0002c0 af 16 3d bf fc 0f d2 bd 04 4f e0 3d b7 30 5b be
       -0.7386274 -0.10256955 0.10952571 -0.21405302
0002d0 2a d7 a7 be e2 9a e1 be 3e c9 a0 be f1 5f b5 be
       -0.32781345 -0.4406348 -0.31403536 -0.3542476
0002e0 2c a5 0d bf e2 43 b8 3f 91 8f 18 bf bd 76 c0 3e
       -0.5533016 1.4395716 -0.59594065 0.3759059
0002f0 da a7 ba be 93 53 af be 52 45 07 3f 83 5f a6 3f
       -0.36456186 -0.3424345 0.5284015 1.2997898
000300 9e e2 88 be 07 f7 c4 3e 1c 6b 32 be 76 15 15 3f
       -0.26735395 0.38469717 -0.17423671 0.5823587
000310 9b a9 4f bf 0f af 86 bf 0c 1d 2e bf 79 7f 3c bd
       -0.8111817 -1.0522174 -0.6801307 -0.046020005
000320 f3 c6 7d 3e c2 cd 8b 3e 15 aa fd be ff 60 3c 3e
       0.24782924 0.27305418 -0.49543825 0.18396376
000330 39 a9 48 bf 63 8c 8d be 55 2d b0 be 92 2a 3c 3f
       -0.78383213 -0.2764617 -0.34409586 0.7350246
000340 36 73 83 bd d0 1c c5 be be d7 d7 3d 86 54 14 3f
       -0.06418459 -0.38498545 0.105391964 0.5794147
000350 92 bb c3 be 5a f5 4d 3f e3 f5 72 bf 7c 4e 2f bf
       -0.38229042 0.804525 -0.94906443 -0.6847913
000360 bf b3 4c 3f c9 6d 15 3d 46 b4 4a 3c a7 9d a7 3c
       0.7996177 0.036481652 0.012372082 0.020460917
000370 ae 9b c1 be f1 2a 2c 3e bc 41 a2 3e c1 e2 a7 3d
       -0.37814087 0.16813256 0.31690776 0.08197547
000380 45 68 ac 3c b5 3e 07 3f 23 e3 fd bc 19 ff df 3e
       0.021045813 0.5283006 -0.030992096 0.43749312
000390 8b 38 6c 3d a4 13 28 3e aa 25 6c 3e 16 03 dd be
       0.05767111 0.16413742 0.23061243 -0.43166417
0003a0 af 43 ca 3e 52 76 5a 3d 75 97 7f be ac 33 1c 3e
       0.39504763 0.053335495 -0.2496012 0.15254086
0003b0 e3 d3 18 3d c5 54 11 3f 63 ce d7 3e 33 d5 48 be
       0.037311446 0.56769973 0.42149648 -0.19612579
0003c0 ca 95 8b 3d 07 4a a2 be cd 88 d7 be 22 04 a0 3c
       0.06815679 -0.31697103 -0.42096558 0.01953322
0003d0 91 58 6c 3d a7 f9 79 be e0 e8 d5 be aa ab c0 3e
       0.05770165 -0.24411641 -0.41779232 0.3763097
0003e0 04 5c 2d bf d1 6b cd bd 14 d9 5b be 56 81 0f 3f
       -0.6771853 -0.1003033 -0.21469527 0.56056726
0003f0 58 07 25 3e 60 74 fa 3c 0e 4a d4 bc 6b 91 1b bd
       0.16116083 0.03057307 -0.025914218 -0.03798048

network_body._body_endoder.seq_layers.0.bias f4 [128]
000000 00 00 00 00 00 00 00 00 00 00 00 00 00 00 00 00
       0.0 0.0 0.0 0.0
000010 00 00 00 00 00 00 00 00 00 00 00 00 00 00 00 00
       0.0 0.0 0.0 0.0
000020 00 00 00 00 00 00 00 00 00 00 00 00 00 00 00 00
       0.0 0.0 0.0 0.0
000030 00 00 00 00 00 00 00 00 00 00 00 00 00 00 00 00
       0.0 0.0 0.0 0.0
000040 00 00 00 00 00 00 00 00 00 00 00 00 00 00 00 00
       0.0 0.0 0.0 0.0
000050 00 00 00 00 00 00 00 00 00 00 00 00 00 00 00 00
       0.0 0.0 0.0 0.0
000060 00 00 00 00 00 00 00 00 00 00 00 00 00 00 00 00
       0.0 0.0 0.0 0.0
000070 00 00 00 00 00 00 00 00 00 00 00 00 00 00 00 00
       0.0 0.0 0.0 0.0
000080 00 00 00 00 00 00 00 00 00 00 00 00 00 00 00 00
       0.0 0.0 0.0 0.0
000090 00 00 00 00 00 00 00 00 00 00 00 00 00 00 00 00
       0.0 0.0 0.0 0.0
0000a0 00 00 00 00 00 00 00 00 00 00 00 00 00 00 00 00
       0.0 0.0 0.0 0.0
0000b0 00 00 00 00 00 00 00 00 00 00 00 00 00 00 00 00
       0.0 0.0 0.0 0.0
0000c0 00 00 00 00 00 00 00 00 00 00 00 00 00 00 00 00
       0.0 0.0 0.0 0.0
0000d0 00 00 00 00 00 00 00 00 00 00 00 00 00 00 00 00
       0.0 0.0 0.0 0.0
0000e0 00 00 00 00 00 00 00 00 00 00 00 00 00 00 00 00
       0.0 0.0 0.0 0.0
0000f0 00 00 00 00 00 00 00 00 00 00 00 00 00 00 00 00
       0.0 0.0 0.0 0.0
000100 00 00 00 00 00 00 00 00 00 00 00 00 00 00 00 00
       0.0 0.0 0.0 0.0
000110 00 00 00 00 00 00 00 00 00 00 00 00 00 00 00 00
       0.0 0.0 0.0 0.0
000120 00 00 00 00 00 00 00 00 00 00 00 00 00 00 00 00
       0.0 0.0 0.0 0.0
000130 00 00 00 00 00 00 00 00 00 00 00 00 00 00 00 00
       0.0 0.0 0.0 0.0
000140 00 00 00 00 00 00 00 00 00 00 00 00 00 00 00 00
       0.0 0.0 0.0 0.0
000150 00 00 00 00 00 00 00 00 00 00 00 00 00 00 00 00
       0.0 0.0 0.0 0.0
000160 00 00 00 00 00 00 00 00 00 00 00 00 00 00 00 00
       0.0 0.0 0.0 0.0
000170 00 00 00 00 00 00 00 00 00 00 00 00 00 00 00 00
       0.0 0.0 0.0 0.0
000180 00 00 00 00 00 00 00 00 00 00 00 00 00 00 00 00
       0.0 0.0 0.0 0.0
000190 00 00 00 00 00 00 00 00 00 00 00 00 00 00 00 00
       0.0 0.0 0.0 0.0
0001a0 00 00 00 00 00 00 00 00 00 00 00 00 00 00 00 00
       0.0 0.0 0.0 0.0
0001b0 00 00 00 00 00 00 00 00 00 00 00 00 00 00 00 00
       0.0 0.0 0.0 0.0
0001c0 00 00 00 00 00 00 00 00 00 00 00 00 00 00 00 00
       0.0 0.0 0.0 0.0
0001d0 00 00 00 00 00 00 00 00 00 00 00 00 00 00 00 00
       0.0 0.0 0.0 0.0
0001e0 00 00 00 00 00 00 00 00 00 00 00 00 00 00 00 00
       0.0 0.0 0.0 0.0
0001f0 00 00 00 00 00 00 00 00 00 00 00 00 00 00 00 00
       0.0 0.0 0.0 0.0

network_body._body_endoder.seq_layers.2.weight f4 [128, 128]
000000 64 14 c8 3d 70 49 c0 3d 0f 27 85 3c bf 35 68 3d
       0.09769514 0.09389007 0.016253976 0.05669188
000010 45 3e 52 bd e8 8c 5e bc 9b d5 b6 bd d7 7d f9 3c
       -0.051328916 -0.013583399 -0.08927461 0.030455513
000020 8f 90 3c 3b 76 1d 51 3e e0 13 0f 3e b2 03 36 3e
       0.0028772687 0.20421395 0.13972425 0.17774847
000030 64 f7 22 be 2f 1a 11 bd ea 79 ea 3c 85 1d ef bd
       -0.15914685 -0.03542536 0.028622586 -0.11675552
000040 03 cb 35 be 4f 68 ec 3d 6d 8d 30 3d 44 05 e0 3c
       -0.17753224 0.11543333 0.043103624 0.02734626
000050 5b 24 ef bd 7f 85 6e 3c 22 aa 20 bd b7 f4 0d 3d
       -0.11676856 0.014558195 -0.03922475 0.034657206
000060 e5 49 1b 3d d4 f1 23 bd 48 51 9a 3d 20 88 d0 bc
       0.03791227 -0.040025547 0.075350344 -0.025455534
000070 e2 e6 20 3d fd 17 7f bd a2 00 3c 3d 3e 85 39 3d
       0.039282687 -0.062278736 0.04589904 0.045293085
000080 30 22 c1 3d f3 0c e7 3d b4 6b e3 3c 35 76 10 3d
       0.09430349 0.11281767 0.027761318 0.03526898
000090 14 81 9b bd a5 1f 12 3d db 81 09 bb f9 e4 3a be
       -0.07592979 0.03567471 -0.002098194 -0.18251409
0000a0 0d 5e b1 bd ab 42 e6 bc f9 c5 23 be 00 23 3f bd
       -0.08660517 -0.028107962 -0.1599349 -0.046664238
0000b0 6d 69 1c 3d 75 d0 c8 3c 58 b5 05 3e e9 ac c9 3d
       0.03818648 0.024513463 0.13057458 0.09847433
0000c0 e3 26 65 bd 28 13 52 3d f6 59 21 bd 5e 66 77 bd
       -0.05594529 0.0512878 -0.039392434 -0.06040036
0000d0 2b ad c9 bd 60 cc 27 bc 14 f6 f3 bc b9 2e 9d 3d
       -0.09847482 -0.010241598 -0.029780425 0.07674927
0000e0 70 3e 85 3d 3c 67 ff bd e8 28 9c bd 4d 98 cd bc
       0.0650605 -0.12470862 -0.0762499 -0.025097037
0000f0 fb cb 99 bd fb b8 3e 3c d2 1e ef 3d 47 61 24 bd
       -0.07509609 0.0116407825 0.116758004 -0.040131833
000100 db 38 9b bd 36 19 01 be 45 b5 9a bc ee ea 22 bb
       -0.07579204 -0.12607273 -0.018885264 -0.0024859267
000110 a1 81 0f 3c d0 be e9 bc 97 e5 9d 3c f5 ed 6b bd
       0.008758933 -0.02853337 0.019274516 -0.05759998
000120 30 81 9e bd 67 3e e3 bb 54 3f 51 3c 1a e4 ad 3d
       -0.07739484 -0.006934929 0.012771446 0.084907725
000130 e3 66 1c bc 14 2c c5 3d d9 1f 84 3d 12 bc a6 bd
       -0.0095460145 0.09627548 0.06451387 -0.0814134
000140 6f 87 70 bd 0d 0b e7 bd 9e 9f 62 3c fa 86 41 bd
       -0.05872291 -0.11281405 0.013832001 -0.047247864
000150 6e a6 94 3d c3 23 19 bd ed ba b8 bd ad 6e 66 3d
       0.072583064 -0.03738762 -0.09020028 0.056257892
000160 17 8f 35 3e 56 c5 47 be 2a 7b 47 bd 79 0a 5a bd
       0.17730366 -0.19508871 -0.048701443 -0.053232644
000170 fe d9 97 bd 39 e1 8d bd 7f 5e 8b bd bb 0e 28 bd
       -0.074146256 -0.069277234 -0.06805133 -0.041029673
000180 8f 73 12 3e 66 de a0 bd 5c 6e 71 3d cb 36 45 3d
       0.14301895 -0.07854919 0.058943138 0.048147958
000190 b6 72 92 3c 6c b1 37 be d3 14 b5 3d fc 7e 93 3d
       0.017876964 -0.17938775 0.088418625 0.07201955
0001a0 cf d9 6c bd 81 f2 9f ba ef 18 a6 3d 56 49 e5 bc
       -0.057824906 -0.0012203009 0.081102245 -0.02798907
0001b0 2e 5c 2e 3e 3c f8 7a be 1f 6f 27 3e 4b 6e f5 bc
       0.17027351 -0.24508756 0.16350983 -0.029959818
0001c0 51 4d 46 bd 27 12 1c 3c 3b 27 d8 bd 6f 6a 46 bc
       -0.04841358 0.009525812 -0.105543576 -0.012110337
0001d0 9a 08 1a be ca 0f 4f 3c ee 85 dd bd 67 22 d8 bd
       -0.15042344 0.012638042 -0.10816561 -0.10553437
0001e0 e6 dc 81 bd 7e 28 90 3d 70 79 d8 bb c8 3e 43 bb
       -0.06340961 0.07038973 -0.0066062734 -0.002979206
0001f0 16 88 bf bd 81 c4 da bd 3f ea 29 bc ab 85 c8 bd
       -0.09352128 -0.106820114 -0.01037079 -0.0979112
000200 11 96 e4 3d 33 04 76 3d b5 d6 bd bd 8b 48 01 3e
       0.111614354 0.0600626 -0.09269468 0.12625329
000210 02 82 a9 ba 17 ab a6 bc 6c 26 cd 3a ed a7 e2 bc
       -0.0012932422 -0.020345254 0.0015651709 -0.027667964
000220 28 ca 41 3e ec 12 a2 bc 37 de 4b bd ad 8d 8c 3d
       0.18924773 -0.019784413 -0.049772467 0.0686296
000230 5a 85 7d bc ee d3 4c bd 83 4b 21 be c3 26 81 3b
       -0.015473688 -0.0500068 -0.15751462 0.0039413883
000240 10 4e 3a bc bf 06 84 3d 58 85 c7 bd 82 18 d4 3d
       -0.011371151 0.06446599 -0.0974223 0.10356237
000250 6e 2a 0d 3d 6a 04 fa bc 21 2e 2d bd be 82 22 3d
       0.034464292 -0.030519683 -0.04228032 0.039675467
000260 dc 95 23 3e 75 07 c5 bc 5e 58 ad 3c 37 02 b3 bd
       0.15975136 -0.024051407 0.0211603 -0.08740657
000270 e1 f4 0b 3c 5c 90 0d 3e 30 87 3b be da 2d d9 bc
       0.00854227 0.138246 -0.18313289 -0.026511122
000280 94 f8 c3 bd c1 6e 0e be 04 b5 2d be 29 88 2e be
       -0.09568897 -0.13909437 -0.16963583 -0.17044128
000290 ff 94 ca bc 81 92 34 be 28 e1 89 3d 6c 2e 60 3d
       -0.02472925 -0.17634012 0.06732398 0.05473177
0002a0 e0 10 13 3d 88 4d a1 3d 30 fa 20 be 36 cf b1 3d
       0.035904765 0.07876116 -0.15720439 0.086821005
0002b0 4e 99 d3 bc c5 d9 3b 3e 24 80 30 38 81 fa 26 bd
       -0.025829937 0.18344791 4.208101e-05 -0.040766243
0002c0 83 a6 9e 3d 8e a8 d3 3d d3 bd f5 3d f0 a6 cd 3c
       0.07746603 0.10334884 0.11999097 0.025104016
0002d0 14 e5 16 3e 3d 71 a3 bd 47 c7 0d 3d d2 04 7c 3b
       0.14735824 -0.07980583 0.034613874 0.0038455022
0002e0 04 00 83 bd 7b 2d cd bd 28 9e d5 3d 88 eb ac 39
       -0.06396487 -0.1001844 0.104305565 0.0003298188
0002f0 dd 89 e1 bd 03 70 97 3c 61 0f bb bd a3 01 99 bd
       -0.110126235 0.018486029 -0.09133793 -0.07471015
000300 7f d2 f8 3d 53 02 4b bc ba d5 70 3d 3b 48 a8 bd
       0.12149524 -0.012390691 0.058797576 -0.08216902
000310 04 80 61 3d 29 f6 f2 bd 9c 8d 86 3c 64 49 90 bd
       0.055053726 -0.118633576 0.016424946 -0.07045248
000320 a1 e5 a3 bd f8 c4 e6 bc e3 f4 11 3b 19 1b 5d be
       -0.080027826 -0.028170094 0.0022271208 -0.21592368
000330 42 94 12 3e 99 eb 1b be b8 c4 ff bc 10 14 ca 3d
       0.14314368 -0.15226592 -0.031221732 0.09867108
000340 e7 fd a0 3d 37 07 00 3e c2 84 c4 bd 30 ea 3d 3c
       0.07860928 0.12502752 -0.09595634 0.011591479
000350 b8 74 ae 3d a5 35 5c 3d 93 a7 a1 3d 84 41 16 3d
       0.08518356 0.053762097 0.0789329 0.036683574
000360 64 0c 81 3d 8f 25 38 3e 89 da cf 3d ab 8c 99 bd
       0.063011914 0.17983077 0.10149104 -0.074975334
000370 62 67 06 be 4d 7d 0f bd 80 98 44 3e 65 28 9b 3d
       -0.13125375 -0.035031606 0.19198799 0.07576064
000380 13 93 b9 bd 70 cd 04 be 37 3a bb bd 73 1c 78 bc
       -0.09061255 -0.12968993 -0.09141963 -0.015143502
000390 a8 5c 7a bc 75 be 96 3d 20 bc a4 3d b7 68 d2 3b
       -0.01528088 0.073605455 0.080436945 0.0064211744
0003a0 a5 e4 00 3d c9 14 9d bd aa c7 c6 3d 55 6b de 3c
       0.031468052 -0.0766998 0.09706052 0.02715079
0003b0 e0 7d ff ba ca 5e 8e 3d 5a 61 01 3d 12 e5 83 3d
       -0.001949247 0.06951673 0.031586982 0.06440176
0003c0 1e 47 48 bd d7 8a 04 3d b8 b9 cc bb 2b 28 e1 bd
       -0.048895948 0.03235897 -0.0062477253 -0.109939896
0003d0 24 2a e1 bd 7c 94 83 3c 70 2a f1 bc 1e 2b b6 3d
       -0.10994366 0.016062014 -0.029439181 0.08894943
0003e0 fb 8c 8d bd c4 07 40 be 32 0f bd bd 17 db 3c 3e
       -0.069116555 -0.18752962 -0.09231414 0.18442951
0003f0 0d 1b ff bd 5d a5 ac bd e6 59 b2 bc c2 73 3f be
       -0.124563314 -0.08429978 -0.021771383 -0.18696502

network_body._body_endoder.seq_layers.2.bias f4 [128]
000000 00 00 00 00 00 00 00 00 00 00 00 00 00 00 00 00
       0.0 0.0 0.0 0.0
000010 00 00 00 00 00 00 00 00 00 00 00 00 00 00 00 00
       0.0 0.0 0.0 0.0
000020 00 00 00 00 00 00 00 00 00 00 00 00 00 00 00 00
       0.0 0.0 0.0 0.0
000030 00 00 00 00 00 00 00 00 00 00 00 00 00 00 00 00
       0.0 0.0 0.0 0.0
000040 00 00 00 00 00 00 00 00 00 00 00 00 00 00 00 00
       0.0 0.0 0.0 0.0
000050 00 00 00 00 00 00 00 00 00 00 00 00 00 00 00 00
       0.0 0.0 0.0 0.0
000060 00 00 00 00 00 00 00 00 00 00 00 00 00 00 00 00
       0.0 0.0 0.0 0.0
000070 00 00 00 00 00 00 00 00 00 00 00 00 00 00 00 00
       0.0 0.0 0.0 0.0
000080 00 00 00 00 00 00 00 00 00 00 00 00 00 00 00 00
       0.0 0.0 0.0 0.0
000090 00 00 00 00 00 00 00 00 00 00 00 00 00 00 00 00
       0.0 0.0 0.0 0.0
0000a0 00 00 00 00 00 00 00 00 00 00 00 00 00 00 00 00
       0.0 0.0 0.0 0.0
0000b0 00 00 00 00 00 00 00 00 00 00 00 00 00 00 00 00
       0.0 0.0 0.0 0.0
0000c0 00 00 00 00 00 00 00 00 00 00 00 00 00 00 00 00
       0.0 0.0 0.0 0.0
0000d0 00 00 00 00 00 00 00 00 00 00 00 00 00 00 00 00
       0.0 0.0 0.0 0.0
0000e0 00 00 00 00 00 00 00 00 00 00 00 00 00 00 00 00
       0.0 0.0 0.0 0.0
0000f0 00 00 00 00 00 00 00 00 00 00 00 00 00 00 00 00
       0.0 0.0 0.0 0.0
000100 00 00 00 00 00 00 00 00 00 00 00 00 00 00 00 00
       0.0 0.0 0.0 0.0
000110 00 00 00 00 00 00 00 00 00 00 00 00 00 00 00 00
       0.0 0.0 0.0 0.0
000120 00 00 00 00 00 00 00 00 00 00 00 00 00 00 00 00
       0.0 0.0 0.0 0.0
000130 00 00 00 00 00 00 00 00 00 00 00 00 00 00 00 00
       0.0 0.0 0.0 0.0
000140 00 00 00 00 00 00 00 00 00 00 00 00 00 00 00 00
       0.0 0.0 0.0 0.0
000150 00 00 00 00 00 00 00 00 00 00 00 00 00 00 00 00
       0.0 0.0 0.0 0.0
000160 00 00 00 00 00 00 00 00 00 00 00 00 00 00 00 00
       0.0 0.0 0.0 0.0
000170 00 00 00 00 00 00 00 00 00 00 00 00 00 00 00 00
       0.0 0.0 0.0 0.0
000180 00 00 00 00 00 00 00 00 00 00 00 00 00 00 00 00
       0.0 0.0 0.0 0.0
000190 00 00 00 00 00 00 00 00 00 00 00 00 00 00 00 00
       0.0 0.0 0.0 0.0
0001a0 00 00 00 00 00 00 00 00 00 00 00 00 00 00 00 00
       0.0 0.0 0.0 0.0
0001b0 00 00 00 00 00 00 00 00 00 00 00 00 00 00 00 00
       0.0 0.0 0.0 0.0
0001c0 00 00 00 00 00 00 00 00 00 00 00 00 00 00 00 00
       0.0 0.0 0.0 0.0
0001d0 00 00 00 00 00 00 00 00 00 00 00 00 00 00 00 00
       0.0 0.0 0.0 0.0
0001e0 00 00 00 00 00 00 00 00 00 00 00 00 00 00 00 00
       0.0 0.0 0.0 0.0
0001f0 00 00 00 00 00 00 00 00 00 00 00 00 00 00 00 00
       0.0 0.0 0.0 0.0

action_model._continuous_distribution.log_sigma f4 [1, 2]
000000 00 00 00 00 00 00 00 00
       0.0 0.0

action_model._continuous_distribution.mu.weight f4 [2, 128]
000000 d9 4f 22 3b 6d a2 79 bc 68 b0 27 bc 18 61 b4 3c
       0.0024766831 -0.015236479 -0.01023493 0.022018954
000010 0b df 12 bb 22 81 55 bc 00 71 81 bc 40 6d 50 bb
       -0.0022410776 -0.013031276 -0.015800953 -0.00318034
000020 4e c8 b1 3c 4c cd 8f 3c 43 48 5e 3c ef ef b1 3c
       0.021701958 0.017553948 0.013567033 0.021720855
000030 6a 20 03 bd 67 ad 82 ba 8b f0 b0 bc ae f1 cb 3a
       -0.032013334 -0.0009969891 -0.021599075 0.0015559697
000040 76 b3 96 3c 47 54 82 bc 82 a5 29 3c ac c5 b4 3c
       0.01839612 -0.015909327 0.010354402 0.022066914
000050 f4 d1 2e 3c ef 49 ef bc 1d 04 a2 3c 9c b0 8b bb
       0.010670174 -0.029210059 0.019777352 -0.004262997
000060 9e 13 b3 3c a5 58 b5 3c a5 24 cc bc 6f 09 8b 3c
       0.02185994 0.022136996 -0.024919817 0.016972272
000070 2a fe 91 bc bc d8 0b 3d d2 0c 2e bc 1d 4e 77 bb
       -0.01782139 0.03414224 -0.010623174 -0.0037735768
000080 47 f9 e5 bb 17 a2 f5 b9 b7 68 b7 3c 43 13 e6 bc
       -0.0070182416 -0.00046850808 0.0223888 -0.028085357
000090 82 70 97 bc 5f 0b 97 bc c1 37 c2 3b 21 4f 8b 3c
       -0.018486265 -0.01843804 0.0059270565 0.017005505
0000a0 7f ee 04 3d f1 36 80 3c 4d ac e4 3c 7b cf ff bb
       0.03245401 0.015651198 0.02791419 -0.007806716
0000b0 ea 10 9c bc f5 79 8a bc eb e3 d2 3c 66 93 a9 bb
       -0.019051034 -0.016903857 0.025743445 -0.005175042
0000c0 59 1a 09 3d 40 1d 4d 3c 9b 46 59 bd 71 58 8b 3c
       0.033472393 0.012519181 -0.05304585 0.017009946
0000d0 0f 6f b9 3b 83 e7 52 bc ed 68 a9 bb 6d 09 93 3a
       0.005658991 -0.0128725795 -0.005169979 0.0011218019
0000e0 cf 19 1b 3b 4b b7 30 3c b0 93 36 3c fd fd dd 3c
       0.0023666506 0.010785888 0.01114361 0.02709865
0000f0 ae b9 b4 3c 7f 11 c4 3b ee a7 95 bc b7 e0 6f 3c
       0.022061195 0.005983531 -0.018268552 0.014640979
000100 17 12 86 bc b5 b7 6d 3c de 25 9e bc 65 50 2a 3c
       -0.016366048 0.014509131 -0.019305166 0.010395144
000110 97 d0 dd 3b 53 71 d7 3b 4d 23 68 bc ff 63 5b 3c
       0.0067692506 0.0065747886 -0.014168573 0.01339054
000120 0d 99 93 bc 03 32 e4 3c f2 a0 54 3c 91 ae 2a bc
       -0.018017316 0.027855879 0.0129778255 -0.010417596
000130 49 f4 04 3d 7d 5d 07 bc dc b2 8f bc b3 00 82 bc
       0.03245953 -0.008262035 -0.017541341 -0.015869474
000140 b8 28 d7 bb 87 81 3e 3b a7 c8 04 bc d5 f2 cc 3c
       -0.0065661334 0.0029068904 -0.00810448 0.025018135
000150 3e ef 26 bc df 4e 61 3c a7 df 0b bc 51 28 32 bc
       -0.010188876 0.0137517145 -0.00853721 -0.01087387
000160 bf ec 44 bb d1 48 9e bb 43 71 03 3d df 42 0b bb
       -0.0030048338 -0.0048304577 0.032090437 -0.0021249575
000170 a8 a6 6d 3c 70 fa 35 bc 1f 53 21 3c 15 fe 51 3b
       0.014505066 -0.011107072 0.009846478 0.0032042314
000180 a5 bd e4 bb 45 9d e8 bc ba 05 51 3c 03 20 2c bd
       -0.006980615 -0.028395304 0.012757713 -0.042022716
000190 7a 2d ec 3b f2 0b 60 3c 39 b3 86 3c c5 c9 1a bc
       0.0072075697 0.013674723 0.016442882 -0.00944752
0001a0 bb 43 75 3c 8c d7 3f bb 50 39 75 3c eb 40 25 bc
       0.0149697615 -0.0029272763 0.014967278 -0.010086278
0001b0 53 2a 6a 3c 7b 2c 16 3d c7 dd 5d 3b a8 d4 ca 3b
       0.014292317 0.036663514 0.0033854113 0.0061899014
0001c0 e9 97 92 bc a4 b2 b1 bb bf 1d ff bc 6a 30 e8 3c
       -0.017894702 -0.005422907 -0.031142114 0.028343398
0001d0 3b 71 3f 3c 96 74 c5 3a 67 33 01 3b 36 e0 aa bb
       0.011684711 0.0015064653 0.0019714476 -0.0052147163
0001e0 88 b2 88 ba aa 34 c2 3b 78 49 2a 3c 90 89 36 bc
       -0.0010429183 0.005926688 0.010393493 -0.011141196
0001f0 93 57 3f 3c 9f 3a 5a 3c 67 f7 2c 3c 42 9b 4c bc
       0.011678594 0.01331964 0.010557032 -0.012488188
000200 fa c8 48 3c cf 0b 3a 3c 3f 36 a8 bb 47 c4 08 3b
       0.012254948 0.011355354 -0.0051334198 0.0020868944
000210 b5 1e 9e bc 81 a9 c2 39 7b fa 8b bc 7f 8c a1 3c
       -0.019301752 0.00037128854 -0.017087212 0.019720314
000220 09 77 a3 bc 93 db 8f 3b 3b 6a 37 bc a1 41 35 bc
       -0.019954221 0.004390189 -0.011194761 -0.01106301
000230 27 c1 a0 bc a0 32 dc 3c 22 b9 a9 bc 7f 4b 1c 3d
       -0.019623352 0.026879609 -0.020718161 0.038157936
000240 29 2e 92 bc a1 14 9c 3c 70 d1 5a bc 52 87 01 bb
       -0.017844277 0.019052805 -0.013355598 -0.0019764495
000250 f8 26 aa 3c 17 84 b0 3c b0 26 a1 3c 65 06 0e 3d
       0.020770535 0.02154736 0.019671768 0.034674067
000260 a2 b6 dd bb 16 75 ba bc 77 b7 28 3c 00 ef 71 3c
       -0.0067661563 -0.022760909 0.010297648 0.014766455
000270 80 3b 60 b9 03 cc b0 3c eb 76 90 3c 31 47 13 bc
       -0.0002138447 0.021581655 0.01763483 -0.008989141
000280 4d 9f 02 bc 56 60 8b 3c 53 79 2f bc 77 69 95 3c
       -0.007972551 0.01701371 -0.010710078 0.018238766
000290 32 c9 57 3d 11 31 9f bc 8f 20 b6 bc fe 8c 80 bc
       0.05268211 -0.019432576 -0.022232322 -0.01569223
0002a0 d1 3f 01 3a 03 89 b8 3a b3 0a d7 bc dd a7 cd 3b
       0.0004930469 0.0014078919 -0.026250219 0.0062761144
0002b0 e9 ed 8d 3c 13 78 18 3c 20 51 a3 3c d7 56 92 3c
       0.017325358 0.009305972 0.019936144 0.017863674
0002c0 93 5c 97 bb e2 b4 ab bc eb 56 9c bc e5 65 1b bd
       -0.00461919 -0.020960275 -0.019084414 -0.03793897
0002d0 09 2f 25 3c 45 83 92 bb 42 c6 5a 3b 2a 88 a3 bc
       0.010082015 -0.004471215 0.003338233 -0.019962389
0002e0 2b 6c a0 3c 60 c0 5a bc e3 d0 4f bc 78 94 40 bc
       0.019582829 -0.01335153 -0.01268408 -0.011754148
0002f0 b7 94 f1 bc 80 6f 5e bc d4 64 1b 3c ed b4 a8 b8
       -0.029489858 -0.013576388 0.0094844885 -8.044564e-05
000300 29 ac 87 3b 8c 5b b5 bb c1 ea b0 3b b4 72 83 3a
       0.004140396 -0.005534595 0.0053990786 0.0010028691
000310 cf cc c6 bc fe 64 04 3c 7b ee 94 bc 24 37 9f 3c
       -0.024267582 0.008080719 -0.018180123 0.019435473
000320 2c 04 a8 bc b8 ce 23 ba 9b b0 fa 3c 81 57 41 3c
       -0.020509802 -0.000624876 0.03060179 0.011800648
000330 6a d9 c6 bb 13 4b 88 bb 0f c1 b7 3a e0 f0 17 3c
       -0.0060683982 -0.00415934 0.0014019328 0.009273738
000340 a3 2b 05 bc 7b 90 e2 bb 28 3f ef 3a 92 8b 14 3d
       -0.00812808 -0.006914196 0.0018253075 0.036265917
000350 b7 6f b7 bc 2b 4e 18 3d d0 0f 0b 3d be b1 38 bc
       -0.022392137 0.03718392 0.033950627 -0.011272846
000360 d6 f9 29 bc 37 3b 9f 3b f3 76 66 bc cb c9 f9 3c
       -0.010374507 0.004859354 -0.014066446 0.03049173
000370 f6 59 27 bc c5 11 fd 3c 21 aa 06 bc dd c6 58 3c
       -0.010214319 0.030892262 -0.008219273 0.013231006
000380 df ac 9e ba 4f 5c 08 bc 67 6d b9 3c 95 a9 58 3c
       -0.0012105963 -0.008322789 0.022635175 0.013224025
000390 fc 7e 37 bd 65 13 f4 3c 0f ed 90 3c f5 10 61 bb
       -0.044798836 0.029794404 0.017691163 -0.0034342383
0003a0 00 6a 4e 3c 07 be 51 bc 2f 79 af bc 5a bb c3 3b
       0.012598515 -0.012801654 -0.02142009 0.005973262
0003b0 9b 1b 26 3c 70 34 f3 3b 3f 62 6c bc d3 04 80 3b
       0.010138418 0.0074220225 -0.014427721 0.003906825
0003c0 8d af ef 3a 37 43 81 3c e7 22 ec bb 37 3f fa bb
       0.0018286571 0.01577912 -0.007206309 -0.0076369303
0003d0 e3 ec 5c 3b dd cd 5e 3c c9 9b 8d 3b e3 b7 d6 3c
       0.0033710531 0.013598886 0.0043215496 0.02621073
0003e0 f2 37 ba bb 18 f3 90 3b 43 87 1d bc 14 8d 37 3a
       -0.0056829387 0.0044235103 -0.009614768 0.0007001918
0003f0 43 8d e2 3c ea 7d 1f bc 98 d6 73 3c 6e 7f bb 3c
       0.02765525 -0.00973461 0.014882706 0.022887912

action_model._continuous_distribution.mu.bias f4 [2]
000000 00 00 00 00 00 00 00 00
       0.0 0.0

network_body._body_endoder.seq_layers.0.weight f4 [128, 5]
000000 71 35 77 be b6 18 79 bd f1 24 1f 3f 56 7b 25 be
       -0.2414148 -0.06081458 0.62165743 -0.1616033
000010 2f 48 6e be 6d 22 02 3f e6 39 eb be 6c 57 37 bf
       -0.23269723 0.5083378 -0.4594261 -0.7161777
000020 d2 c7 ec be f5 03 bf bd a6 b4 05 bf 2c a7 1c bf
       -0.462462 -0.093269266 -0.5222877 -0.61192584
000030 d2 46 ec 3c 89 61 60 3f 56 c6 cf 3d 45 8f bb 3e
       0.028842364 0.87648827 0.101452515 0.36632743
000040 cc 38 0d 3e 37 12 a5 3e 27 ba 27 3d a9 94 c9 be
       0.13791198 0.3224046 0.040949013 -0.3937123
000050 47 b6 a0 3d 4a 51 3d 3e 70 6f dd 3e 7b ba af be
       0.07847267 0.1848804 0.43249083 -0.3432196
000060 88 43 9b be 15 7f 8d bd 1b 65 d7 3e dd 95 87 be
       -0.3032496 -0.069090046 0.42069325 -0.26481524
000070 c9 cf 0d 3e 92 3e 16 bf 10 1f c5 be 4b 30 5d bf
       0.13848795 -0.58689225 -0.3850026 -0.86401814
000080 32 ed fb be 8f 0e 0c 3f e4 18 69 3e d7 e3 44 3f
       -0.49204403 0.54709715 0.22763401 0.76910156
000090 bd 36 09 3e f9 e0 e3 be b9 59 63 bf dd 2d 17 3e
       0.13399787 -0.44507578 -0.8880878 0.14763589
0000a0 23 d8 61 be 83 e7 3f bf 9e 6f 59 3e 4b ba 61 3e
       -0.22055106 -0.74962634 0.21233985 0.22043721
0000b0 4e be 93 be ff 23 8f 3f a6 88 b5 be 68 8c 89 3e
       -0.28856128 1.118286 -0.35455817 0.26864934
0000c0 59 3f c1 3d 60 b6 1f bf da e6 83 3f 02 4b d7 be
       0.09435911 -0.6238766 1.0304825 -0.42049414
0000d0 e1 5b c3 bd 1a 76 d2 bc 87 91 e1 be 91 23 d2 3d
       -0.09539009 -0.02569108 -0.4405634 0.1026069
0000e0 cf 0d 98 be 02 37 1b bd 82 d5 1c be cb 0a bc 3e
       -0.29698035 -0.037894256 -0.15315822 0.36726984
0000f0 d3 a7 83 3d 26 d8 82 3e 71 89 c7 be b4 7b 90 3e
       0.06428494 0.25555533 -0.38972047 0.28219378
000100 8e 4a 38 3e 40 7c 11 be ed 07 ee 3e ea 3f ca bc
       0.1799719 -0.14207554 0.46490422 -0.02468868
000110 e8 5c 87 be 8d bb 8c 3f 25 d6 87 3e fb a7 36 3f
       -0.2643807 1.0994736 0.26530567 0.7135007
000120 6f f1 1b 3f f7 34 0f bf 8b 43 ba be be 24 90 bd
       0.60915273 -0.5594019 -0.36379656 -0.07038258
000130 f1 53 70 be e9 27 fe bc 73 14 f2 be 30 6a 1f 3f
       -0.23469521 -0.03102489 -0.47281227 0.62271404
000140 87 13 37 bf 06 d7 58 bf 6d bd 1a be 80 ff 21 be
       -0.7151417 -0.847031 -0.15111323 -0.15820122
000150 86 d8 56 3f 15 e4 9e 3e 83 f6 86 be aa 38 55 3d
       0.8392414 0.31033388 -0.2635995 0.052055992
000160 84 0b a6 3d f8 52 2b bf b6 1f cb 3e 6c 5d fa 3e
       0.08107665 -0.66923475 0.3967263 0.488994
000170 fa 94 14 3f b8 2a a0 3e db c7 c7 3e 25 c4 f5 be
       0.5803982 0.31282592 0.39019665 -0.4800121
000180 20 fc 69 3e 0c 2d 27 bf 18 1b ea be 28 3a f6 be
       0.22850084 -0.6530311 -0.45723796 -0.48091245
000190 ce 80 01 3e ea f4 f2 bd 2e 38 f0 be a0 65 ea be
       0.12646791 -0.1186312 -0.46917862 -0.4578066
0001a0 ec 74 73 bf c4 ef c9 bd ba 23 a2 be f0 45 82 be
       -0.95100284 -0.09860185 -0.31667882 -0.25443983
0001b0 64 51 30 bf ac 3f 96 3e ca e9 af be 86 a1 82 bd
       -0.6887419 0.29345453 -0.34358054 -0.063784644
0001c0 c6 67 04 bf 0f 6b 85 be 0d 70 a3 be 11 5d 7b bf
       -0.51720846 -0.26058242 -0.31921425 -0.98188883
0001d0 5f ee 42 3e ce eb 33 bf 2e 80 12 3e 20 da 31 bf
       0.19036244 -0.70281684 0.14306709 -0.6947346
0001e0 3b e6 b3 be 1d e9 3e 3e 82 ed 5a bd e1 82 88 3b
       -0.3513659 0.18643613 -0.05344916 0.0041659926
0001f0 7a da de 3e 35 04 b1 3d 57 36 de bd 24 91 2b be
       0.4352606 0.086433806 -0.10850208 -0.16754586
000200 4b 2e 0e 3f db 87 c5 b9 9e 90 09 bf 17 0b 06 bf
       0.5553939 -0.00037675988 -0.53736293 -0.5236067
000210 d3 3a 3f 3e 5a dc da be a5 67 b1 bd f8 70 2f be
       0.18674783 -0.4274624 -0.08662347 -0.17132938
000220 a2 18 95 3e 61 63 dc 3e 46 8e 73 3e aa ee f4 be
       0.29120356 0.4304457 0.23784742 -0.47838336
000230 ed c4 94 3f 86 7a 69 be 0c e9 b6 be 41 9a 0f bf
       1.1622597 -0.22800645 -0.35724676 -0.5609475
000240 2c 7a 52 3e 11 2b 02 bf 3c 16 f5 3e b6 d9 09 be
       0.20554417 -0.50846964 0.47868526 -0.13461956
000250 cb 37 51 be 3f b2 94 3f 66 e2 fe be ae 4d 33 3f
       -0.2043144 1.1616896 -0.49782103 0.70040405
000260 9d 01 10 bf 15 e5 49 be 66 39 30 3e 32 87 9c be
       -0.5625246 -0.19716294 0.17209396 -0.30571896
000270 d3 23 82 be ad 88 61 3e 51 3b 2b 3f 3d fd fe bd
       -0.25417957 0.22024794 0.66887385 -0.12450645
000280 1a 56 26 3e 1c a2 ae bd b5 61 0d 3e 80 71 2e bf
       0.16243783 -0.08527014 0.13806804 -0.6814194
000290 5e 4e 39 3e 78 8d 5c bf 02 1a 15 3f f9 be 2d bf
       0.18096301 -0.86153364 0.5824281 -0.67869526
0002a0 be d2 69 be 68 0c 2b bf 71 05 3d bf f9 f7 0e 3f
       -0.22834298 -0.66815805 -0.7383643 0.55847126
0002b0 d1 6b 2b bf 11 22 75 3c e8 e8 99 3b a2 46 f1 3e
       -0.6696139 0.014961735 0.004696954 0.471242
0002c0 fc c2 86 be ed d1 f8 bc 72 c9 9b 3e 8e 84 ec be
       -0.26320636 -0.030373538 0.30427128 -0.4619488
0002d0 cd 6b 82 3e ef 59 1a 3f d6 a2 06 3d 5e 10 15 3e
       0.2547287 0.6029348 0.032870136 0.14557025
0002e0 9a a9 95 3e d3 b4 f3 3e 50 5c 22 bd 61 11 44 3f
       0.29230958 0.47598895 -0.039638817 0.7658902
0002f0 0a 03 1f bf 98 87 92 be 70 d9 2f be 29 a2 f7 3e
       -0.6211401 -0.28619075 -0.1717279 0.48365906
000300 8c 80 81 3d 40 07 b3 bf 81 e0 42 3e ff ee 85 be
       0.063233465 -1.3986588 0.19030954 -0.26158902
000310 e5 9b bc be 1d fc 0f 3f 65 e1 1b bd c1 de dc be
       -0.36837688 0.5624407 -0.03805675 -0.43138698
000320 ac b5 e8 3e 95 b1 12 bf 19 5e 9b 3e c9 9f 94 bf
       0.45451105 -0.5730222 0.30345228 -1.1611263
000330 09 d5 58 be 6a 91 ed 3d e1 fb 3a be 67 63 af be
       -0.21175016 0.11600001 -0.18260147 -0.34255525
000340 4e 51 26 3e ca d9 15 be 49 3c ae be d9 66 8d bf
       0.16241953 -0.14633861 -0.3403037 -1.1047012
000350 3c ae 05 3e 8c d3 09 bf ab 45 35 be c8 1e 30 bf
       0.13054746 -0.5383842 -0.17702357 -0.6879697
000360 78 1a f4 3e 79 4e 82 bf 36 48 f0 bc bd 18 1a 3f
       0.47676444 -1.0180198 -0.029331308 0.60194
000370 e4 6a e6 be fb 09 bd 3e bc ae 34 3f b5 f2 e7 be
       -0.45003426 0.36921677 0.70579123 -0.45302358
000380 c2 87 04 bf 7a 37 2e bf 02 08 b5 bc 65 73 1f 3d
       -0.5176965 -0.680534 -0.022098545 0.03892841
000390 ea 3f dc 3e 37 d6 b4 be ba a5 80 be c4 c4 aa bc
       0.43017513 -0.35319683 -0.2512644 -0.020845778
0003a0 8f 62 02 3e 05 50 92 bd 76 4e e0 bd f3 90 48 bf
       0.1273291 -0.07144169 -0.10952465 -0.78346175
0003b0 67 4c 16 bf 45 09 27 3f 9c d3 af 3e 4e 97 7c be
       -0.5871033 0.6524852 0.34341133 -0.24667093
0003c0 20 8a e0 be 1e e0 b8 be a5 35 53 be 18 9b c5 3e
       -0.4385538 -0.36108488 -0.20625933 0.3859489
0003d0 f0 78 54 3f da 4b 58 bc 67 7d 02 bf 0a 0a f7 bd
       0.82997036 -0.013201678 -0.509726 -0.12062462
0003e0 d4 6e b6 3e 52 b4 02 be 02 62 a2 bd 35 70 cf 3e
       0.3563143 -0.12764099 -0.0792885 0.40515295
0003f0 2e fa 64 bd b4 15 2d be 3b 32 98 3d 0e 39 28 be
       -0.055902652 -0.1690281 0.07431456 -0.16428015

network_body._body_endoder.seq_layers.0.bias f4 [128]
000000 00 00 00 00 00 00 00 00 00 00 00 00 00 00 00 00
       0.0 0.0 0.0 0.0
000010 00 00 00 00 00 00 00 00 00 00 00 00 00 00 00 00
       0.0 0.0 0.0 0.0
000020 00 00 00 00 00 00 00 00 00 00 00 00 00 00 00 00
       0.0 0.0 0.0 0.0
000030 00 00 00 00 00 00 00 00 00 00 00 00 00 00 00 00
       0.0 0.0 0.0 0.0
000040 00 00 00 00 00 00 00 00 00 00 00 00 00 00 00 00
       0.0 0.0 0.0 0.0
000050 00 00 00 00 00 00 00 00 00 00 00 00 00 00 00 00
       0.0 0.0 0.0 0.0
000060 00 00 00 00 00 00 00 00 00 00 00 00 00 00 00 00
       0.0 0.0 0.0 0.0
000070 00 00 00 00 00 00 00 00 00 00 00 00 00 00 00 00
       0.0 0.0 0.0 0.0
000080 00 00 00 00 00 00 00 00 00 00 00 00 00 00 00 00
       0.0 0.0 0.0 0.0
000090 00 00 00 00 00 00 00 00 00 00 00 00 00 00 00 00
       0.0 0.0 0.0 0.0
0000a0 00 00 00 00 00 00 00 00 00 00 00 00 00 00 00 00
       0.0 0.0 0.0 0.0
0000b0 00 00 00 00 00 00 00 00 00 00 00 00 00 00 00 00
       0.0 0.0 0.0 0.0
0000c0 00 00 00 00 00 00 00 00 00 00 00 00 00 00 00 00
       0.0 0.0 0.0 0.0
0000d0 00 00 00 00 00 00 00 00 00 00 00 00 00 00 00 00
       0.0 0.0 0.0 0.0
0000e0 00 00 00 00 00 00 00 00 00 00 00 00 00 00 00 00
       0.0 0.0 0.0 0.0
0000f0 00 00 00 00 00 00 00 00 00 00 00 00 00 00 00 00
       0.0 0.0 0.0 0.0
000100 00 00 00 00 00 00 00 00 00 00 00 00 00 00 00 00
       0.0 0.0 0.0 0.0
000110 00 00 00 00 00 00 00 00 00 00 00 00 00 00 00 00
       0.0 0.0 0.0 0.0
000120 00 00 00 00 00 00 00 00 00 00 00 00 00 00 00 00
       0.0 0.0 0.0 0.0
000130 00 00 00 00 00 00 00 00 00 00 00 00 00 00 00 00
       0.0 0.0 0.0 0.0
000140 00 00 00 00 00 00 00 00 00 00 00 00 00 00 00 00
       0.0 0.0 0.0 0.0
000150 00 00 00 00 00 00 00 00 00 00 00 00 00 00 00 00
       0.0 0.0 0.0 0.0
000160 00 00 00 00 00 00 00 00 00 00 00 00 00 00 00 00
       0.0 0.0 0.0 0.0
000170 00 00 00 00 00 00 00 00 00 00 00 00 00 00 00 00
       0.0 0.0 0.0 0.0
000180 00 00 00 00 00 00 00 00 00 00 00 00 00 00 00 00
       0.0 0.0 0.0 0.0
000190 00 00 00 00 00 00 00 00 00 00 00 00 00 00 00 00
       0.0 0.0 0.0 0.0
0001a0 00 00 00 00 00 00 00 00 00 00 00 00 00 00 00 00
       0.0 0.0 0.0 0.0
0001b0 00 00 00 00 00 00 00 00 00 00 00 00 00 00 00 00
       0.0 0.0 0.0 0.0
0001c0 00 00 00 00 00 00 00 00 00 00 00 00 00 00 00 00
       0.0 0.0 0.0 0.0
0001d0 00 00 00 00 00 00 00 00 00 00 00 00 00 00 00 00
       0.0 0.0 0.0 0.0
0001e0 00 00 00 00 00 00 00 00 00 00 00 00 00 00 00 00
       0.0 0.0 0.0 0.0
0001f0 00 00 00 00 00 00 00 00 00 00 00 00 00 00 00 00
       0.0 0.0 0.0 0.0

network_body._body_endoder.seq_layers.2.weight f4 [128, 128]
000000 7e 34 13 3e 8c a2 e4 bd 45 a6 85 bc 0e f3 2b 3a
       0.14375493 -0.11163816 -0.016314635 0.00065593503
000010 00 8c 38 bd 2c 59 81 bd f1 ac 44 3c ab 69 f0 3c
       -0.04505539 -0.06315836 0.012004123 0.029347261
000020 0b cd ae 3c 5e 71 de 3d e6 02 18 3d f6 78 54 bd
       0.021338006 0.10861467 0.03711214 -0.05187317
000030 fa be 10 bd 75 6e c9 3c dd 95 2b bd 71 b5 1d 3d
       -0.03533838 0.024588803 -0.041890968 0.038503114
000040 9c f3 6e bd 12 2b 82 3d c0 12 5d 3c f1 13 fe bd
       -0.058337793 0.06355871 0.01349324 -0.12406147
000050 b5 84 16 3e 8d fb 3c 3e 5b 0d 09 bb 34 7f 22 bd
       0.14699061 0.18455334 -0.0020912501 -0.03967209
000060 a7 38 dd bc c6 77 b0 3a db ac 30 3e 92 e6 db 3c
       -0.027004553 0.001346343 0.17253439 0.026843343
000070 1a 0c 3e 3e 87 7c d9 3c 4b b7 5a 3d fc 01 73 3d
       0.18559304 0.026548637 0.053397458 0.059328064
000080 d2 cd 20 be 75 41 da 3d 9f dd ca 3d 3e c5 35 be
       -0.15703514 0.10657016 0.09905552 -0.17751023
000090 c3 1e 8d 3c c0 51 04 3e 27 5d 10 3e e0 4d 4f 3d
       0.017226582 0.1292181 0.14098035 0.050611377
0000a0 cf 5b ca bd f5 f2 ed 3d 3c d3 13 3e 81 10 08 3e
       -0.09880792 0.11618606 0.14436048 0.13287546
0000b0 21 8d 0e 3e 53 30 bf 3d 94 78 44 bd a9 ed 34 3d
       0.13921024 0.09335389 -0.047966555 0.044171963
0000c0 c3 b5 2b bc ba 68 dc bd 1d 72 35 bc 61 de f2 3d
       -0.010480347 -0.107621625 -0.01107457 0.11858822
0000d0 5a bc 0f 3e eb 74 6c 3d 59 1d 65 bc a5 d8 ea bd
       0.14036694 0.05772869 -0.013984048 -0.11467103
0000e0 e0 f1 3a bd a1 a9 39 bd 0e d6 d3 bb 97 cd 20 be
       -0.045640826 -0.045327786 -0.0064647263 -0.15703426
0000f0 e2 eb b7 3d 07 5f a9 bd ed a9 a2 3d 88 56 cb 3c
       0.08980538 -0.08270078 0.07942567 0.024821535
000100 a6 eb 6e 3e 21 76 82 bd 32 d7 6a be fe 61 9f 3e
       0.2333208 -0.063701876 -0.22933653 0.3112945
000110 a2 0d 0d be 5f 82 1a be 13 cf 2c 3d 05 33 c3 3d
       -0.13774732 -0.15088795 0.04218967 0.095312156
000120 15 76 9a bd 89 8f 5a be 20 25 3d 3c 18 38 d0 bc
       -0.075420536 -0.21343817 0.011544496 -0.025417373
000130 1c 09 18 bd bb b7 dc bc fb 90 81 bd 7e 73 e4 bd
       -0.037118062 -0.026943078 -0.06326481 -0.11154841
000140 ae df 13 bd 0d 6d 9d 3d 98 b7 0c bd b7 0a ed bc
       -0.03610199 0.076868154 -0.034354776 -0.028935773
000150 2c 42 10 be 63 cf 5e bd b2 1b e6 bd c1 49 05 bd
       -0.14087743 -0.054396998 -0.11235751 -0.03254104
000160 26 2d 58 bd e9 16 e3 3c 14 4c 7c bb e9 dd d0 3c
       -0.052777432 0.027720885 -0.0038497495 0.02549644
000170 d3 6b 6c 3d 39 8a b6 3d 36 3e 83 3c 87 b4 6d be
       0.057720017 0.08913083 0.016020875 -0.23213397
000180 94 6e 42 bd f0 e2 3e bd 30 3f e8 bd 21 3e 32 bd
       -0.047468737 -0.046603143 -0.11340177 -0.043516282
000190 a5 94 0b bc 1f 9d c8 3d f6 fe f7 3d 1e f9 09 3e
       -0.008519326 0.097955935 0.12109177 0.13473937
0001a0 37 80 be 3d ca d9 04 3e 34 ad ce bd da 25 9f bd
       0.09301799 0.12973705 -0.100916296 -0.077708915
0001b0 7d 7d cd 3b ed 97 90 bc 88 b0 44 bd 97 1f e6 bc
       0.006271063 -0.017650569 -0.048019916 -0.028091235
0001c0 a0 8e c6 bd 01 7e 87 bc cc d4 0b be 14 47 c7 3d
       -0.09695172 -0.016539576 -0.13655394 0.09730354
0001d0 bb 9b b8 3d 6a 6d 86 bc 64 fa 82 3e 1f 31 c5 bc
       0.09014078 -0.016409595 0.25581658 -0.024071274
0001e0 fc 6e 60 bd 4d ad 02 bd c0 f9 9c bc f3 c6 19 3d
       -0.054793343 -0.031903554 -0.019162059 0.03754325
0001f0 4a dc 8f 3d 15 8e 32 bd 1a ff a1 3d 6c 3a 40 3d
       0.07024439 -0.04359253 0.07909985 0.046930715
000200 25 4a 2b 3e 8d 99 d7 3c 69 f5 37 3e ca 82 59 bb
       0.16727503 0.026318336 0.1796471 -0.0033189529
000210 07 cb f5 bd 0a 71 a3 b6 4b 37 8d bc 85 d3 cc 3d
       -0.12001615 -4.870938e-06 -0.01723828 0.10001282
000220 2d 57 0a 3e 73 0c d9 3d d1 88 88 bd f1 34 24 bd
       0.13509817 0.105980776 -0.06666721 -0.04008955
000230 8d 71 6b 3d da 44 1e 3e e0 d3 70 3d 79 38 de 3c
       0.057481337 0.15455952 0.05879581 0.027126538
000240 ea 31 6f bd fb e7 ce bd 5d 7d 13 3d ec a5 50 3c
       -0.05839721 -0.101028405 0.036008228 0.012734871
000250 04 9c 9a 3d d2 5c 0d be b7 ed 61 bc 99 b6 c5 bc
       0.07549289 -0.1380494 -0.013789586 -0.02413492
000260 d5 17 cf bd b3 9d fd 3d 19 38 58 3d 03 b6 2a 3e
       -0.101119675 0.12383594 0.052787874 0.16670994
000270 46 4b c4 bd c1 25 0d be 42 84 39 3d 5e e0 96 bd
       -0.0958467 -0.13783933 0.045292147 -0.073670134
000280 03 48 7c bd 80 8e 00 be 68 59 88 bd a5 d4 1a bd
       -0.061592113 -0.1255436 -0.06657678 -0.03780045
000290 d7 f7 88 3c 7d 4c 5f bc e0 cb d3 3c 67 6e 00 3d
       0.016719742 -0.013629076 0.025854051 0.031355288
0002a0 60 f7 c5 bd f2 7f 95 3d 1c 44 8a bd 63 c5 ad 3c
       -0.09666324 0.07299794 -0.06751272 0.021212285
0002b0 4c 65 db bd 33 b3 bd 3d c4 2d 9e 3d 39 38 28 3d
       -0.1071268 0.09262695 0.07723573 0.041069243
0002c0 86 1b e5 3d 18 4a 0d be 31 c3 2f bb 50 bd cb 3c
       0.1118689 -0.13797796 -0.0026819224 0.024870545
0002d0 71 b2 10 be 2f 2e 3b 3e e7 ce 80 3c de 78 cd 3d
       -0.1413057 0.18279336 0.015723659 0.10032819
0002e0 b6 2b 9e 3b 35 37 d4 bd 50 56 7d 3d 68 75 da 3d
       0.004826988 -0.103620924 0.061849892 0.10666925
0002f0 91 52 f6 3d 5b 18 df 3c d8 8d e9 3c 69 61 51 3d
       0.12027467 0.027233293 0.02851002 0.05111829
000300 d7 6e 05 be a8 c0 8e bd a3 1e cc 3c ac 11 30 be
       -0.13030563 -0.0697034 0.024916952 -0.17194241
000310 f9 fc 6f bc d6 0d 9e bd eb b9 af bd 0d 93 db 3d
       -0.014647716 -0.07717483 -0.08580383 0.10721407
000320 4d a5 a9 3c e1 77 93 bc 61 da a5 bd c8 47 85 bc
       0.020708704 -0.018001499 -0.08098293 -0.01626958
000330 f6 60 5a 3d fc 41 bf 3d 3f 85 15 be 13 a9 9c bd
       0.053315125 0.093387574 -0.1460161 -0.07649436
000340 45 ef 1f 3e 6f f4 bc bc 21 7f 41 3c e1 4d 54 bd
       0.15618618 -0.023065774 0.011810095 -0.051832084
000350 a8 80 12 3e 3b 54 06 3d c0 ed 4d 3d e1 41 18 bd
       0.14306891 0.032795172 0.050275564 -0.037172202
000360 e2 9a 01 3d 27 ea 95 3d 25 57 b7 bd 76 12 16 bd
       0.03164185 0.07320052 -0.089521684 -0.0366387
000370 17 44 51 3d 58 79 c4 bd 35 43 0e 3d ba 18 7a bd
       0.051090326 -0.09593457 0.034732062 -0.061058737
000380 3a 0f 50 bd 98 60 2e 3d c8 a4 c2 3c 00 06 2b bd
       -0.05079577 0.042572588 0.023760214 -0.04175377
000390 e3 0d b9 3d 8f 3f f5 bd fc d7 2a 3e b9 29 d6 bc
       0.09035852 -0.119750135 0.16683954 -0.026142942
0003a0 07 dd 3d bd 46 7b c5 bd e6 82 16 3d bf f6 18 3e
       -0.046353366 -0.09642653 0.03674593 0.14937876
0003b0 a2 36 19 bd 7e 6d a0 3d b0 9b 4f bc bc de 0c 3e
       -0.037405618 0.07833384 -0.012671396 0.13756841
0003c0 65 59 60 bd 16 62 d8 3d d8 d5 aa 3d bc 06 52 3d
       -0.054772753 0.105655834 0.08341569 0.051275954
0003d0 da a1 88 bd 14 f7 87 3d b5 ea 33 bc 2b bb 9a bd
       -0.06671496 0.06638923 -0.0109812515 -0.07555231
0003e0 32 7e 07 3e 4f a8 06 3e 45 05 5c 3e 73 f6 b9 bc
       0.13231733 0.13150142 0.21486385 -0.022700524
0003f0 d2 99 e6 3c 25 71 aa 3b 4a f3 91 bd 8c 43 cb bd
       0.02814952 0.005201476 -0.07126482 -0.09924993

network_body._body_endoder.seq_layers.2.bias f4 [128]
000000 00 00 00 00 00 00 00 00 00 00 00 00 00 00 00 00
       0.0 0.0 0.0 0.0
000010 00 00 00 00 00 00 00 00 00 00 00 00 00 00 00 00
       0.0 0.0 0.0 0.0
000020 00 00 00 00 00 00 00 00 00 00 00 00 00 00 00 00
       0.0 0.0 0.0 0.0
000030 00 00 00 00 00 00 00 00 00 00 00 00 00 00 00 00
       0.0 0.0 0.0 0.0
000040 00 00 00 00 00 00 00 00 00 00 00 00 00 00 00 00
       0.0 0.0 0.0 0.0
000050 00 00 00 00 00 00 00 00 00 00 00 00 00 00 00 00
       0.0 0.0 0.0 0.0
000060 00 00 00 00 00 00 00 00 00 00 00 00 00 00 00 00
       0.0 0.0 0.0 0.0
000070 00 00 00 00 00 00 00 00 00 00 00 00 00 00 00 00
       0.0 0.0 0.0 0.0
000080 00 00 00 00 00 00 00 00 00 00 00 00 00 00 00 00
       0.0 0.0 0.0 0.0
000090 00 00 00 00 00 00 00 00 00 00 00 00 00 00 00 00
       0.0 0.0 0.0 0.0
0000a0 00 00 00 00 00 00 00 00 00 00 00 00 00 00 00 00
       0.0 0.0 0.0 0.0
0000b0 00 00 00 00 00 00 00 00 00 00 00 00 00 00 00 00
       0.0 0.0 0.0 0.0
0000c0 00 00 00 00 00 00 00 00 00 00 00 00 00 00 00 00
       0.0 0.0 0.0 0.0
0000d0 00 00 00 00 00 00 00 00 00 00 00 00 00 00 00 00
       0.0 0.0 0.0 0.0
0000e0 00 00 00 00 00 00 00 00 00 00 00 00 00 00 00 00
       0.0 0.0 0.0 0.0
0000f0 00 00 00 00 00 00 00 00 00 00 00 00 00 00 00 00
       0.0 0.0 0.0 0.0
000100 00 00 00 00 00 00 00 00 00 00 00 00 00 00 00 00
       0.0 0.0 0.0 0.0
000110 00 00 00 00 00 00 00 00 00 00 00 00 00 00 00 00
       0.0 0.0 0.0 0.0
000120 00 00 00 00 00 00 00 00 00 00 00 00 00 00 00 00
       0.0 0.0 0.0 0.0
000130 00 00 00 00 00 00 00 00 00 00 00 00 00 00 00 00
       0.0 0.0 0.0 0.0
000140 00 00 00 00 00 00 00 00 00 00 00 00 00 00 00 00
       0.0 0.0 0.0 0.0
000150 00 00 00 00 00 00 00 00 00 00 00 00 00 00 00 00
       0.0 0.0 0.0 0.0
000160 00 00 00 00 00 00 00 00 00 00 00 00 00 00 00 00
       0.0 0.0 0.0 0.0
000170 00 00 00 00 00 00 00 00 00 00 00 00 00 00 00 00
       0.0 0.0 0.0 0.0
000180 00 00 00 00 00 00 00 00 00 00 00 00 00 00 00 00
       0.0 0.0 0.0 0.0
000190 00 00 00 00 00 00 00 00 00 00 00 00 00 00 00 00
       0.0 0.0 0.0 0.0
0001a0 00 00 00 00 00 00 00 00 00 00 00 00 00 00 00 00
       0.0 0.0 0.0 0.0
0001b0 00 00 00 00 00 00 00 00 00 00 00 00 00 00 00 00
       0.0 0.0 0.0 0.0
0001c0 00 00 00 00 00 00 00 00 00 00 00 00 00 00 00 00
       0.0 0.0 0.0 0.0
0001d0 00 00 00 00 00 00 00 00 00 00 00 00 00 00 00 00
       0.0 0.0 0.0 0.0
0001e0 00 00 00 00 00 00 00 00 00 00 00 00 00 00 00 00
       0.0 0.0 0.0 0.0
0001f0 00 00 00 00 00 00 00 00 00 00 00 00 00 00 00 00
       0.0 0.0 0.0 0.0

value_heads.value_heads.extrinsic.weight f4 [1, 128]
000000 73 3b 83 bd 54 fa 14 3e 82 ad 1e 3e e8 54 55 bd
       -0.064078234 0.14548618 0.15495875 -0.052082926
000010 5d 47 5c bc 76 18 19 3e 31 33 a8 bc 3f 6c e6 bd
       -0.013444749 0.14950737 -0.020532222 -0.11251115
000020 f8 9e 59 bd 91 df f8 bd 7f 15 bb bc 2c 57 f5 3d
       -0.05313012 -0.12152017 -0.022837399 0.11979517
000030 9f f8 e6 bd 33 f3 56 3e 05 18 2d 3d 49 43 20 be
       -0.112778895 0.2099121 0.042259235 -0.15650667
000040 c7 e4 f1 3d 53 aa 2c 3d 9a d3 83 bd d7 61 a6 bc
       0.11811214 0.04215462 -0.06436844 -0.020310326
000050 d0 a3 49 be ad d5 ac bc 57 aa ef 3d 5d 6d b1 3d
       -0.19691396 -0.021097982 0.117024116 0.086634375
000060 20 a7 f6 3d fc c7 2a be 69 73 18 3e 52 16 cb bd
       0.12043595 -0.1667785 0.14887775 -0.09916367
000070 23 aa 1c 3e 82 1a b3 bd 6e dd 2e be b7 af 37 bd
       0.15299277 -0.0874529 -0.17076656 -0.04484531
000080 6e f2 18 3d a5 f9 54 be c0 45 95 bd f2 d3 31 3e
       0.037340574 -0.20798357 -0.072886944 0.17366007
000090 2a 67 ff bd 44 5b 5c 3e 34 c2 c3 bb fd 5b d1 bd
       -0.12470849 0.2151919 -0.0059740786 -0.102226235
0000a0 e1 1c bc bc 5e 55 3b be 93 86 48 3d d0 c9 05 be
       -0.02296299 -0.18294284 0.048956465 -0.13065267
0000b0 21 33 ac 3d 35 3b be 3d 57 de 94 3d 62 e4 6f 3c
       0.084081896 0.092886366 0.072689705 0.014641853
0000c0 3b c6 26 3e 8f ab 02 3e 35 d6 d6 3d 80 3d 0b bd
       0.16286556 0.12760757 0.104900755 -0.033994198
0000d0 b7 71 4c 3a b4 65 2b be 71 55 c8 3d 6e 6c e7 3d
       0.0007798927 -0.16738015 0.09781922 0.11299978
0000e0 89 fd 3e 3b 35 55 39 3d e3 b2 1d be b8 c9 e2 3d
       0.0029142818 0.045247275 -0.15400271 0.11073631
0000f0 b4 ca bc bc 9e 6f 52 be 37 f4 45 3e b0 a6 a4 bd
       -0.023045875 -0.20550391 0.19331442 -0.080396056
000100 e7 a7 96 3c 72 40 89 3d bb 92 de bc 5a fc 37 3e
       0.018390609 0.06701745 -0.027169576 0.17967358
000110 aa 5f 34 3d 8a f1 b9 bc c7 45 56 bc 43 4e e8 bc
       0.044036545 -0.022698183 -0.01307816 -0.02835763
000120 41 d0 09 3e 97 e2 cc 3d 15 64 9f 3d 2c f0 27 3c
       0.13458349 0.10004156 0.07782761 0.0102501325
000130 b8 a4 e5 3d 50 50 4e be 2b 05 19 3c 40 9b 92 bd
       0.11213058 -0.20147824 0.009339611 -0.07158518
000140 69 70 00 be ad 30 19 3d 0b 3a 45 3e 43 56 3e 3d
       -0.12542881 0.037399936 0.19260423 0.046468984
000150 25 97 94 3d 38 f1 19 3e e0 8b 91 3d cc 90 96 3d
       0.07255391 0.15033424 0.07106757 0.073518366
000160 e5 5f 21 be f7 3b 3b 3e 27 6e 42 be 62 5c 69 bd
       -0.15759237 0.18284594 -0.18987332 -0.05697287
000170 f9 7f 97 3d 72 a2 04 be 92 2c 85 3d 58 f3 d4 bc
       0.07397456 -0.12952593 0.06502642 -0.025994942
000180 37 49 ab bd 88 8d 00 3e b1 b1 46 3e 5e 78 53 be
       -0.08363574 0.1255399 0.19403721 -0.20651385
000190 a5 73 7f 3d 9e 73 b1 bd 7c 65 39 3e 2a 4b 86 3d
       0.062366147 -0.0866463 0.1810512 0.06557305
0001a0 dd 57 59 3e b0 9b 28 3e f4 68 cf 3d 34 04 95 bd
       0.21224923 0.1646564 0.1012744 -0.07276192
0001b0 ca b8 5f 3c 43 31 30 3c 54 6a 5c 3d e4 2e a0 3d
       0.013654897 0.010753932 0.05381234 0.07821444
0001c0 76 b2 3c 3e fe 15 be 3d fb 4c 23 3e 65 c1 1c 3e
       0.18427452 0.092815384 0.15947334 0.15308149
0001d0 08 56 dc 3a de f5 b6 3c bd 20 14 be a1 70 ad 3c
       0.0016810307 0.022334035 -0.14465614 0.02117187
0001e0 00 43 ae bd 01 fd 8c bd 4b b0 fe bd 2d 62 03 be
       -0.08508873 -0.06884194 -0.12435969 -0.1283042
0001f0 0d a5 25 3e f7 13 28 3e 6b 7f 9f bd 00 50 56 3e
       0.16176243 0.16413866 -0.07787975 0.20928955
