Simulator/results/test_training/My Behavior/My Behavior-127070.pt (torch, 435001 bytes, 36 tensors)

network_body._body_endoder.seq_layers.0.weight f4 [128, 5]
000000 9c 08 46 3e ad d9 c3 bd e3 b0 34 bf 12 c4 d1 3e
       0.19339222 -0.09563003 -0.7058241 0.40969902
000010 a5 9b ad be fb ae 06 3f 59 e3 59 bd 18 49 55 bf
       -0.3390781 0.5261075 -0.05319533 -0.8331466
000020 db 42 99 3e 95 5c 2f 3d b3 9b 4f bf 9d 46 65 be
       0.2993382 0.042812902 -0.81096953 -0.22390218
000030 81 2c dc 3c c2 39 75 bc 2e 0d e7 3e a1 c9 bb 3e
       0.02687669 -0.014967384 0.45127243 0.36677268
000040 42 d5 80 3e b1 29 80 bd 89 03 50 3d 48 8d 5b bf
       0.25162703 -0.06257952 0.05078462 -0.85762453
000050 e4 2b 1c 3f fb 88 0c 3f a7 e2 ae 3c 1d a9 f4 bd
       0.6100447 0.54896516 0.02134831 -0.11946318
000060 62 4b 0e bf 02 0e 8b 3f 27 a5 07 3d 19 c7 6a 3e
       -0.55583775 1.086365 0.033116486 0.22927512
000070 c3 73 b3 bc 2d a1 4f 3e aa 8d 19 3f ba 79 32 bf
       -0.021905785 0.20276327 0.5998179 -0.6971699
000080 ab b1 76 bf c2 af 60 3f 64 12 1e bf 82 e6 f6 3e
       -0.9636485 0.87768185 -0.6174681 0.48222739
000090 df 55 3f bf 9e d5 f0 be ba 25 ff be 1d ec 2b 3f
       -0.74740404 -0.47037977 -0.4983347 0.67157155
0000a0 8e b6 3a 3f c6 69 39 3e f5 c8 b4 3e fd e6 d7 bc
       0.72934806 0.18106756 0.35309568 -0.026355261
0000b0 00 d9 9f bd d6 ad 1d 3f 0e 47 53 3f a3 0e 49 3e
       -0.07805061 0.6159338 0.82530296 0.1963449
0000c0 67 cf 44 be fd 2c 41 3f 3f 75 b6 be 53 a0 84 3e
       -0.19219743 0.7545927 -0.35636327 0.25903568
0000d0 0d c6 f8 be 8a 9e 97 3e b3 3c 6b be 8a b3 96 be
       -0.485886 0.29613143 -0.22972374 -0.29433852
0000e0 b2 f6 07 3d 29 a3 6b be a2 61 1e bf f6 31 86 3e
       0.03319425 -0.2301146 -0.61867726 0.26209992
0000f0 7e c0 78 bd 58 e1 99 3e b3 25 10 3f 2c 25 bd be
       -0.06073045 0.30054736 0.56307524 -0.36942422
000100 7b 49 cd be ef f9 f3 3e e0 ca 27 bc 02 78 b6 3e
       -0.40095124 0.47651622 -0.01024124 0.35638434
000110 08 6e aa bd df 81 26 3f 7f b9 12 3c 38 bb 86 be
       -0.08321768 0.6504192 0.0089553585 -0.26314712
000120 3d 01 39 3f 8e f6 dd 3c 3d 6c 97 3d 05 f4 00 bf
       0.72267514 0.027095105 0.07393692 -0.50372344
000130 13 84 11 be 9b f6 bf be 85 e5 13 bf a6 4d d0 bd
       -0.14210539 -0.37492833 -0.57772094 -0.1017106
000140 96 8f 97 3e 40 23 00 3e 08 2e a6 be 34 59 9e be
       0.29601735 0.12513447 -0.32456994 -0.30927432
000150 64 63 9f be d6 1f c6 3d fb 0c f5 be c5 cf 1f bf
       -0.31130517 0.09674041 -0.47861466 -0.62426406
000160 6d 64 39 ba 43 d5 3c bf fb 4a 75 3e e1 19 17 3f
       -0.00070721545 -0.7376291 0.23954384 0.59023863
000170 33 14 8a 3e 28 d7 99 39 17 7f 12 bf ac 33 78 bc
       0.26968536 0.00029342738 -0.57225174 -0.015149038
000180 a8 e7 0e 3d 3b b9 08 3f a6 b1 5b 3e 86 ff e0 be
       0.034888893 0.5340764 0.21454486 -0.4394495
000190 e7 ae 06 be 2d b2 1f 3f ff a9 d4 3e 6e 87 27 bf
       -0.13152657 0.6238125 0.41535947 -0.65441024
0001a0 96 15 d2 3e 13 bf 96 3d 53 bb ee bd 3e 36 0a bf
       0.41032094 0.07360663 -0.11656823 -0.53989017
0001b0 b1 9f d0 3a b9 1c ad bf f2 43 d7 3e 62 63 32 bf
       0.0015916732 -1.352439 0.42044026 -0.69682896
0001c0 22 f7 ab be e2 6e fb be a0 70 2a 3f 40 ed 61 bd
       -0.33586985 -0.49108034 0.665781 -0.0551579
0001d0 71 ff 21 3c ba c2 29 3f 81 33 93 be 12 c0 a0 bd
       0.009887562 0.66312754 -0.28750232 -0.078491345
0001e0 ed 77 65 3e 0a 3d a8 3d c8 81 00 bd e9 2f 13 bf
       0.2240903 0.08214767 -0.03137377 -0.5749498
0001f0 f7 37 d6 bd 54 1f c7 3e 6f ea 75 be f4 4f 1c 3e
       -0.10459893 0.3889109 -0.2401521 0.15264875
000200 4e 78 2c be 29 68 c8 3e 84 87 fe bd cf 8d b9 be
       -0.16842768 0.39141968 -0.12428191 -0.36241004
000210 39 d4 19 bf 09 cb a6 be 04 af 64 3e d4 6e 83 3e
       -0.6008945 -0.3257678 0.22332388 0.25670493
000220 69 5d 31 be 0b 03 21 be 50 e4 90 3e 74 59 92 bd
       -0.1732079 -0.15723817 0.2829919 -0.07145968
000230 65 1e 1f 3f a2 0d aa be b5 78 c4 3e ed b7 60 3f
       0.62155753 -0.33213526 0.38373342 0.8778065
000240 be 15 88 bc 7f 6a b4 3c d6 8a 79 3f c5 1a 22 3e
       -0.01661193 0.022023438 0.9747747 0.15830524
000250 46 c8 04 3e c4 fb 39 bf 6f 14 03 3f 73 4d 52 be
       0.12967023 -0.7264979 0.51203054 -0.20537357
000260 cf b6 a6 be c3 f2 4c 3d 6a 5d c1 be fc 97 b9 3d
       -0.32561347 0.050036203 -0.37766582 0.09062192
000270 24 82 18 3f 17 25 a1 be 67 ad 1c bc f6 95 a3 3e
       0.5957358 -0.3147361 -0.009562827 0.3195035
000280 80 df 07 3e d9 7b b6 be c3 f0 16 bf 1a 7f 1f be
       0.13268852 -0.35641363 -0.58961123 -0.15575829
000290 42 b4 20 be 28 ba bc be f5 1c da bd 47 91 b3 be
       -0.15693763 -0.36860776 -0.10650054 -0.35071775
0002a0 aa dd 7d bf 88 e1 8c 3f 67 61 f2 be f3 0f 00 bf
       -0.9916636 1.1006327 -0.47339937 -0.50024337
0002b0 5c 05 7e 3e 78 ee 9f be 18 34 1c 3e 48 02 66 be
       0.24806732 -0.31236625 0.15254247 -0.22461808
0002c0 76 aa 2d 3e 2f fc 9a 3f 44 6e 8e 3e c3 91 7f bf
       0.16959557 1.210821 0.278185 -0.9983179
0002d0 2a af 63 3d 88 1b 0c bf 78 24 58 bf a5 45 13 3e
       0.05558697 -0.5472951 -0.84430647 0.14382036
0002e0 7e 01 9f 3d 1a e4 96 3e 79 79 e1 3e d7 38 cd 3e
       0.077639565 0.29470903 0.4403799 0.40082428
0002f0 8a 32 a7 3e 22 4f db 3d ff 03 65 3e 54 03 5a 3e
       0.32655746 0.10708453 0.22364806 0.21290332
000300 b2 9a 58 3e 64 4b ff bc d2 ee d5 3e bd 19 44 3f
       0.21152762 -0.031163879 0.41783768 0.76601774
000310 8b f4 7b be 86 4d ee 3b 65 89 2c bd 57 74 6b 3f
       -0.24605004 0.007272425 -0.042123217 0.91974396
000320 7c 02 e2 3e 8a db b6 bd 36 30 d0 3d 7c b3 80 3e
       0.4414252 -0.089285925 0.101654455 0.25136936
000330 cf bd 98 bf cc f8 74 3d bc da 1a 3f 9b 18 2b be
       -1.1932925 0.059807584 0.6049001 -0.16708605
000340 18 0d 90 be c7 7d 14 bd f0 91 a8 3e 2e fb 25 3f
       -0.2813499 -0.036252763 0.3292384 0.64836395
000350 8e 6a 6f be 14 71 2b be 0f 7d 20 3f bd b2 8b 3e
       -0.23380491 -0.16742355 0.62690824 0.27284804
000360 a5 18 96 3e ff 5a 04 bf 0a 07 07 bf e4 95 8e be
       0.29315677 -0.5170135 -0.52745116 -0.27848732
000370 c5 07 22 bf 51 5c f2 3e 54 ac 8e 3f 5f 43 f1 3d
       -0.63293105 0.47336057 1.114634 0.11780428
000380 17 91 1e bc 4b 71 a5 3e 7b 90 3d 3e ef 52 a9 3e
       -0.009678147 0.32312998 0.18512146 0.33071086
000390 40 49 47 bf 08 e4 40 bd 4c 1b 1d 3f a9 df fd 3e
       -0.77846146 -0.047092468 0.61369777 0.49584702
0003a0 ef 4c 90 3e 98 c1 79 bd 41 37 ba 3e 61 ba de bd
       0.28183696 -0.06097564 0.3637028 -0.10875393
0003b0 fd 7d 09 3f c1 f7 35 be 91 7b 68 3e 48 df 3c 3e
       0.5370787 -0.17770292 0.22703387 0.1844455
0003c0 86 22 28 be 46 85 09 3f 02 24 d4 be 60 fb 74 3e
       -0.1641942 0.53718984 -0.41433722 0.23924017
0003d0 8d df d4 be ec 3f 9b 3d e6 f5 17 3f 61 3b 6b bf
       -0.41576806 0.075805515 0.59359586 -0.9188748
0003e0 5a 64 41 bd 8e c5 0e 3f 6a e1 3f bf 5a 7c e3 3e
       -0.047214843 0.55770195 -0.7495333 0.4443081
0003f0 fd ce d5 bd 24 1b 2e 3f ff 88 37 3e 97 3e 2f be
       -0.104398705 0.68010163 0.17923354 -0.1711372

network_body._body_endoder.seq_layers.0.bias f4 [128]
000000 ff 82 4b bc 21 cd 00 bb 35 55 1f 3c 91 00 84 bc
       -0.012421369 -0.0019653516 0.009724905 -0.016113551
000010 7d 86 87 3c b4 b8 02 39 54 04 0c 3c a1 23 0c bc
       0.016543621 0.00012466573 0.008545954 -0.0085534165
000020 29 ef 43 3c 01 ef b6 3c 87 d5 f9 bb fe 5a 00 3b
       0.011958876 0.022330763 -0.0076243314 0.0019585486
000030 5a 29 e7 3c ea 0f 7b 3c a5 63 8c 3b 85 26 79 3b
       0.02821796 0.015323618 0.0042843395 0.0038017344
000040 db 56 d8 bb 7e d6 b4 ba 85 52 86 3c 06 22 2c 3c
       -0.006602151 -0.0013796834 0.01639677 0.010506159
000050 63 37 48 bc 0b c9 6d bb bd cb 64 3b 7a a1 00 3c
       -0.0122202365 -0.003628316 0.0034911477 0.007850999
000060 5c 13 0c bb 60 90 05 3b f2 76 b3 3b 4a 35 75 3b
       -0.0021373844 0.0020380244 0.005476826 0.0037415796
000070 c0 5f 53 bb fb 00 80 3c ce 00 ac 3b 4f 32 e3 3b
       -0.0032253116 0.015625468 0.0052491194 0.0069334875
000080 6d 56 24 3c 2f a7 88 3b 09 08 04 bc 1e 02 bf 3b
       0.010030371 0.0041703205 -0.008058556 0.00582911
000090 31 d0 2d bc 03 2d d6 bb 93 1f 62 3c 5a 41 05 bb
       -0.010608719 -0.0065361275 0.013801473 -0.0020333142
0000a0 ec 37 45 bb d7 6c ef 3b 2c e8 3c 3c 69 27 37 bc
       -0.0030093146 0.007306676 0.011529963 -0.01117883
0000b0 d9 58 5a 3b af 6f 84 bb 75 80 e8 3c cf 26 c2 3c
       0.0033317117 -0.004041634 0.028381566 0.023700146
0000c0 39 97 c3 3b b1 ff 27 bc fc d4 ab ba 5c 44 e7 38
       0.005968955 -0.010253833 -0.0013109739 0.00011027671
0000d0 bb 31 c2 3b 02 66 99 bc 8a d5 12 bc e4 49 d5 3a
       0.0059263385 -0.018725399 -0.0089620445 0.0016272631
0000e0 95 b7 67 3c bf 23 e3 bb f2 28 8f 3b e0 13 94 bc
       0.01414289 -0.0069317515 0.0043688947 -0.018075883
0000f0 1c 65 1e 3c 1e b3 a3 3b af f8 81 3c ea 83 f6 bb
       0.009667661 0.0049957177 0.015865652 -0.0075230496
000100 d1 3c 41 3b 83 2c 85 3c 0b cf b5 bc f2 d5 ad bb
       0.0029485712 0.016256576 -0.022193452 -0.0053050453
000110 2a 0d 52 3c 54 3a aa bb 4f 1e 8d 3c 92 70 fe ba
       0.012820521 -0.0051949415 0.017226366 -0.0019412211
000120 3d df d4 3a dc 7b 96 3b b0 7b 9c 3b ea 90 68 bc
       0.0016240847 0.004592402 0.004775487 -0.014194706
000130 a5 da 97 3b 54 bc 35 bc ee 79 d2 bb 7c da a1 3b
       0.0046342188 -0.011092264 -0.0064232266 0.0049393754
000140 9e 06 3d bb 5a 3c d6 3c 1b 1e 9e 3c a1 bf 25 bc
       -0.0028843055 0.026151825 0.019301465 -0.010116489
000150 b5 ed 2c 3c 81 0c 4a bc f0 fa 1b bc 0b 20 d5 3b
       0.010554721 -0.012332083 -0.009520277 0.006504064
000160 90 43 10 3b ec ca f8 bb 40 97 95 bc ef 9b ae 3c
       0.0022012927 -0.0075925495 -0.018260598 0.02131459
000170 a9 32 84 bb 10 a8 98 3b 52 17 96 3a b3 ba 18 bc
       -0.0040343595 0.0046587065 0.0011451042 -0.009321856
000180 31 18 b6 3b e4 62 c7 3b fa 71 97 39 0e 29 9f bb
       0.005557083 0.0060847867 0.00028885884 -0.004857189
000190 42 4e 07 bc 95 8c 0d 3c 4f 4f 05 bc 2e 72 02 3c
       -0.008258404 0.008639474 -0.008136584 0.007961793
0001a0 93 07 b6 3c 4e 89 33 bb 00 46 77 3c 89 44 b4 3b
       0.022220409 -0.0027395072 0.015092373 0.005501334
0001b0 5d 71 85 bb 1e 0b 17 3c ad 31 32 3c bf a9 90 3c
       -0.004072352 0.009218959 0.010876101 0.017659066
0001c0 2d 21 c0 bb 89 f5 5c 3b 0a 3b 75 bc d0 51 ee 3a
       -0.00586333 0.0033715686 -0.014967689 0.0018182341
0001d0 9f 2a c3 3c a6 f2 4c 3c 27 c5 06 3b eb f8 11 bb
       0.023824034 0.012509024 0.002056429 -0.002227361
0001e0 47 ae 05 bb 55 17 5c bc 00 b4 9d 3c 53 d0 54 3b
       -0.0020398067 -0.013433297 0.01925087 0.0032472804
0001f0 6e 88 69 bc b0 6d bf bb 63 ed f1 3b ad c3 d4 bb
       -0.014253719 -0.005841933 0.007383035 -0.006493053

network_body._body_endoder.seq_layers.2.weight f4 [128, 128]
000000 49 52 de bd b9 25 2d 3e 44 5f 41 bb 2f 2a 46 3d
       -0.108555384 0.16908921 -0.0029506246 0.048380073
000010 c8 4b c4 3d 60 80 bf bd 0c ec b3 bd 58 55 c0 3d
       0.095847666 -0.093506575 -0.08785257 0.09391278
000020 0f d0 14 3e 79 42 22 3e 45 27 f2 3d 4d 8c 80 bb
       0.14532493 0.1584567 0.11823896 -0.003922975
000030 33 00 f5 3d 66 43 41 3d a9 a8 70 3e 0f 85 cd 3d
       0.119629286 0.047183417 0.23501839 0.100351445
000040 97 b2 0b bd d6 8e c0 3d 5a d0 2d bc 91 b4 75 3b
       -0.034105863 0.09402244 -0.010608757 0.003749166
000050 be 55 ff bd a5 7b b2 3b 32 61 6a be 1d cb d6 3d
       -0.12467526 0.0054468685 -0.2288864 0.104879595
000060 2c 94 f5 3d 1b a5 93 bd f7 fc 06 bd 36 15 11 3d
       0.11991152 -0.07209226 -0.03295609 0.03542062
000070 4b 48 82 3d 1d 77 09 3e 76 e2 f5 bd 31 d0 6b 3d
       0.06361445 0.13424344 -0.120060846 0.057571594
000080 f9 e4 58 3d 25 90 26 be 25 3d 04 be 38 c5 80 bd
       0.05295274 -0.16265924 -0.1291395 -0.062876165
000090 6a 04 b9 bd 25 67 cf 3c 87 6b df 3c e0 f8 1e bd
       -0.09034045 0.025317738 0.027272953 -0.038811564
0000a0 76 23 62 3e bb 09 6e 3b 83 89 40 bd ec 1a 27 3d
       0.2208384 0.0036321718 -0.04700614 0.04079716
0000b0 f3 e8 f6 3c 1f 9e 40 bd d4 b2 d7 3c 53 a0 44 bc
       0.030140376 -0.047025796 0.02633039 -0.012001115
0000c0 4d a2 ba 3d d7 a6 00 bd 18 22 59 bd b0 5b 47 bd
       0.09112988 -0.03140911 -0.05301103 -0.048671424
0000d0 1c a0 13 bd 7e 64 b5 bd ab 1b 99 3c a0 54 f6 3b
       -0.036041364 -0.08857058 0.01868995 0.0075174123
0000e0 82 33 53 3d 04 47 26 be 37 54 1c 3e fa 34 33 bd
       0.051562794 -0.16238028 0.152665 -0.043751694
0000f0 d4 ec d5 bd 71 70 1b 3e c8 95 e7 bd 81 7a 2f bd
       -0.10445562 0.15179612 -0.113078654 -0.04284144
000100 1b 2e f7 bc a1 50 3e 3d 84 5d a4 3a 84 09 12 3b
       -0.030173352 0.046463612 0.0012540077 0.0022283504
000110 63 56 cb 3d 5f 2c 4c bd c5 4e dd b9 56 00 bb 3d
       0.09928586 -0.049847003 -0.00042211093 0.091309234
000120 ec cc b3 3b 79 f7 39 3d 2b be 90 be 07 15 67 3c
       0.005487075 0.045402024 -0.28270087 0.014104134
000130 d4 35 34 bc cd 18 4a bd f7 06 e3 bd d0 83 41 bc
       -0.010999162 -0.049340058 -0.11085313 -0.011811212
000140 bd ab 82 bc 5f da 03 bc 4d 53 bc 3c a6 ff b7 3c
       -0.015951032 -0.008047669 0.02298894 0.02246077
000150 a9 8c 0d bc bc 9a 95 bc 19 a6 19 bd 8b af 6b be
       -0.008639493 -0.01826226 -0.03751192 -0.23016183
000160 06 c8 d7 bc ff 0d 98 bd 68 4e 2d 3e 8d 3f d8 bd
       -0.026340496 -0.074245445 0.16924441 -0.10558996
000170 56 e2 9b 3b 59 73 77 3d cc 14 4f 3d a9 e6 e6 bc
       0.004757206 0.06041274 0.050556943 -0.02818616
000180 61 f7 24 3d 63 64 10 3d a4 18 1e 3d ec f1 0c bc
       0.04027498 0.035251986 0.038597718 -0.008602601
000190 b8 ff 65 bd 0a 0b be bd ca 3b 92 3d 9e 94 4a be
       -0.056152076 -0.09279449 0.0714031 -0.19783255
0001a0 e3 5a 20 3e b8 f3 97 bc 31 f2 8d bd 35 87 d6 3d
       0.1565967 -0.018548831 -0.0693096 0.104750074
0001b0 52 e7 3f 3d 40 d3 92 bd a0 58 1f 3d 7f ea e9 3d
       0.046851464 -0.07169199 0.03890288 0.1142168
0001c0 fc 95 20 bc 87 02 35 bd 45 69 29 bd c7 ce cf 3d
       -0.009801384 -0.044191863 -0.04136016 0.101468615
0001d0 0f 9e 07 be f5 e2 5b 3e 24 bb 09 3d b0 f1 62 3e
       -0.13243888 0.21473296 0.033625737 0.22162509
0001e0 91 e7 ae 3d 59 5d 13 bd ee f9 b9 bc e0 b5 46 3e
       0.085402615 -0.035977695 -0.022702184 0.19405317
0001f0 be fe 84 bd 70 06 20 3b 8d 4d 13 bd 56 64 0c 3c
       -0.06493901 0.00244179 -0.03596263 0.008568844
000200 0c f2 0c bd 93 9e 02 3d 85 83 5f 3d 00 14 0e 3e
       -0.03441052 0.03188951 0.054568786 0.13874817
000210 2b b6 3c be 4f 96 12 bd 33 b2 c3 3b 82 1d ab 3c
       -0.18428867 -0.035787877 0.0059721707 0.020888094
000220 89 db a5 3c 3c 19 4b 3c b7 77 0d 3e 21 c9 f0 3d
       0.020246284 0.012396153 0.13815199 0.11757112
000230 0e 29 14 be c6 4c a1 3d c9 3d ab 3c 45 9f 2e 3d
       -0.14468786 0.078759715 0.020903485 0.04263236
000240 38 7c 6c 3d 29 c4 2c 3e 70 a2 0e 3e 67 3c 3d 3e
       0.05773565 0.16871704 0.13929152 0.18480073
000250 db 55 2c bd a2 a7 0d bd fd 91 84 bd d3 05 d7 bd
       -0.042074066 -0.034583695 -0.064731576 -0.10499158
000260 10 9e 19 bd bd 6a e6 3d e7 8b 22 be 29 e9 c9 3d
       -0.037504256 0.112508275 -0.15873681 0.09858925
000270 89 3b 72 3c e0 50 6c bd 7c b5 3c bd c2 b8 17 3d
       0.014784702 -0.057694316 -0.046071514 0.037041433
000280 15 c1 f9 3a 4e 5a b9 3d df 58 62 3e 6d cb a0 3d
       0.0019054735 0.090504274 0.22104214 0.078513004
000290 81 e2 06 3d 60 83 f7 bd c9 cb f9 3d ec 4f 55 3e
       0.032930855 -0.12085605 0.12197072 0.20831269
0002a0 29 b5 dd bd fc f6 70 be 32 76 8f bd e9 e9 a5 3c
       -0.10825569 -0.23531717 -0.07004966 0.020253139
0002b0 c8 69 91 3d 2e e8 f3 3d 46 ca 18 bc 0f 5e e4 3d
       0.07100254 0.11909519 -0.0093255695 0.11150753
0002c0 c0 ab 56 bd ae b1 be bd 80 da bd 3d cf 99 b7 3d
       -0.052409887 -0.093112335 0.09270191 0.089648835
0002d0 b9 69 2b bd 26 a3 aa be 85 a7 27 3d f6 65 d2 bd
       -0.04184887 -0.33327597 0.040931243 -0.10273354
0002e0 eb 37 10 bd 9a 50 0b 3d ec 88 45 bd 3b 07 c3 bd
       -0.035209578 0.034012415 -0.048226282 -0.095228635
0002f0 e3 3c 2f 3d 9b 04 be 3d 96 fc a8 bd 76 83 0f be
       0.042782675 0.09278222 -0.08251302 -0.14014992
000300 cb e3 9a bd 51 98 a1 3c 69 bd 4a bd ff d0 9c bd
       -0.07562979 0.01972595 -0.04949704 -0.0765705
000310 03 e0 31 3e 88 57 01 3e dc 79 9b bd 53 6c 0f bd
       0.1737061 0.12631047 -0.07591602 -0.035015415
000320 b2 a7 ef bc a6 32 11 bc 35 97 a2 3b 3f 43 25 bd
       -0.029254768 -0.008862173 0.004961873 -0.040347334
000330 2f 2a 8a 3d b8 8a 31 3d 20 57 71 3d 01 08 2e be
       0.06746327 0.043345183 0.05892098 -0.16995241
000340 e2 c7 ee 3d 0c b6 4c 3d 92 0b 51 3d c9 c5 93 3c
       0.11659218 0.0499783 0.051036425 0.018038647
000350 fe 06 4d bd f6 20 91 3a a5 b9 dc 3d 0b a3 58 bc
       -0.050055496 0.0011072445 0.107775964 -0.013222466
000360 cc ef 69 bd 04 e2 56 bd d2 5a 6d 3d 21 d7 a2 bc
       -0.057113454 -0.05246164 0.05794794 -0.019877972
000370 04 a0 82 bd 99 4c 19 bd 35 70 f7 3d 0e a5 73 3e
       -0.06378177 -0.037426565 0.12081949 0.23793432
000380 79 3e f9 3c f4 cb 84 bc 1c b6 de 3b 93 0b 96 3d
       0.030425297 -0.016210534 0.0067966115 0.07326426
000390 b1 82 9a bd 9b 33 03 bc 9a 1c 04 3d 21 c3 dd 3c
       -0.07544459 -0.008007909 0.03225384 0.027070584
0003a0 c5 07 d0 3d 7b 84 0d bd 3e 35 11 3e 9f 98 aa 3c
       0.10157732 -0.03455017 0.14180467 0.020824729
0003b0 06 77 a7 3d 51 a5 9f bd 70 a4 32 be 1b 44 5a bd
       0.08176999 -0.077952035 -0.1744554 -0.053287607
0003c0 77 00 bd bd 88 0e 37 bd 02 bb 05 3d f3 a9 05 bd
       -0.09228604 -0.044691592 0.032649048 -0.03263278
0003d0 c4 09 e9 3d ad 31 4e bc fa ee a1 bd 63 31 f4 bc
       0.11378816 -0.012585086 -0.07906909 -0.029808706
0003e0 70 56 c9 bd 49 60 f9 3c ad fa 12 3e f8 8d d3 3d
       -0.0983094 0.03044142 0.14353438 0.10329813
0003f0 35 28 c9 bc cd 9a 93 3d f6 46 2a bd 55 18 ea 3d
       -0.024555305 0.0720726 -0.04157158 0.11430422

network_body._body_endoder.seq_layers.2.bias f4 [128]
000000 cf c5 82 3c 28 55 13 bc 23 f9 90 3b 20 cb 09 bc
       0.015963463 -0.008992471 0.0044242307 -0.008410245
000010 2f 48 6c 3a 66 2d 15 3c 51 94 85 3c 98 36 00 3b
       0.0009013442 0.009105062 0.016306074 0.001956379
000020 ee 83 93 3a 72 e8 91 ba ec 22 26 3c c5 be 53 bc
       0.0011254528 -0.0011131896 0.010140162 -0.012923901
000030 9b ac eb bb 3e e7 9b 3b 77 19 3f 3a c4 20 92 bb
       -0.007192207 0.004757791 0.00072898663 -0.0044594724
000040 f8 51 e6 3c 64 9f 89 3b c3 3c 44 bc 90 d3 d3 3b
       0.028115258 0.004199909 -0.011977377 0.006464429
000050 92 fc eb 3b 94 77 29 bc 80 11 9f 3c a8 71 5e 3c
       0.0072017396 -0.010343451 0.019417524 0.013576902
000060 96 63 93 3b 96 7d b5 3b 20 07 bd bb 00 33 0b 3c
       0.0044979556 0.0055386527 -0.0057686716 0.008496046
000070 69 9f 28 3a 12 93 df 3b 29 b4 21 3b 6d a5 a7 3b
       0.00064324454 0.006822952 0.0024674034 0.005116156
000080 73 f8 65 bc ab 1f e0 3b 05 3f 90 bb ba 03 0f bc
       -0.014036286 0.0068397126 -0.0044020438 -0.008728916
000090 b2 1b 21 bb c3 66 0a 3c 6b c6 5f 3c 56 83 84 bb
       -0.0024583158 0.008447352 0.013658146 -0.004043977
0000a0 56 38 2f bc dd 5a a9 3c 15 b5 ea 3b 04 19 29 3c
       -0.010694584 0.02067321 0.0071627 0.010320906
0000b0 1a d9 aa bb da 24 5b 3b 7c b0 0d 3c d4 be 43 bc
       -0.005213869 0.0033438713 0.008648034 -0.011947352
0000c0 fa 58 e4 bb c5 84 e0 bb 78 b6 c4 3b c6 51 8e ba
       -0.0069686146 -0.006851765 0.0060031973 -0.0010858111
0000d0 d7 8e 7e bb 7a 44 36 bb ea f0 a3 3c 7f 0a 57 3c
       -0.0038842463 -0.0027811811 0.020012338 0.013125061
0000e0 95 01 9e 3b bb 1d d4 3b f4 e5 83 3c 9e 07 e0 3a
       0.004821966 0.0064732707 0.016100861 0.0017092114
0000f0 5a e6 0e 39 5d 10 8c bb 5f 9f 82 3b 2b f3 4e 3a
       0.00013627988 -0.0042744116 0.0039862837 0.0007894511
000100 91 b8 30 bc 22 36 83 bb de 51 55 3b 6b 6e 0e 3a
       -0.010786192 -0.004004256 0.0032550017 0.00054333237
000110 28 7c 7b 3b e9 87 21 bc e7 2d 0e 3c 52 03 b1 3b
       0.0038373563 -0.009859064 0.008677936 0.005402007
000120 2c 78 3a bc fa 1c 1a b9 b7 c0 96 3b 8a c2 9b 3a
       -0.01138119 -0.00014697379 0.00460061 0.0011883539
000130 c4 94 d6 3b 8c 89 ae bb 8e 8a 07 bc bb d1 d7 3b
       0.006548496 -0.0053264555 -0.00827278 0.006586281
000140 7b 5b bc 3b 5f cc 78 3b a5 7b 8f 3c ee df 98 bb
       0.00574821 0.0037963612 0.017515013 -0.0046653664
000150 4c 5a a0 3c e6 67 2d bc e2 48 48 bc dd d5 9c ba
       0.019574307 -0.010583853 -0.012224408 -0.0011965592
000160 dc 23 c1 bb f0 e6 3d ba 39 85 e3 3b 20 bb 9f 3c
       -0.0058941673 -0.000724419 0.0069433716 0.019498408
000170 52 45 17 3c 39 88 92 3b 9d 96 2a bc b8 8e 2f 3b
       0.009232836 0.0044718054 -0.010411886 0.0026787948
000180 eb eb 88 3b 4c c0 ae bb 99 44 ef 3b f9 cc 88 3b
       0.0041785142 -0.005332982 0.0073018786 0.0041748253
000190 9a 20 43 3c 09 91 e6 bb 79 c5 2b bc 60 db b6 3c
       0.011909628 -0.0070363325 -0.010484093 0.022321403
0001a0 bd 8d 27 bb 85 ad 6a 3a 2a 3c d3 3b 47 25 01 3c
       -0.002556666 0.0008952248 0.006446381 0.007882423
0001b0 7e 0e 4a 3b 92 65 9b 3a c1 81 03 bc 12 09 28 bc
       0.0030831392 0.0011855832 -0.008026541 -0.010256069
0001c0 d8 7a ae 3b f1 d9 7e bb b7 f9 43 3c 9e 28 9f 3b
       0.0053247027 -0.0038887227 0.011961392 0.004857137
0001d0 39 58 5a 3c 5c 95 2e bc 7a 34 aa 3b 4f 6a 18 3b
       0.013326698 -0.010655727 0.005194244 0.0023256724
0001e0 f5 8c e7 3b 07 dd bd 3b 8a 70 b1 3b 06 1e cd 3b
       0.007066364 0.005794171 0.005415027 0.0062596826
0001f0 c8 79 86 b9 13 78 1e bb f4 73 99 3c 69 0a 52 bb
       -0.00025649206 -0.0024180457 0.018732049 -0.0032049662

action_model._continuous_distribution.log_sigma f4 [1, 2]
000000 76 1b 23 bb 0a b5 d9 bc
       -0.0024888194 -0.026575584

action_model._continuous_distribution.mu.weight f4 [2, 128]
000000 ae 68 fd bc 16 96 46 3d 26 fd 25 bc b1 6a 26 3d
       -0.030933704 0.048482977 -0.010131156 0.040629093
000010 f4 3e 1d 3d c9 fd 1b 3d 72 37 72 bd cd 09 34 bc
       0.038390115 0.038083825 -0.059134908 -0.010988665
000020 ae d2 0c bd 5e f8 c5 3c 7d 15 87 bc 3e 21 79 39
       -0.034380607 0.024166282 -0.016489739 0.00023758874
000030 19 83 b4 3c 04 c9 5e 39 6c e0 bc 3b 1d fc 6f 3a
       0.022035168 0.00021246454 0.005764058 0.0009154694
000040 c1 9a e3 bc 21 fe 64 3c b0 3d 90 39 63 6e 5c bc
       -0.027783753 0.013976605 0.0002751178 -0.013454053
000050 52 20 06 bd 35 0e 12 3d 84 30 29 bd a4 62 88 bc
       -0.032745667 0.03565808 -0.041306034 -0.016648598
000060 4a d1 86 3c 0d 0e ec bb 03 a3 cf 3c e7 b9 9f 3c
       0.016457219 -0.0072038234 0.025346285 0.019497825
000070 09 eb 6a bc 15 e4 72 bc 92 83 07 bc d9 95 bd bb
       -0.014338263 -0.014824887 -0.008271115 -0.0057856855
000080 03 da af 3c 8f bc 98 bb c8 e6 a2 3c b0 14 2b 3d
       0.02146626 -0.00466115 0.019885436 0.041767776
000090 4b a5 1d ba f8 14 05 bd 60 45 cd bc 77 a7 3e 3d
       -0.0006013705 -0.0324907 -0.025057495 0.046546426
0000a0 5a be 93 3a 97 7c ff bc 5e 51 0e 3d 20 86 e4 bc
       0.0011271939 -0.031187339 0.034745567 -0.027895987
0000b0 46 2f c5 3c 52 77 9a 3c 1b d1 e3 bc 02 3e ef 3c
       0.024070393 0.018855724 -0.02780967 0.029204372
0000c0 1b 46 63 bb 5c 78 54 3b 81 f7 6d bc 67 9c e2 3c
       -0.0034679237 0.0032420373 -0.014524342 0.02766247
0000d0 72 91 96 bb 9e 8c 70 3c 5c b6 31 bd 8d 95 3f bc
       -0.004594975 0.014681963 -0.043386802 -0.0116933705
0000e0 a8 28 f8 b9 8d 85 d7 bc 2a 6a 51 bd 82 48 85 bc
       -0.00047332537 -0.0263088 -0.051126637 -0.016269926
0000f0 fa 5d 85 3d da 0d 6a 3c 1a 28 f5 3c f8 bb ec bb
       0.06512065 0.014285529 0.029926348 -0.007224556
000100 53 4a 12 3d 4e d1 1e 3c 9f 95 37 3d 00 82 a6 bc
       0.035715412 0.009693457 0.044820424 -0.02032566
000110 ca 21 4f 3c f3 47 8c 3c fd 51 a0 3c 03 3a 35 bc
       0.012642333 0.017124152 0.019570345 -0.011061194
000120 fe 95 0a 3d ef eb d5 3c 67 75 4c 3c 6e 20 1b bc
       0.03383445 0.026113478 0.012479163 -0.009468181
000130 a1 a8 28 bd 25 fe 1b 3d 60 49 42 3d 03 73 27 bc
       -0.041176442 0.038084168 0.047433257 -0.010220292
000140 f6 46 6f 3c 12 cb 7d 3b 34 9f 0c bd 20 e5 d4 3c
       0.014604321 0.0038725776 -0.034331515 0.025988162
000150 28 28 1b bd d1 3e b3 3c 2b 5d c4 3c cf 6e 80 3b
       -0.037880093 0.02188054 0.023970207 0.0039194594
000160 75 cf 13 3d 34 0c a9 ba 9b 3f 8d bc 5a 96 a0 bc
       0.03608652 -0.0012897314 -0.017242244 -0.019602943
000170 37 ed 11 bd 9e 66 93 3c 1b 6d 2a 3d 97 77 1c bc
       -0.035626616 0.017993268 0.041607957 -0.009549997
000180 15 3c c9 bb 12 79 c4 3c 9d c9 10 3d b4 f0 5e 3b
       -0.0061411955 0.023983512 0.035348523 0.0034017982
000190 5d 17 1e bd 57 32 04 3d f1 e2 25 3d 9b 25 03 bd
       -0.0385965 0.03227457 0.04049963 -0.032018285
0001a0 4c aa 22 3d 42 98 fe 3c 24 62 72 bc c1 0f a5 bc
       0.03971319 0.031078462 -0.014793906 -0.020149114
0001b0 4f 7a b2 bc 57 b4 33 3b 7f 27 0e 3d fa e5 87 3c
       -0.021786837 0.0027420723 0.034705635 0.016589154
0001c0 ce e0 ff bc 9a 72 e0 3c fa 6a 24 bd 2a 26 29 bd
       -0.031235125 0.027398396 -0.040141083 -0.04129616
0001d0 28 72 85 bd 64 88 29 3d 56 e9 78 3d fb c8 c8 bb
       -0.06515914 0.041389838 0.0607694 -0.0061274744
0001e0 1d a3 fd bc 4f ff eb 3b 95 dd 0d bc a3 8c 19 bd
       -0.030961568 0.007202066 -0.008658786 -0.037487637
0001f0 fd 0d 87 3a 9d 9c 03 3d b3 9a 27 bd 54 ca 6e 3d
       0.0010303851 0.03213178 -0.040919017 0.058298424
000200 96 25 0d 3d ca f1 94 bb 0b 7a 04 bd 7a da 85 3b
       0.034459673 -0.004545425 -0.03234295 0.0040848823
000210 53 78 14 bd dc a1 91 bd f2 de a5 3c df 88 2e 3d
       -0.036247563 -0.0711095 0.02024791 0.042611
000220 1e 4b ae bb f7 d0 e6 bc ff 27 ad bb ed eb 38 3a
       -0.0053190133 -0.028175814 -0.005284309 0.00070541986
000230 71 e0 a5 3c 5d e4 9e bc 06 8e 84 3c c3 5a 35 3c
       0.020248624 -0.019396001 0.016181003 0.011069003
000240 7a 6a 2c 3d 6e cd 08 bd 23 86 4a bb 28 c7 f1 3c
       0.04209373 -0.033399038 -0.0030902706 0.02951391
000250 a4 da 46 bc 51 c6 6b bb d8 89 25 3d b8 38 cf 3b
       -0.012137089 -0.003597636 0.04041466 0.0063239
000260 ad e8 dd 3b 14 e0 14 bd 77 80 76 3c f1 75 3d bd
       0.006772122 -0.03634651 0.015045277 -0.046255056
000270 78 3b cc 3c 9d 46 3a bc 94 be 03 3d d9 97 a5 bc
       0.0249307 -0.011369375 0.03216417 -0.020214008
000280 34 b9 86 bb 29 96 18 3d c8 49 f2 bc ec e1 5b bc
       -0.0041114334 0.03725258 -0.029576197 -0.013420563
000290 be b0 4e 3c 6d e9 8a 3b 23 43 d1 3c 90 9b 3c bb
       0.012615381 0.0042392523 0.025544709 -0.0028779246
0002a0 34 d4 80 3b 21 18 02 3d af 30 53 bd b8 91 72 bc
       0.0039315466 0.031761292 -0.0515601 -0.01480525
0002b0 5d 28 09 3d 98 37 53 bd 29 f7 52 3d 00 6d 82 ba
       0.03348576 -0.05156669 0.05150524 -0.0009950697
0002c0 56 f4 ba 3c 3e 2a 1b 3c c2 c3 a1 bc 37 5e 66 bc
       0.022821587 0.009470521 -0.019746665 -0.0140605485
0002d0 6f ce 09 3d a2 16 13 3d 42 50 08 3c 9f a4 91 3b
       0.033644136 0.035910256 0.008319916 0.004444673
0002e0 10 87 1e bd cf d9 29 3d da 53 7f 3c 8a 0b 2c bc
       -0.038703024 0.041467484 0.015583957 -0.010500798
0002f0 90 a8 81 bd 08 ca aa 3b 50 b9 0f bd 3b f4 02 3d
       -0.06330979 0.0052120723 -0.035088837 0.031971198
000300 1d 2d e2 3b 1d 30 24 3c 14 b4 0f bd 89 30 28 3d
       0.0069023506 0.010021237 -0.035083845 0.04106191
000310 bb ed f4 bc c6 ac 06 3c 36 0b 32 bd 69 30 ad bc
       -0.029898515 0.008219903 -0.043467723 -0.021141248
000320 55 bc 6d bc c0 5a 2d bd 5b ea 05 bd 54 7f be 3c
       -0.014510234 -0.042322874 -0.032694202 0.023254074
000330 e4 12 63 3c 5e 15 0c bd af 1b 6d bc 0b 8d a1 bc
       0.013859484 -0.034200065 -0.014471932 -0.019720575
000340 da b2 0c bd f8 11 08 bd 82 63 bd 3b 97 d8 75 bc
       -0.034350254 -0.03322026 0.0057796845 -0.015005252
000350 23 ec 26 3c 2e 49 de 3b 4b 1d 89 bc 98 89 fb bc
       0.010188135 0.006783626 -0.0167376 -0.030705258
000360 b4 b7 c0 bc 68 1a 1b 3d 84 41 dc bc af a6 08 3c
       -0.023525096 0.03786698 -0.026886709 0.008340522
000370 bb 11 93 bc 21 4a 09 bd ba 9a fd bc cc 78 55 3d
       -0.01795279 -0.03351796 -0.030957568 0.052117154
000380 7d 48 07 3c 28 2c a4 bc 92 8e 40 bd 65 76 ed bc
       0.008257029 -0.020040587 -0.047010966 -0.028987119
000390 a9 61 a5 3c 3d de 82 3c 2d fd ac 3c ac 26 76 3c
       0.02018817 0.015975112 0.021116817 0.0150238685
0003a0 15 96 af bc e7 83 1c bd 05 ee 16 bd a7 8a c8 bc
       -0.02143387 -0.03821173 -0.036848087 -0.024480177
0003b0 55 5e 2d 3c b5 04 c4 3b 08 76 06 3d b1 02 c6 3b
       0.010581573 0.0059820064 0.032827407 0.0060428013
0003c0 85 ae 47 3d 95 ab 01 3d 1a f5 bb 3b 25 57 c6 3c
       0.04875042 0.031657774 0.0057360055 0.024211476
0003d0 2c 0d 7f bc b7 5f a8 bc 3f 45 0c bd 50 42 50 3d
       -0.015567105 -0.020553453 -0.034245726 0.05084449
0003e0 bc c4 34 bb d1 af 6e bd d4 36 8c bc f0 8c 6e 3d
       -0.0027583083 -0.05827314 -0.017115988 0.058239877
0003f0 74 1b 8d 3c 9e 2a 23 bd 79 32 89 3c 6d 71 bc bc
       0.017225005 -0.039835565 0.0167477 -0.023003304

action_model._continuous_distribution.mu.bias f4 [2]
000000 01 3d c9 bb 8b 39 94 bb
       -0.0061413054 -0.004523461

exp_avg f4 [128, 5]
000000 df 88 d6 37 47 16 6d 35 6a 12 53 b7 ff 78 bd b7
       2.5574524e-05 8.83218e-07 -1.2580867e-05 -2.2586899e-05
000010 5b 52 f2 b4 9a 1f 21 37 9e 73 3d b6 2e 06 0a b5
       -4.5135934e-07 9.603706e-06 -2.8230493e-06 -5.1418e-07
000020 3b b8 42 b6 34 e2 aa 35 b8 96 2b 38 5e 9e e3 37
       -2.901549e-06 1.2731821e-06 4.0909945e-05 2.7134254e-05
000030 03 37 4f 38 b7 2a 67 38 87 40 88 37 45 19 ef 35
       4.940388e-05 5.5114473e-05 1.6242511e-05 1.7814242e-06
000040 01 bf 62 b7 84 eb 9b b7 f0 e7 cf b7 40 cc c7 36
       -1.3515121e-05 -1.858711e-05 -2.4784327e-05 5.95444e-06
000050 6a 79 0f b8 01 64 bb b6 72 d4 30 b7 9c 2b 5c b6
       -3.4206932e-05 -5.5846763e-06 -1.0539881e-05 -3.2807939e-06
000060 19 7c b1 35 4f 1f 25 b6 4f c2 a3 b6 e3 96 09 b7
       1.3223645e-06 -2.460514e-06 -4.880399e-06 -8.200967e-06
000070 1c fc 29 b7 c6 fd 24 b4 ca d0 1d 38 cc b7 5b 38
       -1.0131884e-05 -1.5366012e-07 3.7626167e-05 5.2384843e-05
000080 1d 65 e8 37 49 a7 b4 37 c6 ab 54 b7 b1 ab 0e 37
       2.770364e-05 2.153557e-05 -1.2676179e-05 8.503835e-06
000090 fc 78 9a 37 2e 00 21 36 27 32 da b4 47 0a 82 b6
       1.8414568e-05 2.3990974e-06 -4.0642155e-07 -3.8754984e-06
0000a0 23 a2 bb b7 79 43 9b b6 3d 5e 02 b8 b1 dd 09 b8
       -2.2367638e-05 -4.627215e-06 -3.108218e-05 -3.286981e-05
0000b0 d7 fb 5e b6 6f 34 de b7 7f 72 b0 b7 d9 a9 be b7
       -3.3227168e-06 -2.6488879e-05 -2.1034151e-05 -2.2728856e-05
0000c0 f7 b7 a8 b7 29 ee 1f b6 2a 5c c6 b6 f2 74 59 b6
       -2.0112826e-05 -2.3831474e-06 -5.911589e-06 -3.240359e-06
0000d0 bd 36 90 b7 f9 8d ad b7 29 dd 4e b5 bd b0 a0 37
       -1.7191627e-05 -2.0689318e-05 -7.706281e-07 1.9155787e-05
0000e0 86 25 91 37 cc 6b 0c 37 d8 00 d6 36 51 93 83 36
       1.730282e-05 8.369749e-06 6.377795e-06 3.921254e-06
0000f0 f1 ef 4e b8 70 7e 2e b6 4e 95 a3 b7 18 44 71 b7
       -4.933769e-05 -2.6001617e-06 -1.950064e-05 -1.4380574e-05
000100 bb 38 1b b7 d5 68 97 b7 0a dd 82 b7 37 ad 32 b6
       -9.2519285e-06 -1.8049419e-05 -1.5600137e-05 -2.6624891e-06
000110 77 bc d9 35 13 ef 1c 36 4d dc 3d b5 e7 18 af 37
       1.622261e-06 2.338497e-06 -7.0728566e-07 2.0873222e-05
000120 56 57 6b 37 6b 68 90 37 54 ea 08 b6 fc f9 98 37
       1.4027426e-05 1.7214761e-05 -2.0401976e-06 1.823622e-05
000130 6f 63 6b 37 05 90 04 36 87 52 68 b5 b9 3b 03 36
       1.4030243e-05 1.9753363e-06 -8.654683e-07 1.9555284e-06
000140 bf db db 36 d3 19 a2 b6 2a f3 3f b7 e8 eb 84 b7
       6.5522904e-06 -4.8309826e-06 -1.1441103e-05 -1.5845479e-05
000150 03 5a 58 b5 00 d0 23 38 69 6d 08 38 1a 8a d9 35
       -8.0597255e-07 3.9055943e-05 3.2526823e-05 1.6207953e-06
000160 9a 93 e7 b6 2c b3 0c b7 9f 53 0a b8 3a 2d b3 b5
       -6.9015196e-06 -8.386367e-06 -3.2979642e-05 -1.3349702e-06
000170 a7 a1 8d b7 c5 7a 5d b7 09 06 97 b6 07 6e 1d b8
       -1.6883785e-05 -1.3201211e-05 -4.5008533e-06 -3.7534188e-05
000180 bf 4f a5 36 01 ea 43 38 87 88 92 38 b9 6e 9e b6
       4.926667e-06 4.6709556e-05 6.987253e-05 -4.7216568e-06
000190 bd f6 22 b6 fc 04 8b b6 6e f4 95 b6 77 5b b8 b6
       -2.4283502e-06 -4.143103e-06 -4.4690014e-06 -5.4942752e-06
0001a0 8d 3d 93 33 c6 1e 04 38 a2 99 5b b6 3c a8 15 b7
       6.856417e-08 3.1499912e-05 -3.272297e-06 -8.920262e-06
0001b0 73 58 97 b7 c1 8a 85 36 46 43 c5 36 fd a2 45 38
       -1.804179e-05 3.979862e-06 5.878889e-06 4.7120255e-05
0001c0 0f 72 f5 37 8d b1 f4 37 e8 65 a4 36 ba 66 21 b7
       2.9259389e-05 2.9169745e-05 4.8994443e-06 -9.620266e-06
0001d0 8f 51 0d 37 c1 c2 d5 37 2f b5 10 38 6e cd f2 35
       8.423244e-06 2.5482268e-05 3.4501016e-05 1.8090193e-06
0001e0 1d 3c 10 36 1c 1f ae 34 e9 8a 03 36 0d 9f ff 35
       2.1492663e-06 3.243266e-07 1.9601378e-06 1.904527e-06
0001f0 df d4 9e 34 66 9a 37 37 f2 50 e3 37 37 33 02 38
       2.9584677e-07 1.0943599e-05 2.7098202e-05 3.1042113e-05
000200 3d 40 0c 38 ce 6d c7 36 7e 79 ae 37 f1 0a f2 37
       3.3438428e-05 5.943445e-06 2.079899e-05 2.8853743e-05
000210 0a b6 32 36 64 3f e1 b5 4f 18 47 b6 09 c0 3e 36
       2.6630028e-06 -1.6782255e-06 -2.966746e-06 2.8423985e-06
000220 e6 e1 ce 36 05 67 4f 37 91 5b 76 37 a8 13 72 34
       6.1655765e-06 1.2362148e-05 1.4684062e-05 2.2545157e-07
000230 ec 99 db 35 1f 4a 86 36 c5 03 c8 b7 3d d7 f7 b7
       1.6361569e-06 4.00214e-06 -2.3843613e-05 -2.9544923e-05
000240 7c d4 1c b7 51 32 44 b8 28 22 06 37 fb 4a 82 36
       -9.3477975e-06 -4.6776902e-05 7.994975e-06 3.883031e-06
000250 4d b1 8c 37 6c dd 35 b7 0c 35 ed 37 e9 2f e2 37
       1.6771863e-05 -1.08399945e-05 2.8277303e-05 2.696361e-05
000260 4a f9 de 37 c9 cc d7 37 a5 f7 ac b6 9f a9 55 b7
       2.6580547e-05 2.5725358e-05 -5.154829e-06 -1.2735282e-05
000270 b2 c3 95 b6 80 8a bc b7 a6 3b d7 b7 f9 28 a2 b6
       -4.463328e-06 -2.247584e-05 -2.5657773e-05 -4.832746e-06
000280 46 04 d4 37 a1 f7 f5 37 5e 2a a0 37 c3 66 8c 37
       2.527436e-05 2.9321587e-05 1.9093215e-05 1.6737153e-05
000290 7a ab 81 b6 bb 36 9e 36 91 9d 4b 37 43 3b 75 36
       -3.864462e-06 4.7151384e-06 1.2136429e-05 3.654234e-06
0002a0 cd 42 3f 36 df 72 b7 36 d4 95 be 37 ff 2d 01 38
       2.85001e-06 5.4671978e-06 2.2719534e-05 3.0798834e-05
0002b0 1e b4 3f 37 dc 2c 26 37 b5 2c 8b 36 d3 1f 9c b7
       1.1426424e-05 9.904816e-06 4.1477274e-06 -1.8611468e-05
0002c0 e3 90 fe 36 44 6b f4 37 95 77 2e 38 da f5 1a b6
       7.586657e-06 2.9137016e-05 4.1596202e-05 -2.3090893e-06
0002d0 fe e0 78 37 9a 8e 92 37 61 ff 03 37 6c 82 c3 36
       1.4834337e-05 1.747096e-05 7.8676685e-06 5.826636e-06
0002e0 f6 39 13 b5 30 a0 a4 b7 85 97 82 b7 04 db 55 b7
       -5.484611e-07 -1.9624917e-05 -1.5567764e-05 -1.2746783e-05
0002f0 b8 20 47 b7 63 24 92 b6 04 64 b0 b7 91 ad 24 b7
       -1.1868942e-05 -4.355375e-06 -2.1027408e-05 -9.815573e-06
000300 d8 09 ea b7 ab 2c f7 b7 b7 ab b6 b6 3e 86 38 37
       -2.7899558e-05 -2.9465495e-05 -5.444013e-06 1.099851e-05
000310 70 87 b6 37 18 27 8f 36 ca 42 fe 35 b0 6e 85 b6
       2.1759159e-05 4.266283e-06 1.8943913e-06 -3.9765946e-06
000320 33 31 85 37 b4 70 51 37 e6 f3 fa b6 85 ac 64 b7
       1.5877746e-05 1.24836115e-05 -7.478974e-06 -1.3630027e-05
000330 8e 97 c0 b6 c6 3f 5b b7 2d 20 f1 b6 77 eb 99 b7
       -5.739689e-06 -1.3068266e-05 -7.1861054e-06 -1.8348668e-05
000340 fb 78 a5 b7 f1 8b a3 b6 e2 63 8b b7 94 35 02 b7
       -1.9725869e-05 -4.87407e-06 -1.6616603e-05 -7.761078e-06
000350 4d c3 ba b7 31 a5 c2 b7 d8 34 ff b6 39 fb 39 37
       -2.2263872e-05 -2.3203525e-05 -7.605744e-06 1.1085352e-05
000360 f9 7e 64 36 11 d7 fd b5 2a 54 cf b6 f2 5e 42 b5
       3.4048555e-06 -1.8912561e-06 -6.1788787e-06 -7.2408795e-07
000370 46 30 00 b5 05 6c 4f 37 55 f6 64 38 97 fe 96 38
       -4.7753963e-07 1.2363312e-05 5.458885e-05 7.1999784e-05
000380 20 9b f5 b6 14 1e 1a b5 bb 3a 5e b7 41 35 79 b7
       -7.319628e-06 -5.741324e-07 -1.3245905e-05 -1.4853956e-05
000390 c7 8c 93 b7 17 d3 47 b5 99 d7 34 b8 52 0c 7b b7
       -1.758932e-05 -7.4440453e-07 -4.3116135e-05 -1.4963634e-05
0003a0 46 48 10 b8 d1 98 fd b7 95 09 08 b7 ca 2e 17 b8
       -3.4399585e-05 -3.0231111e-05 -8.108463e-06 -3.604478e-05
0003b0 0d cd 3b b7 7f 70 8f b7 b5 31 4a b7 e1 cc 1b b7
       -1.1193811e-05 -1.7099313e-05 -1.2051712e-05 -9.286422e-06
0003c0 2f ba ce b7 ab 39 4b 36 57 c7 90 b7 21 3a 9b b7
       -2.4643812e-05 3.0282924e-06 -1.7258963e-05 -1.8504508e-05
0003d0 3c e1 de b6 3c 84 96 35 fa 7a 8f b6 9a fe 2b 36
       -6.6423363e-06 1.1214356e-06 -4.2760485e-06 2.5629183e-06
0003e0 b6 52 0f 36 9f 3a 16 36 50 3e 6f b7 83 14 4a b7
       2.1356805e-06 2.2385864e-06 -1.4260018e-05 -1.2044914e-05
0003f0 99 f5 95 33 47 aa 71 36 a1 50 5e b6 01 5e 4c 38
       6.983027e-08 3.6010913e-06 -3.312751e-06 4.8724938e-05

exp_avg_sq f4 [128, 5]
000000 33 93 35 31 de 49 cd 31 99 bb 14 32 d0 8b 23 32
       2.642264e-09 5.974683e-09 8.657389e-09 9.519638e-09
000010 b5 2c ba 30 c2 fd 9f 2f 4d c2 d1 2f 43 49 41 30
       1.3545988e-09 2.9102237e-10 3.8154938e-10 7.03171e-10
000020 a2 99 53 30 7e 5d 44 2f 46 11 59 31 48 11 33 32
       7.697968e-10 1.7859311e-10 3.1587475e-09 1.0423101e-08
000030 3f db 2f 32 9e d9 39 32 94 6b 46 31 fe 7e 89 30
       1.02361915e-08 1.0817898e-08 2.8873943e-09 1.0004155e-09
000040 33 b6 5c 31 17 32 6b 31 1f 1d 6f 31 d1 62 cf 2f
       3.2117782e-09 3.4225474e-09 3.479563e-09 3.7723294e-10
000050 d9 22 47 31 a7 6e d5 31 1c 5d 19 32 7a 0c 24 32
       2.897812e-09 6.2116956e-09 8.926943e-09 9.548893e-09
000060 4d 67 dd 30 68 fe dc 2f fb 7c ac 30 94 a7 c2 30
       1.6109226e-09 4.0198533e-10 1.2550169e-09 1.4162986e-09
000070 9b 07 c9 30 d2 91 59 2f 3e 92 ef 31 2c 02 8e 32
       1.4626836e-09 1.9787841e-10 6.9724413e-09 1.6531963e-08
000080 e1 79 b3 32 74 e7 d0 32 ce a3 93 31 96 78 0c 30
       2.0893767e-08 2.431964e-08 4.2968855e-09 5.1103066e-10
000090 03 2b a2 31 a6 36 28 31 b5 7e 1b 31 ed 46 7e 30
       4.7197104e-09 2.4478282e-09 2.2627493e-09 9.2505453e-10
0000a0 35 10 26 31 c6 fb 87 31 4e d6 04 32 d1 9e 0f 32
       2.4165392e-09 3.9576404e-09 7.7321385e-09 8.359806e-09
0000b0 e2 d3 e6 30 25 78 fc 30 f5 bd 62 31 08 41 ce 31
       1.6794923e-09 1.836956e-09 3.2995306e-09 6.0027823e-09
0000c0 9f 33 de 31 fe dd fe 30 92 53 c1 2f 67 cc 07 31
       6.466919e-09 1.8544026e-09 3.5165876e-10 1.9761275e-09
0000d0 80 e2 ce 30 8d 3f cc 30 9f 84 4b 2f ab 7d 48 30
       1.5052848e-09 1.4861016e-09 1.8509859e-10 7.293816e-10
0000e0 e6 71 6d 31 8d 46 6d 31 15 fe 77 31 ac ae 8c 30
       3.4552783e-09 3.4528143e-09 3.608766e-09 1.0235985e-09
0000f0 23 57 8d 31 13 c9 21 32 e1 21 8e 32 ee bd 98 32
       4.1135464e-09 9.417152e-09 1.6546382e-08 1.7781499e-08
000100 b8 8b 50 31 b4 30 01 31 99 7c d8 31 fc 39 0b 32
       3.0347405e-09 1.8799655e-09 6.3005925e-09 8.104049e-09
000110 93 19 17 32 d0 08 f8 30 c9 89 50 30 49 69 7b 31
       8.795172e-09 1.804688e-09 7.5865764e-10 3.6585155e-09
000120 fd 9d 3c 31 ed 9b 3b 31 18 7d c7 2f 7b aa 06 30
       2.7447407e-09 2.7300715e-09 3.6286774e-10 4.8991183e-10
000130 44 3e 36 31 e7 5a 34 31 29 f3 3f 31 55 1b 0e 30
       2.651988e-09 2.624512e-09 2.7932379e-09 5.169814e-10
000140 eb 82 42 30 a9 2d 38 31 e7 48 23 31 ba bd 22 31
       7.0762834e-10 2.6801479e-09 2.3761062e-09 2.368195e-09
000150 35 13 96 2f 01 3a 49 31 75 9f 46 32 43 ab 5a 32
       2.7298488e-10 2.928232e-09 1.1561373e-08 1.27282105e-08
000160 bc e9 78 32 fc df 22 31 a0 37 da 30 49 8c 49 31
       1.4488645e-08 2.3701423e-09 1.5877397e-09 2.9329092e-09
000170 57 30 c7 31 ca b7 d8 31 aa d1 91 30 44 67 20 32
       5.797158e-09 6.3073218e-09 1.0609729e-09 9.336706e-09
000180 cc fd 09 33 f6 99 18 33 44 6b 1b 33 a1 aa 84 31
       3.2128625e-08 3.5530284e-08 3.6186307e-08 3.861104e-09
000190 f5 6d e9 2e ca b5 0b 30 39 4b e4 2f ce 4a dc 2f
       1.06151456e-10 5.0826243e-10 4.1526407e-10 4.007092e-10
0001a0 d1 ae 86 2e 2c 29 07 31 e4 30 b6 31 6c 8c ff 31
       6.124668e-11 1.966849e-09 5.3024554e-09 7.437441e-09
0001b0 3c ba 0d 32 97 93 09 31 43 80 4e 31 3b 85 67 31
       8.249625e-09 2.002002e-09 3.0049854e-09 3.3690657e-09
0001c0 4c e8 98 31 d3 5f a5 31 c0 1d 70 31 c9 16 db 30
       4.4501913e-09 4.813026e-09 3.4941507e-09 1.5940823e-09
0001d0 60 a8 eb 31 a3 74 cf 31 1a c2 c9 31 c5 aa 3e 30
       6.858542e-09 6.037753e-09 5.8719367e-09 6.9364275e-10
0001e0 9a 89 a7 2e ad 6c 2b 30 e3 41 e8 2f a8 30 d7 2f
       7.618724e-11 6.2363875e-10 4.224737e-10 3.9142845e-10
0001f0 a9 69 d0 2e 3e 6b 00 31 1b bb 1f 31 bb a6 83 31
       9.477514e-11 1.8687412e-09 2.3243902e-09 3.831557e-09
000200 3d 35 8d 31 9e c9 ac 30 bd d3 9a 30 e6 d6 bf 31
       4.1096926e-09 1.257195e-09 1.1265154e-09 5.5832627e-09
000210 dc 6b a8 31 f2 f6 b6 31 b3 67 eb 30 54 11 bd 2f
       4.9017057e-09 5.3249716e-09 1.7127973e-09 3.4391212e-10
000220 a7 9e 1d 31 50 67 e4 30 2f 40 e0 30 61 69 7e 2f
       2.293669e-09 1.6618547e-09 1.6316387e-09 2.3138604e-10
000230 d4 1e 36 30 42 62 7c 31 00 8e 1e 31 05 68 18 31
       6.6255024e-10 3.672668e-09 2.3072744e-09 2.217804e-09
000240 c5 e0 f6 2f 5b ad 8f 31 d0 3d 32 32 9f e4 89 32
       4.4906848e-10 4.181556e-09 1.0375018e-08 1.6052864e-08
000250 e2 c1 92 32 28 51 40 31 39 8e 43 31 bc a1 f3 31
       1.7084805e-08 2.798581e-09 2.845708e-09 7.090618e-09
000260 b2 4b 33 32 f3 a9 4b 32 d8 6e 13 31 50 8a 0b 30
       1.0436382e-08 1.1854797e-08 2.1454323e-09 5.076446e-10
000270 1a 6b a3 30 bd 82 f3 30 7d 01 02 31 33 67 cb 2f
       1.1890251e-09 1.7717735e-09 1.8918336e-09 3.6998812e-10
000280 bd 4a 04 31 1b f2 bb 31 66 c1 f5 31 7a 6d 0a 32
       1.9251012e-09 5.4699405e-09 7.1524253e-09 8.057549e-09
000290 ea 91 df 30 c7 66 9c 2f 02 5d 12 30 20 0a 21 30
       1.6266857e-09 2.8449262e-10 5.324666e-10 5.858585e-10
0002a0 00 66 1e 30 90 2e a7 30 7d 4e b1 30 3f 4e a3 31
       5.7625016e-10 1.2164083e-09 1.2900753e-09 4.75282e-09
0002b0 cf fd 99 31 13 d7 a1 31 1c 94 e9 30 d8 69 41 31
       4.4817408e-09 4.710168e-09 1.6995076e-09 2.8145362e-09
0002c0 19 e6 52 32 d8 72 54 32 7d 89 55 32 31 2c ac 30
       1.2275927e-08 1.2366137e-08 1.2429493e-08 1.2527207e-09
0002d0 d1 75 c3 2f b6 10 ef 30 8f be d9 30 bd d0 e5 30
       3.5554007e-10 1.7394288e-09 1.5842988e-09 1.672127e-09
0002e0 f6 3c ff 2f 65 4a 47 30 18 7a f2 30 0f ff 48 31
       4.6427545e-10 7.25015e-10 1.7642519e-09 2.9248814e-09
0002f0 65 a5 5e 31 94 f1 4f 30 42 db 23 31 30 5b 94 31
       3.2399268e-09 7.5649464e-10 2.3844255e-09 4.3177337e-09
000300 1b 09 12 32 2a e4 1e 32 45 df 20 31 14 1f 0c 30
       8.500389e-09 9.248689e-09 2.3409978e-09 5.097587e-10
000310 8d 7a 1a 31 ae 36 ea 30 28 50 e7 30 02 f5 19 30
       2.2479612e-09 1.7041282e-09 1.6830244e-09 5.6009253e-10
000320 10 80 9a 30 3b 51 d8 31 e6 39 ac 31 c1 75 b7 31
       1.1241372e-09 6.295662e-09 5.012441e-09 5.339388e-09
000330 f8 42 80 30 01 ed 16 30 46 ba 07 31 b6 92 18 31
       9.332259e-10 5.4906485e-10 1.975097e-09 2.2202307e-09
000340 86 7f 1c 31 4c ce e1 2f 40 a9 bc 30 78 97 4f 31
       2.2773476e-09 4.1073844e-10 1.3726904e-09 3.0208565e-09
000350 9d 98 9d 31 92 31 a5 31 73 19 ec 30 80 d5 39 30
       4.5866515e-09 4.8077675e-09 1.7178493e-09 6.760601e-10
000360 6d c1 10 31 67 44 13 31 31 a7 18 31 e2 45 aa 2f
       2.1064708e-09 2.1430198e-09 2.2213948e-09 3.0972475e-10
000370 c0 3b ab 31 61 c9 f9 32 05 95 d2 32 2e 67 ca 32
       4.983548e-09 2.9078992e-08 2.4514984e-08 2.3562816e-08
000380 67 28 39 31 18 cb 52 30 b7 40 51 31 d5 7f 30 31
       2.694401e-09 7.668617e-10 3.045029e-09 2.5684035e-09
000390 2e 50 2b 31 bf 81 a3 2f 23 c1 04 32 b0 9f 6e 32
       2.4929352e-09 2.9741717e-10 7.7273254e-09 1.3889732e-08
0003a0 50 a9 d9 32 30 2d ea 32 6f 97 e2 31 6b e3 72 31
       2.533912e-08 2.7261734e-08 6.5946817e-09 3.5344907e-09
0003b0 d5 96 1c 32 3c cf 69 32 da 77 7b 32 5c bf 3d 31
       9.11469e-09 1.3609505e-08 1.4637374e-08 2.7611895e-09
0003c0 7a 70 46 30 93 41 ea 30 6a a8 4a 31 98 f2 5f 31
       7.219182e-10 1.7044378e-09 2.94906e-09 3.258867e-09
0003d0 b3 cc 43 30 fb 7e 26 2f 92 08 cb 2f 50 52 fe 2f
       7.123148e-10 1.5142725e-10 3.6931574e-10 4.6260817e-10
0003e0 ff 1c 07 30 d5 66 36 2f 8b fb 2b 30 d1 59 35 31
       4.915392e-10 1.6589337e-10 6.25669e-10 2.6390021e-09
0003f0 b3 7b 42 31 ab 6f 48 31 e3 f1 0a 30 7e 7f 3a 32
       2.830103e-09 2.9167306e-09 5.054785e-10 1.0855613e-08

exp_avg f4 [128]
000000 46 51 c9 b7 38 da 46 35 8e dd ee 38 fc 19 3c b8
       -2.3998913e-05 7.40783e-07 0.00011389992 -4.4846893e-05
000010 11 c8 0b b8 c5 d4 aa b7 e6 9d 99 38 cd 7f b4 36
       -3.332651e-05 -2.0364658e-05 7.3250194e-05 5.379296e-06
000020 2a 78 ad b8 be fa 69 b8 a6 0a 2a b8 45 e9 b5 37
       -8.271665e-05 -5.578505e-05 -4.0541076e-05 2.1685506e-05
000030 52 65 82 b8 e2 44 09 b7 b2 83 fa 37 ac 6b e0 36
       -6.2177554e-05 -8.181874e-06 2.9863648e-05 6.688255e-06
000040 a3 0f df b7 6a 9f 2c 37 d7 5d 4b b8 49 99 db 38
       -2.6590953e-05 1.0289115e-05 -4.8486367e-05 0.00010471285
000050 0e c5 44 b7 56 e7 88 b7 2d 96 8c 38 d1 15 72 38
       -1.1728391e-05 -1.6320188e-05 6.7036926e-05 5.7717614e-05
000060 59 7c b6 36 36 21 a2 38 e2 24 01 37 e4 8f ea 37
       5.4384986e-06 7.730948e-05 7.697587e-06 2.7961978e-05
000070 e3 57 72 b8 87 ed 0b b6 96 a2 93 38 86 b2 6b b8
       -5.7779147e-05 -2.0850873e-06 7.03979e-05 -5.619463e-05
000080 f5 a0 4e 38 72 d1 0b 37 1e 13 f0 37 4f b3 85 38
       4.926413e-05 8.333811e-06 2.8619132e-05 6.375333e-05
000090 20 95 a0 37 67 aa 0d b8 06 de 98 b8 c2 71 4c 37
       1.9142928e-05 -3.377572e-05 -7.28928e-05 1.2185834e-05
0000a0 3d 3c a6 b7 ce 51 45 b8 37 55 6d b8 ae 39 3e b6
       -1.9816793e-05 -4.7044647e-05 -5.6584566e-05 -2.834578e-06
0000b0 12 f3 02 39 39 8d 0f b8 78 e6 c5 b8 2f b3 4d b8
       0.00012488317 -3.422538e-05 -9.43662e-05 -4.9042686e-05
0000c0 d0 12 51 b8 24 8d 07 37 0f 2c 3f b6 ca ce 21 39
       -4.9847004e-05 8.079489e-06 -2.8486863e-06 0.00015431191
0000d0 32 dd 7c 38 fa 38 03 37 44 61 cf 36 c6 9a 0e 39
       6.0287486e-05 7.821474e-06 6.180404e-06 0.00013599833
0000e0 ff 39 7f 37 5c 0c 43 38 37 a7 db 38 14 6b 2b 38
       1.5212688e-05 4.6503133e-05 0.0001047388 4.08693e-05
0000f0 de 88 20 b8 08 59 06 36 54 c9 ac b8 94 93 99 b7
       -3.827444e-05 2.001938e-06 -8.2390994e-05 -1.8307743e-05
000100 db 59 42 38 2f 5b 60 b8 d1 ee 09 38 c1 2d f4 b7
       4.633689e-05 -5.3490683e-05 3.288576e-05 -2.9108372e-05
000110 ce 22 c4 b6 c1 3a dd 36 14 6c e1 38 8c 4b 1e b8
       -5.845307e-06 6.593153e-06 0.00010748967 -3.7740494e-05
000120 a7 8c 18 b8 e1 88 4c b8 19 a7 94 38 73 f6 dd 37
       -3.6370617e-05 -4.876487e-05 7.088314e-05 2.6460015e-05
000130 d1 f8 b1 38 62 05 35 37 77 2c 90 38 cb 78 b6 38
       8.4863634e-05 1.0789694e-05 6.874737e-05 8.700936e-05
000140 f9 8e 56 38 9a c7 00 38 bc 1d 3a b8 1c 68 90 b7
       5.115473e-05 3.070347e-05 -4.4373548e-05 -1.7214617e-05
000150 87 3f fe b7 45 00 50 37 cb ff b0 37 df 98 54 39
       -3.0308742e-05 1.2397829e-05 2.1099948e-05 0.00020274844
000160 17 ea 0d 38 06 4e e6 38 6a 7a 3d 38 eb 43 66 b8
       3.3835033e-05 0.00010981788 4.517512e-05 -5.4899527e-05
000170 fb 1d 5a 38 b4 31 9f 38 ef fb 24 b8 c1 c3 de 37
       5.200317e-05 7.590969e-05 -3.933528e-05 2.6555617e-05
000180 37 76 13 b8 b4 22 19 38 69 9b f5 37 b2 83 b1 b7
       -3.5157627e-05 3.6510362e-05 2.9278644e-05 -2.116137e-05
000190 dd a9 d0 b7 04 dc 46 38 f5 ba 51 b7 7f 8f c3 37
       -2.4874631e-05 4.7411784e-05 -1.25009e-05 2.3312632e-05
0001a0 ad 75 ad b8 b8 91 0c b8 bf e3 e2 37 45 62 ba b8
       -8.271202e-05 -3.3514312e-05 2.7047352e-05 -8.887475e-05
0001b0 8c fd 94 38 ad ee 31 b7 1f 7d 6e b7 af c4 96 38
       7.104417e-05 -1.0605593e-05 -1.42150375e-05 7.1891925e-05
0001c0 e5 d3 93 b7 d1 27 54 38 e9 e6 83 37 40 87 d5 38
       -1.7622437e-05 5.058182e-05 1.5723943e-05 0.00010181824
0001d0 f2 85 35 b7 ee c1 30 38 26 f2 46 37 b0 3f 42 b8
       -1.0819627e-05 4.214228e-05 1.1858099e-05 -4.6312518e-05
0001e0 48 9b 25 38 ac 78 f6 b7 df 8f 85 38 c0 00 de b7
       3.9483682e-05 -2.9381677e-05 6.368732e-05 -2.6464812e-05
0001f0 a8 52 21 37 70 16 81 b7 57 b8 94 38 19 26 1a 37
       9.615593e-06 -1.5388447e-05 7.091526e-05 9.187986e-06
