Simulator/results/test_training/My Behavior/My Behavior-99970.pt (torch, 435001 bytes, 36 tensors)

network_body._body_endoder.seq_layers.0.weight f4 [128, 5]
000000 15 83 45 3e 52 1e b1 bd f2 03 35 bf ed b8 cf 3e
       0.19288285 -0.08648361 -0.70709145 0.40570775
000010 2b 16 af be 63 3d 05 3f ec ba 2c bd 4b 47 55 bf
       -0.341966 0.52046794 -0.04217045 -0.8331191
000020 ef fe 97 3e d6 44 09 3d 12 76 4f bf 1d 3c 53 be
       0.29686686 0.033512913 -0.81039536 -0.206284
000030 a2 3a f5 3c 4a d0 09 bc 74 fb e0 3e 61 af bc 3e
       0.029935185 -0.008411476 0.43941844 0.36852553
000040 32 18 82 3e 9f dd 7c bd 88 31 49 3d 30 85 59 bf
       0.25409085 -0.06173479 0.049119502 -0.84968853
000050 0e 36 1c 3f 09 3c 0a 3f 55 43 97 3c 21 35 f7 bd
       0.6101998 0.53997856 0.018464724 -0.120706804
000060 0b 40 0d bf fe 48 8b 3f 85 b9 d1 3c e8 7b 69 3e
       -0.55175847 1.088165 0.025601158 0.22801173
000070 02 e0 cf bc 82 b7 58 3e 7c 10 1a 3f a7 d7 2e bf
       -0.02537537 0.21163753 0.60181403 -0.6829781
000080 8f cd 76 bf 34 77 60 3f 23 e0 20 bf 1e 64 f3 3e
       -0.9640741 0.8768189 -0.62842005 0.4753732
000090 39 3e 3e bf ac d6 f2 be 27 0d 01 bf 52 1b 29 3f
       -0.74313694 -0.47429407 -0.50410694 0.6605731
0000a0 f3 36 3c 3f 33 e8 2c 3e d6 5d b2 3e 69 3f 03 bd
       0.73521346 0.16885452 0.34837216 -0.032042895
0000b0 6d fd 7f bd 70 35 1e 3f 38 24 4f 3f b3 02 46 3e
       -0.062497545 0.6180029 0.8091464 0.19336967
0000c0 84 8d 47 be 16 4b 44 3f fc 24 b8 be e7 bb 83 3e
       -0.19487578 0.7667707 -0.35965717 0.25729296
0000d0 67 63 fb be d8 73 93 3e 2c 46 67 be c8 ba 97 be
       -0.49099275 0.2879932 -0.22585362 -0.2963469
0000e0 f3 f7 40 3d 90 06 6c be 70 95 1e bf 9e d0 7f 3e
       0.047111463 -0.23049378 -0.61946774 0.24981925
0000f0 26 1d 6d bd 74 35 93 3e 56 e6 0e 3f 46 3a bf be
       -0.057889126 0.2875172 0.55820215 -0.37349147
000100 49 cb c8 be 48 6b f4 3e 5b 39 b2 bc b9 1f b7 3e
       -0.39217594 0.477381 -0.021755865 0.3576639
000110 74 93 a5 bd fa 46 29 3f 2e 02 6f 3c 7d c7 84 be
       -0.08084765 0.66123927 0.014587922 -0.25933447
000120 25 03 39 3f c6 b9 f3 3c aa b0 8b 3d b2 90 00 bf
       0.72270423 0.02975167 0.06820805 -0.5022079
000130 bd ef 02 be a6 05 c0 be 1a 26 14 bf 80 17 e4 bd
       -0.12786765 -0.3750431 -0.5787064 -0.11137295
000140 06 9a 97 3e 52 6a 01 3e 6b bd a7 be d2 78 a1 be
       0.29609698 0.12638214 -0.32761702 -0.3153749
000150 9e 08 9d be 91 6d cc 3d 68 ae ee be c9 1f 20 bf
       -0.30670637 0.09981836 -0.46617436 -0.625485
000160 5c 17 60 bb 74 14 3e bf ae 41 77 3e 1c 56 13 3f
       -0.003419361 -0.7424996 0.24146149 0.5755327
000170 12 fd 86 3e e8 87 a1 bb 4a ad 10 bf 73 31 80 bc
       0.26364952 -0.0049295314 -0.5651442 -0.01564858
000180 e2 15 f8 3c 58 3d 09 3f 27 fe 60 3e de 35 e2 be
       0.030283872 0.5360923 0.21971951 -0.44181722
000190 6e 33 01 be 57 6b 1f 3f 32 28 d5 3e b6 ac 27 bf
       -0.12617275 0.6227316 0.4163223 -0.6549791
0001a0 e6 80 d8 3e e3 37 9c 3d a2 9a d8 bd 2b 8e 09 bf
       0.42285842 0.07627847 -0.10576369 -0.53732556
0001b0 6e 57 fe 3a 69 0b ad bf 31 e9 d6 3e 15 cf 2c bf
       0.0019404718 -1.3519107 0.41974786 -0.6750348
0001c0 77 a3 af be 76 5d fe be cb 34 27 3f 66 0a 5c bd
       -0.343044 -0.4968068 0.6531493 -0.053720854
0001d0 63 60 39 3c d0 72 2a 3f e5 f4 8f be 5c 0f ac bd
       0.011314484 0.6658144 -0.28116527 -0.08401367
0001e0 15 a3 60 3e 5f c0 ae 3d 64 d8 08 bd 7f 0a 14 bf
       0.21937211 0.085327856 -0.03340949 -0.57828516
0001f0 61 70 e3 bd fb 2b c6 3e 83 ef 63 be 46 4a 1f 3e
       -0.11105419 0.3870543 -0.22259335 0.15555677
000200 c6 be 26 be c8 64 be 3e 92 0d 01 be 72 07 b3 be
       -0.16283712 0.37186265 -0.12602833 -0.34966618
000210 03 f1 1a bf e6 a4 a9 be 06 31 58 3e 6c 79 85 3e
       -0.60524005 -0.3313362 0.21112451 0.260692
000220 b6 cf 2f be d5 38 1d be 86 f2 93 3e c3 52 94 bd
       -0.17169079 -0.15353711 0.28895968 -0.07242348
000230 3e 4e 20 3f 5b 99 aa be 1f ac c2 3e ea 38 5f 3f
       0.6261939 -0.33320126 0.38021943 0.8719622
000240 fb 58 b7 bc d6 df af 3c e8 08 77 3f 96 83 1e 3e
       -0.022381296 0.021469038 0.96497965 0.15479884
000250 0c 74 03 3e 91 90 3a bf 0e 1e 03 3f d1 c4 43 be
       0.12837237 -0.7287684 0.51217735 -0.19118048
000260 58 bd a5 be ab c9 53 3d 1c 62 c7 be 10 51 c7 3d
       -0.3237102 0.051705997 -0.3894204 0.09732258
000270 f4 55 16 3f e4 e5 a4 be f8 c3 9d bc 75 df aa 3e
       0.58724904 -0.32206643 -0.019258484 0.3337361
000280 93 2b 08 3e ce df ad be ee 0e 17 bf 8d fa 1f be
       0.13297872 -0.33959812 -0.59007156 -0.15622921
000290 b6 82 31 be 82 00 c1 be f4 7d b5 bd 42 7f b6 be
       -0.17335019 -0.376957 -0.08861914 -0.35643965
0002a0 c5 6f 7f bf b5 6c 8b 3f 95 b1 f2 be 2a ee f6 be
       -0.9977992 1.089255 -0.4740111 -0.4822858
0002b0 d7 f5 7b 3e 4c 94 a0 be e8 26 0e 3e 17 24 66 be
       0.24605499 -0.31363142 0.13882029 -0.22474705
0002c0 67 c8 2c 3e 6f 5e 9b 3f 38 cb 91 3e 00 b9 80 bf
       0.16873322 1.2138194 0.28475356 -1.0056458
0002d0 a2 8b 58 3d f3 9a 08 bf 90 e5 58 bf c3 29 0f 3e
       0.05286754 -0.53361434 -0.84725285 0.13980775
0002e0 84 c8 87 3d 4b 0e 99 3e 23 9b d7 3e 8b 9c cc 3e
       0.06630042 0.29893717 0.42110547 0.39963183
0002f0 09 bc a6 3e 51 76 f5 3d 75 08 6a 3e 13 a5 49 3e
       0.32565334 0.11985458 0.22854789 0.19691877
000300 c5 88 55 3e bd ae 0e bd 5a ce dd 3e cb 76 43 3f
       0.20852955 -0.034834612 0.43321496 0.7635314
000310 c4 cc 77 be 17 22 be 3b 18 dd 37 bd 14 3b 69 3f
       -0.24199206 0.0058024037 -0.044888586 0.9110577
000320 f7 20 e5 3e 9e 7d a6 bd c5 1a d3 3d 49 d4 80 3e
       0.44751713 -0.08129428 0.1030784 0.2516196
000330 f1 51 99 bf b8 9d 85 3d cd 9c 18 3f 06 52 31 be
       -1.1978132 0.06524223 0.5961426 -0.17316446
000340 25 e7 93 be 3a 69 c0 bc ce c8 ab 3e 18 ce 22 3f
       -0.28887287 -0.023487676 0.3355164 0.63595724
000350 c1 12 74 be 7b 46 31 be 20 30 24 3f 57 59 8c 3e
       -0.23835279 -0.17312042 0.6413593 0.2741191
000360 1b 7b 99 3e e5 6f 04 bf f8 aa 07 bf 22 00 8f be
       0.29976735 -0.5173324 -0.5299525 -0.2792979
000370 59 e9 21 bf 76 ff f2 3e 7b 12 8f 3f ba 60 fe 3d
       -0.63246685 0.47460526 1.1177515 0.12420793
000380 dd 45 67 bc 52 f4 a4 3e ce 2d 39 3e bc 0c a8 3e
       -0.014115778 0.32217652 0.1808388 0.32822216
000390 6a 99 48 bf 16 8c 20 bd 0a 2a 1e 3f c9 c8 f6 3e
       -0.7835909 -0.039196096 0.61782897 0.48200062
0003a0 9c 9d 8e 3e 33 17 83 bd 20 1c c1 3e 29 35 d8 bd
       0.2785462 -0.06400909 0.3771677 -0.105570145
0003b0 c9 32 06 3f 68 16 39 be a0 3e 66 3e f7 6f 48 3e
       0.5242124 -0.18074954 0.22484827 0.19573961
0003c0 ec 47 24 be cc 3e 06 3f e1 bb d9 be b7 2e 68 3e
       -0.16043061 0.5243957 -0.42526153 0.2267407
0003d0 d6 e6 cd be a5 09 8a 3d e5 73 19 3f b4 c2 6a bf
       -0.40215176 0.06740121 0.59942466 -0.91703343
0003e0 14 ed 3b bd 72 11 0c 3f de ed 3f bf cc 6b df 3e
       -0.045880392 0.5471412 -0.7497233 0.4363693
0003f0 8e cc ce bd 76 a2 2f 3f fb 95 3b 3e 69 53 2c be
       -0.100976095 0.6860727 0.18318932 -0.16828693

network_body._body_endoder.seq_layers.0.bias f4 [128]
000000 e4 4a 72 bc 52 24 31 bb be 08 5a 3c 47 f8 86 bc
       -0.014788363 -0.0027029705 0.013307748 -0.01647581
000010 25 e4 68 3c 7c 53 b1 ba 0d ef fa 3b b6 fb 51 bc
       0.01421455 -0.0013528909 0.0076578916 -0.01281636
000020 57 9b e0 3b 94 d7 a0 3c 39 52 65 bc 5f c4 92 3a
       0.0068544555 0.019634046 -0.013996654 0.0011197439
000030 26 e4 c1 3c 2f 91 8e 3c f1 82 a7 3b a6 b4 3f 3b
       0.02366836 0.017403213 0.005112045 0.0029251962
000040 69 e1 2e bc a9 e0 62 bb 9a d0 2f 3c f0 14 62 3c
       -0.010673859 -0.0034618771 0.010730887 0.013798937
000050 ec d3 47 bc 74 4e 0d bb 66 59 5f bb 15 89 3f 3c
       -0.012196522 -0.0021561654 -0.0034080385 0.011690398
000060 50 76 93 bb 9f af bd 3b 9a e5 12 3a 09 cc 06 3c
       -0.004500188 0.005788758 0.00056036713 0.008227357
000070 b0 e9 f4 bb 9b 30 54 3c 6c d0 df 3b 7d 5c bf ba
       -0.007474147 0.012951042 0.0068302657 -0.0014599707
000080 5d e5 16 3c 85 7b e3 ba 1a d5 29 bc 5b 41 24 3c
       0.009209958 -0.0017355537 -0.010365749 0.010025348
000090 8c 57 68 bc f3 8d ec bb 6a ea 2f 3c a8 bf 5b bb
       -0.014181029 -0.00721907 0.010737041 -0.0033530984
0000a0 0a 7a 20 bb af 69 1c 3a 40 d9 d4 3b 2a 8c 49 bc
       -0.0024486803 0.0005966676 0.006495625 -0.012301484
0000b0 c7 b0 f7 3b 90 5c ee bb 52 c6 ce 3c d7 a1 ac 3c
       0.0075589153 -0.007274218 0.02524105 0.021073265
0000c0 db 64 b8 bb 6a 46 09 bc 34 fe 45 3b f2 92 34 3b
       -0.0056272573 -0.008378604 0.0030211331 0.0027553407
0000d0 ac da 97 3b b9 aa 83 bc 99 60 22 bc 0a 7c db 3b
       0.004634222 -0.016072618 -0.009910726 0.006698136
0000e0 93 08 65 3c 13 03 24 bc c4 d7 1f 3c 59 7c 2c bc
       0.013979095 -0.010010499 0.009756032 -0.010527694
0000f0 5c 11 51 3b 29 53 d2 3b 51 84 1b 3c 71 e9 37 bc
       0.0031901216 0.006418605 0.009491996 -0.01122509
000100 b2 0d e8 3b 75 af 84 3c ba 84 ac bc ba 53 3a bc
       0.0070817107 0.016196946 -0.021059383 -0.011372501
000110 be 3d 53 3c 7c de ed ba 28 a2 89 3c 0d af 8f ba
       0.012893138 -0.001814797 0.016800955 -0.0010962203
000120 ff 38 94 bb 5c 1e a4 3b 7b 40 80 3b c8 89 7b bc
       -0.004523396 0.005008502 0.0039139367 -0.015352674
000130 15 ae 0a 3c ad 69 13 bc b5 af be bb 48 90 10 3c
       0.008464356 -0.008997363 -0.0058192858 0.008823462
000140 8f b4 40 bb e6 39 c0 3c 27 59 8b 3c e7 3b 72 bc
       -0.0029404496 0.023465108 0.017010285 -0.01478479
000150 f0 20 95 3b a4 00 66 bc 07 f3 e9 bb 2c 28 17 3c
       0.0045510456 -0.014038239 -0.007139567 0.009225886
000160 d3 c0 98 bb 52 0b d4 39 b3 4d 85 bc be 85 9a 3c
       -0.0046616583 0.00040444225 -0.016272401 0.018862601
000170 a8 b2 b1 38 66 84 b7 3b 99 e7 1d bb 45 59 2a bc
       8.473295e-05 0.0056005 -0.0024094342 -0.01039726
000180 a7 7b 03 bb b7 ed 39 3c cd a9 25 3b ec 00 2b bc
       -0.0020062716 0.01134818 0.002527821 -0.0104372315
000190 44 47 43 bc ee 16 48 3c f1 5e 26 bc 63 91 84 3a
       -0.0119188465 0.012212498 -0.010154472 0.0010114129
0001a0 51 fc 90 3c 1f 7b 0e bb b2 5e 12 3c 24 24 d5 3a
       0.017698439 -0.0021740866 0.00893371 0.0016261381
0001b0 65 9f 9f bb 02 b6 12 3c a5 49 41 3c e7 03 9f 3c
       -0.004871296 0.008954527 0.011797343 0.01941104
0001c0 ec 2d 57 bc 7d 3a fb 3b 90 1e 6f bc 7e 7a 9e 3b
       -0.013133507 0.0076668845 -0.014594689 0.0048363796
0001d0 ca 18 b7 3c fd ca 65 3c 06 b5 24 bb 6f e2 41 bc
       0.022350688 0.014025447 -0.0025132312 -0.011833771
0001e0 e3 57 2a 3b 70 43 85 bc 59 02 85 3c 60 34 6a 3a
       0.0025992326 -0.016267508 0.016236471 0.0008934196
0001f0 d8 1e 24 bc 56 db 2f bc d2 e8 2d 3c e5 d5 e0 bb
       -0.010017119 -0.010733446 0.010614591 -0.0068614357

network_body._body_endoder.seq_layers.2.weight f4 [128, 128]
000000 0f 53 d4 bd 81 cc 37 3e e8 bc 3a 3b 5b 98 1f 3d
       -0.10367405 0.17949106 0.0028493945 0.038963657
000010 40 07 b4 3d 81 27 b8 bd d6 7e a2 bd f5 4c dd 3d
       0.08790445 -0.0899191 -0.07934348 0.10805694
000020 d6 a9 11 3e e0 fa 20 3e 6e d6 df 3d 6e ad 00 3b
       0.14224944 0.15720701 0.10929571 0.0019634622
000030 c2 a4 db 3d 63 e8 59 3d e8 21 6f 3e 47 ac d9 3d
       0.107247844 0.053200137 0.23352778 0.106285624
000040 ac a3 f6 bc 57 2f d0 3d 1f b1 ab bc f4 d7 9b bb
       -0.030107342 0.10165279 -0.020958481 -0.004755968
000050 9d 93 03 be 24 46 b0 3b ce 73 5b be 73 e0 c7 3d
       -0.12849279 0.005379455 -0.21430895 0.09759607
000060 e7 6d 00 3e 10 61 5e bd c4 93 c6 bc 21 62 23 3d
       0.12541924 -0.054291785 -0.024240382 0.039888505
000070 d9 b9 7e 3d 28 ed fc 3d b7 f1 e6 bd 2a 3a 5f 3d
       0.062188957 0.123499215 -0.11276572 0.05449883
000080 04 22 7c 3d df 90 1d be de 51 f2 bd b9 37 94 bd
       0.061555877 -0.15387295 -0.11832021 -0.07237191
000090 58 2c a3 bd 80 73 96 3c 54 c4 d5 3c f0 bb b8 bc
       -0.07967442 0.018365622 0.026094593 -0.022550553
0000a0 4e 4e 5b 3e db 24 9a ba 43 37 34 bd 4b d2 38 3d
       0.2141659 -0.0011760251 -0.043998014 0.045122426
0000b0 62 3f a3 3c 27 75 2b bd 83 96 bd 3c 08 54 b4 bc
       0.019927684 -0.041859772 0.023143059 -0.022012725
0000c0 29 55 a0 3d 39 9b da bc 3e 55 85 bd 10 c7 3c bd
       0.07828743 -0.026685344 -0.06510399 -0.04608828
0000d0 92 a7 ce bc 1d df c2 bd d0 f6 ca 3c a4 77 fc 3b
       -0.025226388 -0.09515212 0.024775892 0.007704692
0000e0 26 6a 24 3d d8 59 1c be 2f 68 1f 3e 7f ce 39 bd
       0.040140294 -0.15268648 0.15567087 -0.045362946
0000f0 19 1b e8 bd 30 ef 0b 3e fc e7 eb bd 88 4b 11 bd
       -0.113332935 0.13665462 -0.11518857 -0.035472423
000100 26 c5 d1 bc 08 6d 34 3d a4 ce 3f 3c 88 fd a5 39
       -0.025606703 0.044049293 0.011706982 0.00031660148
000110 54 ef bf 3d 77 fc 48 bd 06 58 0e 3c 91 22 b2 3d
       0.0937182 -0.049068894 0.008687979 0.08697999
000120 32 5b f0 bb f4 2c 28 3d cb 1b 8a be c6 85 91 3c
       -0.00733509 0.041058496 -0.2697433 0.017763983
000130 a0 71 0f bc a1 46 35 bd bd 41 ca bd 7a e3 88 bc
       -0.008755118 -0.04425681 -0.0987582 -0.016710032
000140 f1 91 d8 bb 64 82 9e b9 9c a0 e8 3c 73 ee ec 3c
       -0.0066091944 -0.00030233257 0.028396897 0.028922295
000150 63 13 b6 bc c6 cd 27 bc c6 51 00 bd d8 27 66 be
       -0.022226041 -0.010241931 -0.031327985 -0.22476137
000160 0b 8a 2e bc bc 36 93 bd cf e6 2f 3e 47 fa d0 bd
       -0.010653029 -0.07188174 0.1717789 -0.102039866
000170 33 30 70 ba 7c de 91 3d 8f 7a 46 3d e7 9c 92 bc
       -0.00091624557 0.07122514 0.048456725 -0.017897082
000180 83 0f 3e 3d e1 2a e6 3c 53 5a 4a 3d 1b e8 1f bc
       0.046401512 0.028096618 0.049402546 -0.009759928
000190 38 83 6e bd d6 83 cd bd 33 11 a9 3d 65 7d 40 be
       -0.05823061 -0.10034911 0.082552336 -0.18797834
0001a0 0f 4c 1e 3e e1 b2 d5 bc e3 9f 6e bd b1 63 c0 3d
       0.15458702 -0.026086273 -0.05825795 0.093940146
0001b0 f2 ff 6a 3d c1 da 9e bd 0d 79 d5 3c e8 51 05 3e
       0.057372995 -0.07756568 0.026058698 0.13019526
0001c0 bf a4 6c 38 98 a8 5e bd 2d af 11 bd 80 73 d7 3d
       5.6420216e-05 -0.054360002 -0.03556745 0.10520077
0001d0 8e c8 0e be 98 4e 54 3e 99 33 2a 3d df 1e 56 3e
       -0.13943693 0.20733106 0.041553114 0.20910214
0001e0 2a 59 b3 3d 4d d8 0e bd 25 35 3c bc b1 f8 3e 3e
       0.08757241 -0.03487425 -0.01148728 0.18649556
0001f0 10 60 78 bd 19 bb 84 3c b5 db 33 bd 38 38 2c 3c
       -0.060638487 0.016202496 -0.0439107 0.0105114505
000200 d8 29 0b bd eb 8c 01 3d 57 c4 4c 3d e6 06 14 3e
       -0.033975452 0.03162853 0.04999193 0.14455757
000210 2f e7 35 be 6d c7 25 bd de 4a 7f 38 7d 11 72 3c
       -0.17763971 -0.04047339 6.0866463e-05 0.014774677
000220 32 11 a4 3c b4 7a 63 3c 72 60 13 3e bf 9c f7 3d
       0.02002773 0.013884235 0.1439226 0.12090444
000230 4b 02 0c be 66 8a 8f 3d f0 f6 85 3c 07 cb 3c 3d
       -0.1367275 0.07008819 0.0163531 0.04609206
000240 28 37 80 3d 64 9c 2c 3e 45 8e 14 3e bd 94 3c 3e
       0.0626052 0.16856533 0.14507397 0.18416114
000250 c5 8c 14 bd 65 3b 09 bd 1f 83 92 bd 43 22 d6 bd
       -0.03626706 -0.03350391 -0.071539156 -0.10455754
000260 32 59 05 bd 68 41 d3 3d 64 4e 22 be 28 7d bb 3d
       -0.032555766 0.103152096 -0.15850216 0.09154731
000270 92 43 17 3c 04 6c 55 bd 51 88 3c bd 52 77 2b 3d
       0.009232419 -0.052104965 -0.04602844 0.04186184
000280 8a d4 28 3b b4 43 b7 3d d4 8b 5e 3e 6d 99 a1 3d
       0.0025761449 0.0894846 0.21733028 0.07890592
000290 c8 da f5 3c 13 a8 f6 bd ee bd f2 3d 83 fd 49 3e
       0.03001155 -0.12043776 0.118526325 0.19725613
0002a0 d9 ee de bd 4d 27 6a be 4b ee 89 bd c8 a8 cc 3c
       -0.108854 -0.22866555 -0.06734904 0.024982825
0002b0 42 09 95 3d 78 a9 00 3e 95 7e 0b bc bc a0 ed 3d
       0.072771564 0.12564647 -0.008514066 0.11602923
0002c0 2f e1 3c bd ea d5 b6 bd a8 dc c1 3d a8 07 af 3d
       -0.04611319 -0.089275196 0.09465915 0.08546382
0002d0 f6 75 36 bd e6 ec a5 be 99 1a 36 3d fd b2 db bd
       -0.04454609 -0.32407302 0.04445896 -0.10727499
0002e0 60 69 f0 bc e3 5b e7 3c b6 89 59 bd 82 56 b5 bd
       -0.029347122 0.028242057 -0.053109847 -0.08854391
0002f0 df 4d 4a 3d 03 59 c6 3d 37 d4 9c bd b1 61 16 be
       0.04939067 0.096849464 -0.07657664 -0.14685704
000300 51 ae a8 bd 2d fa 7b 3c 0b a0 66 bd 58 65 9a bd
       -0.08236373 0.015379471 -0.056304973 -0.07538861
000310 55 ef 37 3e 2c 71 f5 3d 28 1e 9c bd 5e 9a 21 bd
       0.17962392 0.119844764 -0.07622939 -0.039453857
000320 20 59 b9 bc c5 d7 5a bc 81 2b b6 ba 38 dc 33 bd
       -0.022625506 -0.0133571075 -0.0013898463 -0.04391119
000330 6f 6a 83 3d ea 8e 43 3d b8 67 68 3d c7 82 25 be
       0.06416785 0.047743715 0.05673954 -0.16163169
000340 18 a8 e7 3d b8 e2 54 3d 1d 42 2f 3d bb 6a a1 3c
       0.11311358 0.05197403 0.04278766 0.019704213
000350 c0 17 35 bd 77 27 2c 3b 23 ab e3 3d cd 9f 94 bc
       -0.044212103 0.002626864 0.11116626 -0.018142605
000360 a5 58 84 bd c7 c9 6e bd 6c 34 6a 3d a2 f3 a1 bc
       -0.0646222 -0.0582979 0.0571789 -0.019769493
000370 da dc 6f bd 97 22 34 bd 5f 58 ec 3d 0e f3 71 3e
       -0.05856023 -0.0439783 0.11540293 0.23627874
000380 60 88 06 3d de 52 12 bc 77 31 b1 ba 30 0c a4 3d
       0.0328449 -0.00893089 -0.001351877 0.08010137
000390 68 9f 8e bd 09 1e 0f bc a2 f2 07 3d a8 77 c7 3c
       -0.06963998 -0.008735188 0.033190377 0.024349049
0003a0 f0 35 d4 3d c0 b2 1c bd 9d 43 0f 3e 88 1a cf 3c
       0.1036185 -0.038256407 0.13990636 0.025281206
0003b0 36 65 a0 3d e0 6b 92 bd de fb 2b be e1 9a 82 bd
       0.078318045 -0.07149482 -0.16795298 -0.06377197
0003c0 c0 18 c0 bd 56 c5 24 bd 71 aa df 3c 3b ec 1a bd
       -0.09379721 -0.040227257 0.027302952 -0.037822943
0003d0 5a 30 f4 3d 71 75 3d bc 1a da 9c bd 8c 4f b8 bc
       0.11923285 -0.011563645 -0.07658787 -0.022498868
0003e0 b1 5d d7 bd 47 72 0a 3d b8 57 11 3e 7b c4 c9 3d
       -0.10515917 0.03380039 0.14193618 0.09851929
0003f0 48 37 a2 bc 08 94 83 3d 56 6c 0f bd 33 33 df 3d
       -0.01980175 0.06424719 -0.035015427 0.10898437

network_body._body_endoder.seq_layers.2.bias f4 [128]
000000 31 81 20 3c 52 d3 47 bc bd 88 1c 3c 92 f4 46 bc
       0.009796427 -0.012196379 0.009554085 -0.012143271
000010 b5 a3 b5 ba bc 72 14 3c bf a7 72 3c d2 f6 7e bb
       -0.0013857993 0.009060558 0.014810502 -0.003890444
000020 35 f0 82 3b 30 a0 86 ba 89 aa 75 3c 8a 21 3f bc
       0.00399592 -0.0010271128 0.014994272 -0.011665711
000030 f7 24 3f bc 64 d2 28 3c 01 83 8b bb 27 d4 25 bc
       -0.011666528 0.010304067 -0.0042575602 -0.010121382
000040 a4 c4 b0 3c f2 36 ec 3b 35 4c ee bb f9 00 5b 3a
       0.02157814 0.0072086984 -0.007272268 0.0008354332
000050 0d 61 36 3c 31 c3 5b bc 9a f5 6a 3c 69 ac 77 3c
       0.011131537 -0.0134132365 0.014340783 0.015116789
000060 95 9a a0 ba 07 da 2e 3c a6 e9 2c bc 33 74 2d 3c
       -0.00122531 0.010672099 -0.010553753 0.010586786
000070 5e 55 73 bb e1 f1 47 3c d5 7f 86 ba 35 8e 27 3c
       -0.003712974 0.0122036645 -0.0010261486 0.010226776
000080 29 e2 86 bc 7c ee 1f bb 5c 0b 9c bb 1f f8 2a bc
       -0.016465263 -0.0024403622 -0.0047620963 -0.010435133
000090 ac 9f 15 bc da 88 16 3c cb 75 f9 3b ec 11 0e bc
       -0.009132307 0.009187901 0.007612919 -0.008671265
0000a0 2e 39 38 bc 0e 79 89 3c 26 0d 1a 3c 49 ec 6d 3c
       -0.011244101 0.016781356 0.009402549 0.014521667
0000b0 a2 4a 32 bc 0c 08 d0 3b 22 00 37 3b 79 d7 71 bc
       -0.010882052 0.0063486155 0.0027923663 -0.014760845
0000c0 2e 4f 23 bc 5d 76 33 bc c9 6b 34 3c e7 7c 33 bb
       -0.009967608 -0.010953513 0.011012026 -0.002738768
0000d0 ac 16 18 bc 2b 95 0e bc ad a2 9e 3c 23 87 6d 3c
       -0.009282749 -0.008702557 0.01936468 0.014497551
0000e0 d2 e0 14 3c 42 a0 16 3a c6 2b 7b 3c 97 29 bf 3b
       0.009086804 0.0005745926 0.015330261 0.0058338153
0000f0 6d 17 0a ba dd 26 04 bc d5 17 3f 3b 7e 10 b8 bb
       -0.0005267773 -0.008065906 0.0029158492 -0.0056172004
000100 e3 13 68 bc 17 9b 26 bc fc 47 3a 3a be 31 97 bb
       -0.014164898 -0.010168812 0.00071060634 -0.004614084
000110 fa 50 f6 3b c7 e8 75 bc 40 f5 1f 3c 65 00 29 3c
       0.0075169774 -0.015009112 0.009763062 0.0103150355
000120 58 78 68 bc a5 79 35 3b fb 5d ff 3b de 66 a5 bb
       -0.014188848 0.0027690914 0.0077931858 -0.005047663
000130 32 3d d9 3b 92 d6 f5 bb 6d 79 23 bc 1e 0a 3b 3c
       0.0066296095 -0.0075023854 -0.009977681 0.011415986
000140 5d c3 fb 3b ec 17 0c 3c c2 b6 8d 3c 2e 46 95 bb
       0.007683201 0.008550625 0.01729906 -0.004555485
000150 ef 4a 9c 3c d7 3f 6e bc 19 43 59 bc 73 f3 b3 3b
       0.0190787 -0.014541588 -0.013260626 0.005491668
000160 07 4e cf bb 46 0b 00 bc 1b 13 4f 3c 55 e8 81 3c
       -0.0063264403 -0.007815188 0.012638832 0.015857855
000170 d1 6a 56 3c 75 87 da 3b 23 04 37 bc 65 45 8f bb
       0.01308699 0.00666898 -0.01117042 -0.004372286
000180 d7 25 65 3b 44 28 54 bb 8e dc dc 3b 34 2a 00 3c
       0.0034965181 -0.0032372633 0.0067401594 0.007822562
000190 f6 9b ef 3b 94 34 42 bc 4e 75 63 bc a6 e5 a5 3c
       0.007312293 -0.011853356 -0.013882948 0.020251106
0001a0 87 aa b9 bb 49 7a 20 3b 4d 5a 34 3c 09 54 54 3c
       -0.0056660804 0.002448695 0.0110078575 0.012959489
0001b0 df d3 4d 3b 7f 50 df ba 52 53 4a bc a0 1f 3f bc
       0.0031406803 -0.001703754 -0.012348967 -0.011665255
0001c0 06 22 e5 3a 09 7a 1d bc 49 c6 4e 3c 51 e3 81 3b
       0.0017481453 -0.009611615 0.012620517 0.003963866
0001d0 c9 52 77 3c 5c 4f 55 bc 97 4e b1 3a a6 03 92 bb
       0.015095421 -0.013019409 0.001352745 -0.0044560013
0001e0 6b 92 20 3c f3 dd 29 3c 36 1f 2c 3c be 6a a2 3a
       0.009800534 0.010367858 0.010505488 0.0012391431
0001f0 60 c4 d0 bb 47 66 ca ba 5b 3e 92 3c 77 73 d5 bb
       -0.006371066 -0.0015441858 0.017851999 -0.0065140086

action_model._continuous_distribution.log_sigma f4 [1, 2]
000000 ec 9b 82 bc 74 24 ac bc
       -0.01594349 -0.021013476

action_model._continuous_distribution.mu.weight f4 [2, 128]
000000 5d 8a d9 bc a8 5c 2a 3d c9 13 24 bc be 9a 07 3d
       -0.026555235 0.04159227 -0.010014483 0.033106558
000010 69 3a 06 3d c6 97 f7 3c 13 27 5e bd a7 58 d1 bb
       0.032770548 0.030223738 -0.054236483 -0.006388742
000020 99 d6 0c bd 69 1d 85 3c 22 35 85 bc be 9a e2 ba
       -0.034384344 0.016249375 -0.016260687 -0.0017288548
000030 ae ac b8 3c b3 7a ef bb 33 a3 9b 3b 1b f9 c9 3b
       0.022543278 -0.007308328 0.0047496795 0.006163729
000040 8a d7 c4 bc 07 8a 15 3c 72 b0 55 bb 76 46 2d bc
       -0.024028558 0.009127147 -0.003260639 -0.010575881
000050 fd f6 11 bd b1 2c e7 3c 47 3f 14 bd f2 b9 94 bc
       -0.035635937 0.028219553 -0.03619316 -0.018155072
000060 53 4a 6b 3c 98 db 4e bc 86 ff e1 3c 69 3f 4d 3c
       0.014360982 -0.012625597 0.027587663 0.012527325
000070 9b a5 f0 bb c1 4a 85 bc 5b aa 46 bc 60 f2 11 bc
       -0.0073439605 -0.016270997 -0.012125577 -0.008907884
000080 8f 6f bb 3c e7 25 ee ba c0 8b 98 3c 81 94 2f 3d
       0.022880344 -0.0018169255 0.018621325 0.042866234
000090 c9 e3 92 3b b6 2b f0 bc e5 89 99 bc c3 83 2d 3d
       0.0044827205 -0.029317718 -0.018742511 0.042361986
0000a0 68 2d b3 b9 d9 c8 f6 bc ce 84 db 3c 8c 25 dd bc
       -0.0003417537 -0.030125069 0.026796725 -0.026995443
0000b0 68 86 d8 3c d5 a0 73 3c 9f a6 b5 bc 21 d9 dd 3c
       0.026431277 0.014869888 -0.022174178 0.027081074
0000c0 70 94 34 bb 48 8b e7 3b 57 83 59 bc 76 d5 d8 3c
       -0.0027554296 0.007066164 -0.013275943 0.026468974
0000d0 b5 19 9f bb fa 49 7a 3c 4b 4a 15 bd 2f 7c 1c bc
       -0.0048553594 0.015276426 -0.036447804 -0.009551092
0000e0 9b 02 9a bb e1 45 ae bc 2d 5e 43 bd 55 14 a5 bc
       -0.0047000176 -0.021273555 -0.047697235 -0.020151297
0000f0 30 1b 71 3d 77 b3 8b 3c f4 8c a8 3c c6 aa e8 ba
       0.05886382 0.017053349 0.020575024 -0.001775109
000100 5e b3 01 3d af 72 32 3c 88 75 17 3d 67 8a 20 bc
       0.0316652 0.0108916005 0.03697732 -0.009798623
000110 de 2e 04 3b 4d c9 97 3c 89 55 48 3c ca 5e 47 bc
       0.0020169537 0.018528605 0.012227424 -0.012168596
000120 62 e7 ee 3c b8 95 bb 3c ca e4 f7 3b 44 69 99 bb
       0.029163066 0.02289854 0.0075651156 -0.004681738
000130 d3 fc 17 bd 25 08 04 3d 44 38 27 3d cb 64 7b bc
       -0.037106346 0.03223433 0.040825143 -0.015343855
000140 5f 43 12 3c cf 8a 85 3b a3 3b ee bc 11 d8 bb 3c
       0.008927195 0.004075385 -0.029081171 0.022930177
000150 d8 41 0c bd 14 85 c0 3c 43 88 90 3c a2 b5 cd bb
       -0.03424248 0.023500957 0.0176431 -0.006277756
000160 d3 c1 d8 3c 4f 16 87 3b 06 08 9b bc c6 d0 63 bc
       0.02645961 0.0041225324 -0.018924724 -0.013904756
000170 fd b3 12 bd 37 cc 5f 3c e4 bd 12 3d b5 97 39 bb
       -0.03581618 0.013659528 0.035825625 -0.0028319184
000180 6f 5d 19 bc 02 3d cf 3c 30 1b d5 3c 88 ac ce 39
       -0.009360655 0.025297645 0.02601394 0.00039419928
000190 73 fc 01 bd 2c 2e 07 3d 79 d3 26 3d f1 28 de bc
       -0.031734895 0.033003017 0.04072902 -0.027119132
0001a0 ed 94 07 3d 4c 46 ce 3c 46 05 90 bc ae a5 cd bc
       0.03310101 0.025180005 -0.01758064 -0.025103416
0001b0 82 5a 9e bc aa a9 a3 3b 9b 25 d8 3c 08 d0 a0 3c
       -0.019330267 0.0049945908 0.02638512 0.019630447
0001c0 a7 cc 02 bd 9a 60 bd 3c c5 92 19 bd 5c c2 21 bd
       -0.031933453 0.023117352 -0.037493486 -0.039491996
0001d0 23 63 7d bd 43 c1 1b 3d 31 63 69 3d 57 8c d9 ba
       -0.061862122 0.038026106 0.056979362 -0.0016597611
0001e0 22 2a 01 bd cf 42 27 bb ea 81 60 bc 80 dc 11 bd
       -0.03153432 -0.0025521999 -0.013702849 -0.035610676
0001f0 67 41 72 3b 93 39 dc 3c 1d 83 0f bd 46 63 54 3d
       0.0036965252 0.026882922 -0.03503715 0.051852487
000200 f8 93 b7 3c a9 8e 6d 3a 9e 7d 29 bd d4 de 15 3c
       0.022409424 0.00090620905 -0.041379564 0.009147365
000210 d8 f4 cc bc 61 d8 74 bd 1a 26 5a 3c 99 f7 11 3d
       -0.025019094 -0.059776668 0.013314748 0.03563652
000220 10 ef 16 bc 55 ba b8 bc 65 e1 34 bc 67 8d cb ba
       -0.00921227 -0.022549788 -0.011040066 -0.0015529812
000230 fd 33 d3 3c a5 8e 9d bc b8 79 a5 3c 52 6c 65 3c
       0.025781626 -0.019233057 0.020199642 0.014002876
000240 83 22 f5 3c 4f 16 f7 bc b8 5a c9 bb c2 1d d1 3c
       0.029923683 -0.030162005 -0.0061448477 0.025526885
000250 77 f6 7a bc fa 51 83 3b 8f 6d cf 3c 76 c3 86 3a
       -0.015317551 0.004007575 0.025320796 0.001028164
000260 fd f1 fc 3b cc 5c f1 bc 80 59 90 3c 96 a3 1d bd
       0.007719277 -0.029463194 0.017620802 -0.038486086
000270 8c 6a ab 3c ae ee 67 bc 8d cb 12 3d c3 67 ab bc
       0.020924829 -0.014156027 0.035838652 -0.0209235
000280 fe 43 59 3b 2b 8c c6 3c 00 85 89 bc ef 9a 6b bb
       0.0033152099 0.02423676 -0.016787052 -0.0035950502
000290 ce ae 5c 3c 37 bb 8d bb 20 db 8d 3c 82 78 37 3b
       0.013469411 -0.0043252963 0.017316401 0.0027995412
0002a0 70 20 7d 3b f4 7d ab 3c dd 52 4b bd 27 12 a3 bc
       0.003862407 0.020934083 -0.04963957 -0.019906117
0002b0 40 c8 14 3d a5 7e 50 bd 88 c9 2e 3d da 81 0c 3c
       0.036323786 -0.050902028 0.042672664 0.008575881
0002c0 c8 a0 bf 3c 24 d5 2f 3c d1 d7 d6 bc b3 1e 0e bc
       0.023392096 0.010731969 -0.026225956 -0.008674311
0002d0 01 c3 ca 3c 79 65 20 3d 14 b9 bc ba 1e 7f 44 bb
       0.024751188 0.039159272 -0.0014398419 -0.0029982994
0002e0 06 c9 20 bd 31 de 01 3d 47 18 11 3c 27 b2 25 bc
       -0.03925421 0.03170604 0.008855886 -0.010113276
0002f0 27 a5 4e bd 23 93 10 3c 7a 5a e1 bc 00 18 f0 3c
       -0.05045047 0.008824143 -0.027508963 0.02930832
000300 14 f3 87 3c 64 35 3a 3c 01 81 cf bc b8 72 1c 3d
       0.0165954 0.011365268 -0.025330069 0.03819534
000310 88 09 db bc d8 fd 42 3c 6a f8 17 bd ff 90 cc bc
       -0.026737943 0.011901341 -0.03710214 -0.024971483
000320 04 7d 97 bb 82 bc 1a bd a0 03 05 bd a3 7b b5 3c
       -0.0046230573 -0.03777743 -0.03247416 0.022153681
000330 64 37 90 3b 9a 3e cf bc 77 52 2b bc 35 03 99 bc
       0.0044011343 -0.025298405 -0.010456673 -0.018678287
000340 a2 03 ec bc 8c 5f 0b bd 7d 7d 18 bb e3 1e 54 bc
       -0.028810326 -0.034026667 -0.0023268156 -0.012946817
000350 f6 9c c5 3a 16 71 19 3c e1 93 1a bc 71 06 9c bc
       0.0015076685 0.009365341 -0.009434671 -0.01904604
000360 5d af 8a bc e9 1a 14 3d 85 c0 fe bc 08 01 bc 3b
       -0.016929323 0.036158476 -0.03109766 0.0057374276
000370 81 bd c6 bc 76 dc c5 bc 54 1f c6 bc f4 c4 49 3d
       -0.024260284 -0.024152976 -0.02418486 0.049260095
000380 f8 55 57 3c 29 50 b7 bc 8e 12 12 bd b9 cd 9c bc
       0.013143055 -0.02237709 -0.035662226 -0.019141065
000390 4b 39 7f 3c 0e bb a9 3c 68 20 eb 3c 6d 61 93 3b
       0.015577625 0.020719077 0.028701976 0.004497698
0003a0 ab 28 40 bc 2f 0f 15 bd 55 1a 0d bd 49 ac cb bc
       -0.011728446 -0.036391433 -0.03444894 -0.024862425
0003b0 45 64 8e 3a 08 14 1a 3b f3 c5 1b 3d c5 c5 41 3b
       0.0010863623 0.0023510475 0.038030576 0.0029567343
0003c0 3a dd 21 3d e2 cd 18 3d cc 8b 33 bb 36 59 a4 3c
       0.03951762 0.03730572 -0.0027396558 0.02006207
0003d0 c7 1d 81 bc a6 17 48 bc 78 76 bf bc 7c 9e 39 3d
       -0.01576127 -0.0122126695 -0.02337192 0.045317158
0003e0 80 a8 df bb c0 d6 25 bd 0a e2 85 bc 3b d1 4e 3d
       -0.0068255067 -0.040488005 -0.016343135 0.050492506
0003f0 1e e5 9b 3c b2 e9 d4 bc f4 25 f2 3b 67 e1 56 bc
       0.01903015 -0.02599034 0.0073897783 -0.013115264

action_model._continuous_distribution.mu.bias f4 [2]
000000 7d ba fa bb cf 86 17 bc
       -0.0076516257 -0.0092484495

exp_avg f4 [128, 5]
000000 40 17 62 36 1a fe cf b7 25 91 00 38 43 82 06 38
       3.3690158e-06 -2.4794648e-05 3.0652755e-05 3.2069405e-05
000010 cb 23 57 37 80 52 7b b5 90 5b 0a b7 ae a2 ce 36
       1.2823332e-05 -9.362484e-07 -8.2467595e-06 6.158217e-06
000020 ac 2a d9 36 ec 22 44 35 6d 20 0d 38 70 b1 ea 37
       6.4720716e-06 7.306651e-07 3.364722e-05 2.79776e-05
000030 79 a7 1e b8 5a 1e fd b7 9b 49 bf b7 6a f7 02 36
       -3.7826107e-05 -3.0174084e-05 -2.280325e-05 1.9515523e-06
000040 03 9a c6 b6 30 8a 71 37 ab f4 67 37 1b c2 39 36
       -5.918789e-06 1.4396894e-05 1.3825639e-05 2.7680132e-06
000050 bd a6 1b b7 3d 6e e3 36 ac 36 cc b7 20 89 d8 b7
       -9.277542e-06 6.7779606e-06 -2.4344154e-05 -2.581306e-05
000060 c2 f3 ea b6 ef d4 78 b7 b8 0a fe b5 bd 44 dc b5
       -7.0021206e-06 -1.4831529e-05 -1.8927594e-06 -1.6411283e-06
000070 d5 41 e3 b6 e3 23 cb 36 5b 8d 33 38 8c 90 78 37
       -6.772791e-06 6.054049e-06 4.2808573e-05 1.4815607e-05
000080 25 08 21 38 8f 00 4e 38 39 d4 8e 36 9a d2 3f b6
       3.8392976e-05 4.9114748e-05 4.2566357e-06 -2.8583804e-06
000090 ec 0f b0 b7 57 00 5f 37 56 e3 7e 37 ca 27 84 36
       -2.098825e-05 1.3291915e-05 1.5192511e-05 3.9385386e-06
0000a0 c6 fe d3 b7 01 3e 84 37 c5 f3 2e b7 70 a7 a7 b7
       -2.5271798e-05 1.5764499e-05 -1.0427965e-05 -1.998592e-05
0000b0 ef 53 0a 37 3f 9e 97 b7 05 ec 45 37 f5 ed 95 b7
       8.244983e-06 -1.8074292e-05 1.1797068e-05 -1.7872992e-05
0000c0 c4 44 ca b7 57 2d 15 37 61 32 a2 b6 5e ee 5a b7
       -2.4112298e-05 8.891649e-06 -4.833841e-06 -1.3049312e-05
0000d0 e3 5f 51 37 96 e4 3f 37 e2 69 a3 36 76 fa 4e 37
       1.2479696e-05 1.1437709e-05 4.870105e-06 1.2336872e-05
0000e0 b3 1f 75 b7 2a 67 40 37 1b 21 83 37 1f 3a 60 b6
       -1.46105185e-05 1.1468112e-05 1.5631833e-05 -3.3412432e-06
0000f0 2b b6 b7 b7 bc 39 c4 37 a5 0a b6 b7 37 39 f0 b7
       -2.1900129e-05 2.3391905e-05 -2.1701047e-05 -2.8636872e-05
000100 80 90 bc b5 ca 87 96 b7 96 23 c5 37 01 00 f1 b7
       -1.4049147e-06 -1.7944625e-05 2.3500801e-05 -2.872944e-05
000110 d1 e7 15 b8 e1 e8 81 36 e7 6b 31 37 66 79 9b 37
       -3.5740264e-05 3.8716103e-06 1.0575145e-05 1.853397e-05
000120 bd 75 65 b7 79 c3 34 b7 be 74 09 b7 01 65 3b 37
       -1.3676877e-05 -1.0774348e-05 -8.1930175e-06 1.1169585e-05
000130 03 fa 4b b7 bc 93 48 37 af 23 81 37 0a c1 de 35
       -1.2157953e-05 1.1955326e-05 1.5394615e-05 1.6596471e-06
000140 f7 a0 1c b7 3a 5c 23 b7 74 76 5a 37 f3 fd 25 37
       -9.335802e-06 -9.73703e-06 1.3021392e-05 9.893894e-06
000150 24 d7 07 37 a4 11 c4 37 ef f2 a3 b7 6b af 18 38
       8.096718e-06 2.3373235e-05 -1.9544239e-05 3.6402995e-05
000160 20 a4 3b 38 a8 62 9f 37 4e ca 36 b7 38 80 80 36
       4.4737128e-05 1.9000217e-05 -1.0895148e-05 3.829624e-06
000170 4d 6e 4d b7 a0 5f 70 b7 6d 95 e5 b5 96 ed bb 37
       -1.2244634e-05 -1.4327379e-05 -1.7105318e-06 2.2402772e-05
000180 31 e0 e3 37 f8 fe 77 b8 3e 9d 48 b8 ee 40 e5 b7
       2.7164906e-05 -5.9126847e-05 -4.783016e-05 -2.7329163e-05
000190 ca 40 7e b6 cc ff 94 36 9b 3d bd 36 45 5b 3f 36
       -3.7886662e-06 4.4405224e-06 5.6398108e-06 2.8514344e-06
0001a0 fc 8b 0a 36 44 af 79 37 8f e7 f1 b6 35 22 a3 37
       2.0645084e-06 1.4882364e-05 -7.2093167e-06 1.9447043e-05
0001b0 ff b6 be 37 3e 33 97 37 35 5b 9e 37 f7 9b 1e 37
       2.273498e-05 1.8024464e-05 1.887754e-05 9.453847e-06
0001c0 29 fb 07 37 b7 ef 4b 37 17 a9 81 b7 29 65 91 37
       8.105105e-06 1.2155556e-05 -1.5456737e-05 1.7332453e-05
0001d0 72 7c 98 37 f2 9f d2 b7 6e 87 a5 b7 26 0f 62 b7
       1.8177761e-05 -2.5108431e-05 -1.9732597e-05 -1.3474177e-05
0001e0 8e 60 9e b5 ba 1d 5e b6 bb 4a b4 36 bf 00 a8 36
       -1.1800018e-06 -3.309788e-06 5.373118e-06 5.006877e-06
0001f0 c4 90 0a 35 30 12 95 37 3d 4b 11 37 65 0f 3f b6
       5.161967e-07 1.7770653e-05 8.660191e-06 -2.8470179e-06
000200 b7 f0 d8 35 c4 fc 43 b7 91 74 2a 37 14 4c ef b7
       1.6163311e-06 -1.1681757e-05 1.015993e-05 -2.8526447e-05
000210 3d 09 d7 37 e8 65 03 38 8c 46 43 36 92 0b 1a 37
       2.56343e-05 3.132774e-05 2.9098328e-06 9.181809e-06
000220 90 a5 55 37 4e 1c 50 b7 86 92 25 b7 a9 65 f4 b6
       1.2734337e-05 -1.2404356e-05 -9.8688815e-06 -7.2836015e-06
000230 81 0f bc b6 29 e7 bd b6 5c 43 9f 35 30 5b 18 35
       -5.6046415e-06 -5.6595495e-06 1.1866027e-06 5.675711e-07
000240 fe 4a 96 36 3a ca bc b6 51 9a e6 b6 a0 32 ea b7
       4.4790786e-06 -5.626379e-06 -6.872499e-06 -2.7918548e-05
000250 00 34 c7 b7 42 72 55 b7 2e 10 fd 37 50 c4 b5 b6
       -2.3746863e-05 -1.2722392e-05 3.0167485e-05 -5.417074e-06
000260 b1 84 b2 37 83 57 02 38 86 50 82 36 17 ca 6c b7
       2.1281043e-05 3.1075917e-05 3.883676e-06 -1.4113749e-05
000270 85 5b 29 37 1f 2c c8 36 7f 93 d9 b4 47 16 04 37
       1.00944935e-05 5.965601e-06 -4.0526717e-07 7.873e-06
000280 04 47 c7 37 cd 2d 3c b6 20 1f 99 37 9d d8 d2 37
       2.3755718e-05 -2.8040843e-06 1.8253515e-05 2.513482e-05
000290 5b 18 84 b3 6a e1 1f 36 0c d1 26 b7 42 7b d4 36
       -6.151159e-08 2.3824055e-06 -9.943044e-06 6.3324414e-06
0002a0 12 b0 fe 36 cb 7f a4 b6 b4 f9 90 37 f6 d7 a1 b6
       7.590287e-06 -4.902458e-06 1.7282415e-05 -4.823315e-06
0002b0 3a d5 4b 36 09 f3 08 37 92 b6 b4 b6 3e 71 c5 37
       3.0373471e-06 8.162818e-06 -5.385672e-06 2.3536963e-05
0002c0 2e 5a 9a 37 ad c2 15 b8 d3 e0 d9 b7 03 00 9c b7
       1.8400224e-05 -3.5705674e-05 -2.5973108e-05 -1.8596655e-05
0002d0 4a 24 a4 36 6e a5 11 b7 9a 43 31 37 79 f5 57 37
       4.8918055e-06 -8.681191e-06 1.0565762e-05 1.2872152e-05
0002e0 b6 c3 6c 35 4d 02 62 b7 54 7e 58 37 69 c0 d6 b6
       8.820165e-07 -1.3471185e-05 1.2904016e-05 -6.4000965e-06
0002f0 f0 ec 3c b7 0f 84 1e 35 7f 2d f0 b7 af 6a 84 37
       -1.12608395e-05 5.905176e-07 -2.8631415e-05 1.5785305e-05
000300 0e d3 3d b7 32 a1 b4 b7 db 8f 57 37 15 b8 cf b6
       -1.1314418e-05 -2.1532735e-05 1.2848493e-05 -6.1905107e-06
000310 40 ab 59 b7 ba fe 94 36 94 08 a4 36 3b f9 e5 36
       -1.297408e-05 4.440398e-06 4.8885795e-06 6.853746e-06
000320 2b ff 9f 37 b6 18 bc b5 a8 6c 2a 37 d2 ea 89 37
       1.9073099e-05 -1.4014283e-06 1.0158088e-05 1.644102e-05
000330 b8 34 09 37 aa 45 5d b7 48 eb ff 36 b5 4f a1 b5
       8.178111e-06 -1.3188846e-05 7.6269826e-06 -1.2018633e-06
000340 17 43 d3 b6 4d e5 c5 36 fe d5 bb b7 88 c7 9c 37
       -6.2961003e-06 5.8977516e-06 -2.2391785e-05 1.8689563e-05
000350 2f 2c 17 35 01 61 0b b7 f5 da 7d 37 4f 6f df 34
       5.631618e-07 -8.307631e-06 1.5130955e-05 4.1617974e-07
000360 f6 35 3a b6 e9 b1 7d 37 73 e3 69 37 31 5e ab 36
       -2.774757e-06 1.5121398e-05 1.3940839e-05 5.1071625e-06
000370 0a 1e 12 38 bb 7f f4 35 ae 0b 4d b8 fc ce 04 b8
       3.483709e-05 1.8216591e-06 -4.8886686e-05 -3.166402e-05
000380 8d b4 90 b7 fa e1 88 b7 b7 f2 d4 b6 53 a0 1e 37
       -1.7250213e-05 -1.6317692e-05 -6.346348e-06 9.454862e-06
000390 ac 1b 7d 36 b6 11 16 37 24 76 19 b8 d8 c7 e1 37
       3.7716045e-06 8.94482e-06 -3.658807e-05 2.691515e-05
0003a0 eb a8 00 b8 a0 f1 33 b8 bd fe 6e 37 fd 8e b5 b7
       -3.0674895e-05 -4.2901956e-05 1.4245216e-05 -2.1643466e-05
0003b0 61 6c b0 37 2d d5 d2 b7 10 fd 03 b8 d0 ed a7 36
       2.1031303e-05 -2.5133219e-05 -3.1468517e-05 5.004673e-06
0003c0 1d 28 70 b7 ab 86 05 37 6b 08 2d 36 a9 3f 35 b6
       -1.4314454e-05 7.958773e-06 2.5783909e-06 -2.7008157e-06
0003d0 e5 c0 e3 35 6f ea 33 36 3c 51 9a b6 c1 f3 84 36
       1.6968958e-06 2.6809537e-06 -4.5990146e-06 3.9622832e-06
0003e0 81 5a 8f 36 e6 9d 5d b6 4f e6 04 36 fe 89 e5 36
       4.272268e-06 -3.3023475e-06 1.980359e-06 6.8407962e-06
0003f0 6c e1 c0 b7 5f ef b4 b7 42 9c 09 b7 48 96 9d 38
       -2.2993154e-05 -2.1569138e-05 -8.202218e-06 7.5143354e-05

exp_avg_sq f4 [128, 5]
000000 ce 05 a2 30 dd 10 9f 31 34 85 8e 31 d4 71 93 31
       1.1788701e-09 4.629426e-09 4.1478874e-09 4.291204e-09
000010 52 9e c8 2f 6a 4f 1a 2e e0 e9 67 2f ac ae 5c 2f
       3.6492281e-10 3.508608e-11 2.1092417e-10 2.007094e-10
000020 34 a8 5b 2f cf 1c cc 2d 3d 17 1e 30 db fd 06 32
       1.9977692e-10 2.3204908e-11 5.751309e-10 7.857547e-09
000030 3b 89 ad 31 3c 23 b6 31 f0 62 43 30 39 c3 21 30
       5.050564e-09 5.300903e-09 7.1081185e-10 5.8848887e-10
000040 55 a0 5a 31 60 3f 1c 31 27 ff 10 31 29 da 7d 2f
       3.1814313e-09 2.2737012e-09 2.1099795e-09 2.3087722e-10
000050 8f a1 a7 30 be 7a a0 31 91 cb 88 31 81 06 84 31
       1.2196767e-09 4.670567e-09 3.9812638e-09 3.842445e-09
000060 6f b4 d7 2f 78 bd 5c 2f 03 44 a3 30 e5 75 84 30
       3.9236478e-10 2.0076196e-10 1.1879141e-09 9.637772e-10
000070 97 58 86 30 6c 84 fc 2e d2 1f 0e 31 e4 cc 4f 32
       9.774962e-10 1.1483156e-10 2.0681807e-09 1.20955725e-08
000080 a5 99 2c 32 fd fe 4d 32 99 0d 93 30 c6 a8 77 2f
       1.0046652e-08 1.1990548e-08 1.0699522e-09 2.252448e-10
000090 70 38 b7 31 f7 cf 1a 31 32 e6 07 31 8a b8 b7 2f
       5.332417e-09 2.2528164e-09 1.9775936e-09 3.341863e-10
0000a0 bf a1 20 30 1d aa 14 31 3f ed 37 31 45 d5 3a 31
       5.8437516e-10 2.1633533e-09 2.6764864e-09 2.7187792e-09
0000b0 d1 dc 4c 2f fb 90 16 30 ba ae 0b 31 b7 33 2a 31
       1.8632142e-10 5.477571e-10 2.0326483e-09 2.4767652e-09
0000c0 19 70 2d 31 c0 42 29 2f bf 01 88 2f 9a 8e 12 31
       2.5238533e-09 1.5394175e-10 2.4739497e-10 2.1326856e-09
0000d0 d0 39 a7 30 a3 ab 97 30 05 94 18 2f e8 d3 57 2f
       1.216728e-09 1.1035478e-09 1.3876907e-10 1.962942e-10
0000e0 21 9c 4f 31 f1 c5 08 31 4d 15 08 31 47 b3 62 2f
       3.0211214e-09 1.9903121e-09 1.9802713e-09 2.0618272e-10
0000f0 db f6 88 30 90 0e b7 31 45 e6 b7 31 2c a1 b2 31
       9.965463e-10 5.3276565e-09 5.3521796e-09 5.198805e-09
000100 a7 12 c4 2f 2b c8 80 30 70 56 ba 31 91 97 a8 31
       3.5665446e-10 9.370117e-10 5.4231393e-09 4.9066746e-09
000110 bd ae b2 31 10 8c a7 2f 79 1c 93 2f 6b e1 7b 31
       5.2003473e-09 3.0476643e-10 2.6759375e-10 3.6653443e-09
000120 86 ab 03 31 98 c9 f2 30 a9 41 8a 2f cf 35 19 2f
       1.9160509e-09 1.7665114e-09 2.5148708e-10 1.3934386e-10
000130 46 7a 1d 31 23 1b d1 30 54 84 d5 30 6e 0c 03 2f
       2.2916011e-09 1.5214464e-09 1.55354e-09 1.1918797e-10
000140 87 c7 e4 2f f3 01 43 31 10 f9 fa 30 80 38 e7 30
       4.161473e-10 2.8377343e-09 1.8260682e-09 1.682352e-09
000150 af e6 6f 2f c6 b4 8f 30 4a 27 25 32 e7 ce ea 31
       2.1818879e-10 1.0455998e-09 9.613197e-09 6.8338184e-09
000160 39 88 05 32 bc 44 5c 30 9b 6d b2 2f b7 d1 af 30
       7.772592e-09 8.013321e-10 3.245589e-10 1.279253e-09
000170 e7 a5 c8 30 62 6c c0 30 84 c6 d5 2e 04 d3 b6 31
       1.4599068e-09 1.4000643e-09 9.721382e-11 5.320887e-09
000180 21 e7 04 33 e5 3e c3 32 6a 6c b5 32 95 0d 0a 31
       3.0943855e-08 2.2729589e-08 2.1120474e-08 2.0089364e-09
000190 e4 f1 a3 2e 17 57 13 30 c9 4e b6 2f 43 13 a1 2f
       7.45535e-11 5.360205e-10 3.3161587e-10 2.9299416e-10
0001a0 61 bc 18 2e 0b 7a 5d 30 87 c8 89 31 5f 81 79 31
       3.4728113e-11 8.0572765e-10 4.010022e-09 3.6307808e-09
0001b0 a9 9b 84 31 4b 5e 6e 30 58 39 51 2f 82 c5 ca 30
       3.859402e-09 8.6717894e-10 1.9028812e-10 1.475357e-09
0001c0 5d 0c a1 30 70 d1 c3 30 cd b9 28 2f 50 cf 5d 30
       1.1717806e-09 1.4247643e-09 1.534552e-10 8.069394e-10
0001d0 d0 1b f7 31 ee 56 9c 31 70 23 8e 31 64 bc 0a 30
       7.191808e-09 4.5500803e-09 4.1367727e-09 5.0471827e-10
0001e0 93 03 46 2e d4 c3 3e 30 73 8f c9 2f 0b 95 aa 2f
       4.5023162e-11 6.9399886e-10 3.6663614e-10 3.102872e-10
0001f0 1c c4 83 2e f7 8b 41 2f 24 09 97 30 1b 93 7a 30
       5.992026e-11 1.7602973e-10 1.0989294e-09 9.115852e-10
000200 7b 69 82 30 79 9c ca 2e 4c 31 c4 2f 51 f8 ae 31
       9.488724e-10 9.2136916e-11 3.568722e-10 5.092297e-09
000210 cf 8d 4f 31 e6 54 5d 31 06 5f af 2f 57 15 91 2f
       3.0203073e-09 3.2207992e-09 3.1899833e-10 2.639051e-10
000220 c4 86 2f 31 19 60 d3 30 a3 49 c5 30 1a 43 66 2f
       2.5542457e-09 1.5379583e-09 1.4354565e-09 2.0942217e-10
000230 bf ca ca 2f 81 b8 8c 31 75 cc ff 30 23 cb e5 30
       3.6887646e-10 4.095512e-09 1.8611802e-09 1.6719678e-09
000240 f6 51 bf 2f 62 59 cc 30 4f db f6 31 6c 39 e1 31
       3.4800934e-10 1.4868358e-09 7.184475e-09 6.55489e-09
000250 41 5a d0 31 21 89 35 30 97 eb 59 30 9f e1 a9 31
       6.0638574e-09 6.604229e-10 7.9278933e-10 4.9441975e-09
000260 d5 9b a1 31 39 eb b9 31 bb d5 14 30 ee 7f 17 2f
       4.7034328e-09 5.4109504e-09 5.4145816e-10 1.377882e-10
000270 9f b7 80 30 d7 d5 58 30 7e 07 55 30 10 56 bd 2e
       9.365414e-10 7.8884227e-10 7.7499596e-10 8.610013e-11
000280 69 ad 06 30 a9 d8 85 31 56 a4 60 31 bd 4f 80 31
       4.8995347e-10 3.895441e-09 3.2689704e-09 3.7343555e-09
000290 9f 13 9b 2f 85 6f e2 2d 7c 06 d2 2f 0f 5d 87 2f
       2.8208277e-10 2.574275e-11 3.8203385e-10 2.462248e-10
0002a0 92 ed 77 2f 2e e3 52 2f 3f 4f 64 2f 3a c0 7a 31
       2.2548921e-10 1.9180099e-10 2.0764633e-10 3.6489056e-09
0002b0 22 00 14 31 68 78 19 31 6e dc 8d 2f 96 aa de 30
       2.153691e-09 2.2332873e-09 2.5804375e-10 1.6201109e-09
0002c0 b5 6f 54 32 05 4b 15 32 b1 7c 0a 32 82 f0 59 30
       1.2365423e-08 8.689999e-09 8.061009e-09 7.928592e-10
0002d0 58 93 b2 2e 96 8c da 30 9d 71 62 30 ff c4 56 30
       8.1206764e-11 1.5901545e-09 8.2379775e-10 7.8132695e-10
0002e0 f3 d3 cf 2e 24 b5 1a 2f 8d 3a 86 30 c0 46 83 30
       9.45092e-11 1.4070572e-10 9.766424e-10 9.551613e-10
0002f0 b6 c6 8f 30 f9 7b df 2e 15 c4 22 30 c9 34 21 31
       1.0461096e-09 1.0162888e-10 5.9213906e-10 2.3458588e-09
000300 4b a0 65 31 89 4f 76 31 b6 db 66 2f 69 68 4f 2f
       3.3415002e-09 3.5842922e-09 2.0996435e-10 1.8863634e-10
000310 f8 81 1b 31 9a fc ae 30 56 d5 a1 30 25 27 b8 2f
       2.2629347e-09 1.273196e-09 1.1774925e-09 3.349722e-10
000320 36 f5 5a 30 10 ae e7 31 b9 61 9a 31 a2 ec a2 31
       7.9656404e-10 6.7427735e-09 4.4930997e-09 4.7417226e-09
000330 ad 84 50 30 33 1f 54 2f 86 b0 fa 30 4d f7 ae 30
       7.5858503e-10 1.9292372e-10 1.8240065e-09 1.2730453e-09
000340 f7 eb a2 30 3d c2 0f 2f 3a 3e b2 2f 5e 82 1a 31
       1.1854117e-09 1.3074782e-10 3.2422226e-10 2.2484055e-09
000350 5a b4 1c 31 89 a0 1a 31 18 0f 53 2f 33 ec ef 2f
       2.2803506e-09 2.2501203e-09 1.91957e-10 4.3641676e-10
000360 79 86 0a 31 61 73 be 30 1a fd b3 30 89 00 2c 2f
       2.0158082e-09 1.3857112e-09 1.30959e-09 1.5643499e-10
000370 73 4c 66 31 bb ca 05 33 ce c2 ab 32 76 a8 99 32
       3.3512861e-09 3.1150858e-08 1.9995607e-08 1.7888151e-08
000380 30 e3 0d 31 de 00 da 2f 43 32 5d 31 4e d2 12 31
       2.0647342e-09 3.9654585e-10 3.2188303e-09 2.136534e-09
000390 68 4c 07 31 86 67 80 2f f4 4d 1e 31 57 ff 0c 32
       1.9688517e-09 2.3356622e-10 2.3036337e-09 8.20713e-09
0003a0 55 e4 2c 32 f6 3a 2f 32 29 53 1b 30 f9 fe ae 30
       1.0063634e-08 1.0199747e-08 5.650685e-10 1.2732634e-09
0003b0 13 27 e2 31 36 2b d3 31 59 51 d1 31 af 0b db 2f
       6.581908e-09 6.1458207e-09 6.0919487e-09 3.984417e-10
0003c0 b4 b9 06 2f 8a cc 7d 30 25 4d 58 30 80 ae 52 30
       1.2253204e-10 9.233153e-10 7.868997e-10 7.6645534e-10
0003d0 30 41 a7 2e 8c 81 33 2e fd c8 94 2f 4f 35 5b 2f
       7.6058604e-11 4.081495e-11 2.7063854e-10 1.9936873e-10
0003e0 aa 77 4b 2f 8e 9e 01 2e 0a 3d bf 2f 3d 41 29 31
       1.8505256e-10 2.947203e-11 3.4786068e-10 2.462982e-09
0003f0 01 18 ef 30 01 dd dd 30 ec d0 68 2f 01 28 57 31
       1.7396361e-09 1.6142679e-09 2.1174501e-10 3.1309357e-09

exp_avg f4 [128]
000000 08 56 98 38 59 75 81 37 39 fb a2 b8 04 ea 02 38
       7.2639494e-05 1.5432643e-05 -7.771556e-05 3.121236e-05
000010 9c 13 64 b8 c3 74 b1 b6 a9 f6 b6 38 83 e1 0e 38
       -5.43777e-05 -5.288604e-06 8.72438e-05 3.4065462e-05
000020 ba 02 ee b7 0f 66 35 b8 9e a5 f1 37 90 8b 03 38
       -2.837308e-05 -4.3248812e-05 2.880656e-05 3.136281e-05
000030 be 3c 66 b8 91 bf 95 b8 cc 2c 01 b8 27 df 05 38
       -5.4892844e-05 -7.140556e-05 -3.0797717e-05 3.1917498e-05
000040 66 da f4 37 95 ba bb 38 12 ca ee b7 fa 41 09 b9
       2.9188766e-05 8.9516085e-05 -2.8465907e-05 -0.00013089916
000050 08 46 2a 37 b8 29 43 38 1d 59 a4 37 cf d5 67 b8
       1.0149095e-05 4.6530477e-05 1.959182e-05 -5.5273817e-05
000060 91 b8 4c 37 82 4d b4 b6 a1 01 8a 38 51 70 ee b7
       1.220232e-05 -5.373441e-06 6.580656e-05 -2.8424112e-05
000070 7e b3 83 36 06 9b 74 b8 eb f2 5d 38 45 01 18 37
       3.925e-06 -5.831851e-05 5.291674e-05 9.060202e-06
000080 41 b2 3f 38 c8 ce 8d 37 7c 78 63 37 9b c3 a1 b8
       4.570396e-05 1.69048e-05 1.3558307e-05 -7.7135126e-05
000090 3d 67 e0 37 55 6d a8 b7 3d 71 07 b8 15 82 54 37
       2.6750955e-05 -2.0078072e-05 -3.229197e-05 1.2666472e-05
0000a0 8f 80 e5 37 89 7f c6 b6 a3 1b b0 b6 c5 00 0a 38
       2.7358792e-05 -5.915707e-06 -5.248426e-06 3.290248e-05
0000b0 a3 70 cc b8 29 90 a0 37 10 c1 9f b8 de b9 80 b8
       -9.748458e-05 1.9140616e-05 -7.6176715e-05 -6.138136e-05
0000c0 e5 3b ff 35 4f e3 18 37 aa e6 55 b8 fc 9d 1f 36
       1.9016412e-06 9.11283e-06 -5.099798e-05 2.3784805e-06
0000d0 23 0e 7e 37 e1 4a 36 37 3b ac 2d 38 a1 e1 a1 b8
       1.5142871e-05 1.0865479e-05 4.1406816e-05 -7.719105e-05
0000e0 05 06 9b b8 83 14 8a 38 0d 13 a4 b8 b1 8c 32 37
       -7.392097e-05 6.5841734e-05 -7.823678e-05 1.0642384e-05
0000f0 02 88 63 b7 46 9a f5 b7 2d 31 1f b8 08 61 8c 38
       -1.3561921e-05 -2.9278115e-05 -3.7954353e-05 6.693794e-05
000100 bf 0e c8 b8 f7 3e a8 b8 0d d1 d6 37 86 87 cb 37
       -9.53949e-05 -8.0225924e-05 2.5608135e-05 2.4262594e-05
000110 9f df 49 36 eb 72 76 37 8f b6 4f 38 df 24 64 b8
       3.0081499e-06 1.4689499e-05 4.9522667e-05 -5.4393775e-05
000120 4e 73 3a b7 50 2f 1e b8 e2 f0 ac 37 23 26 1a 38
       -1.111331e-05 -3.77142e-05 2.0616168e-05 3.675198e-05
000130 fa a0 ef b7 8a 5e a4 37 88 16 45 37 24 9e 85 37
       -2.856598e-05 1.9594347e-05 1.1747361e-05 1.5928475e-05
000140 08 b7 b8 37 c7 b4 92 37 dd 30 ed b6 f4 51 33 38
       2.201974e-05 1.7488737e-05 -7.068839e-06 4.275325e-05
000150 43 da e4 b7 b1 7b a4 37 0d 7a be 37 60 6d 03 b8
       -2.7281354e-05 1.9607922e-05 2.27066e-05 -3.1334697e-05
000160 c1 ef b6 37 33 97 7d b8 53 d6 f7 37 8e 8b fb b7
       2.1807735e-05 -6.0460716e-05 2.9544497e-05 -2.9986517e-05
000170 94 0d 17 b8 f8 cf d0 37 60 5b 15 38 9f c1 0d 38
       -3.601385e-05 2.4892375e-05 3.5609468e-05 3.3797343e-05
000180 9f 1c 81 37 84 b7 22 b8 0e f0 0b 37 ac 91 bc 37
       1.5391326e-05 -3.8794722e-05 8.340938e-06 2.247918e-05
000190 3f be c8 36 03 01 fc b8 43 d4 0b 38 50 9b 8a 37
       5.982612e-06 -0.00012016485 3.3337867e-05 1.6523205e-05
0001a0 32 a1 78 b8 e5 73 fd b7 82 38 60 38 a6 78 60 b8
       -5.9277932e-05 -3.0213918e-05 5.345839e-05 -5.3518124e-05
0001b0 d8 08 fd 37 fa 43 8c b7 0a 84 10 b8 87 a4 2f b8
       3.0164068e-05 -1.6720955e-05 -3.4455246e-05 -4.187648e-05
0001c0 77 8f 63 38 ba d5 84 b8 0b cf 24 38 00 8e 84 b7
       5.425463e-05 -6.33406e-05 3.929347e-05 -1.580175e-05
0001d0 26 4e 7c b7 73 2b f4 b8 34 08 f1 37 e0 f3 22 37
       -1.5038566e-05 -0.0001164292 2.8733259e-05 9.712734e-06
0001e0 08 00 69 b8 7e ca 09 38 a7 4e 40 37 f0 73 d9 b7
       -5.5551558e-05 3.285193e-05 1.14624045e-05 -2.5922403e-05
0001f0 5b 77 c9 36 fe 90 52 38 ab 80 9a b8 47 9a 87 37
       6.0041616e-06 5.0202936e-05 -7.3672585e-05 1.6165095e-05
